training/dirckpt/IAP_best_loss_0.ckpt (torch, 212491 bytes, 25 tensors)

JKNet_layer_list.0.weight f4 [111, 16]
-0.18937123 0.37507594 0.36860558 -0.53485113 0.30985385 0.4254663 -0.50852674 0.1996986
-0.15843269 -1.9935615 -0.020051626 -0.14762452 0.5253287 0.129559 0.3549286 -0.19163528
0.50582385 0.35292843 0.40264627 0.34916484 0.21555467 0.25064808 -0.5833927 0.5298373
0.4288229 0.22530359 0.28277543 0.12381125 -0.38667548 -0.23447403 0.3613343 0.10781998
0.5299471 0.1950055 -0.11812659 -0.3089145 0.21154156 0.1897324 0.4516377 -0.10845782
-0.023091398 -0.6873338 0.23837157 0.035167076 0.67033833 -0.37550032 0.21173728 -0.029889772
-0.4158887 -0.53341585 -0.55616534 -0.33567104 -0.6625469 -0.07479381 0.42958134 -0.11710318
-0.23642789 -0.11922921 -0.32556298 -0.65888953 0.39690316 -0.45958543 0.40318766 -0.043231964
-0.13367328 -0.7304466 -0.028366245 -0.6130199 -0.43117094 -0.6142995 0.7054561 -0.53576666
0.49045655 -0.809808 -0.28497803 -0.3960549 0.5570683 -0.5286747 0.23874404 0.35529745
-0.051577184 -0.1297194 -0.12080087 -0.46836543 0.05306687 -0.17765805 0.46727997 -0.29483137
-0.0044958126 -0.19914715 0.09707028 -0.14795771 0.6843194 0.13104185 0.09370943 -0.062949985
0.6762748 0.37103504 0.302842 0.10797788 0.25949523 0.39406547 -0.3615302 0.27010414
0.4088829 0.2557423 0.2531974 0.17738496 -0.49222937 0.33909774 0.48955053 0.44977546
0.50986826 -0.1055195 0.11853604 0.1154682 0.40558484 -0.004380827 -0.3372412 0.23560782
0.4975286 0.19737843 0.4382275 -0.2074559 -0.5386772 0.24332133 -0.20182917 0.12890396
-0.12894708 -0.8081726 0.054558158 0.34316677 -0.38763896 -0.17636384 0.051448256 -0.4430533
-0.2729009 -1.0534312 -0.25097018 -0.7193819 -0.09708421 -0.5582887 0.2678779 0.06117924
0.64754766 0.54904324 0.21562557 0.37532258 0.6076228 0.15997116 0.052431982 0.23576921
0.09370866 0.065618135 0.60838467 0.287769 0.16505541 0.50937057 -0.32410103 -0.39921734
0.23402274 0.10386664 0.26194644 -0.67223626 0.18851218 -0.21316987 0.24716207 -0.02378328
0.135883 -1.2429627 0.10036683 -0.5415478 0.4072456 -0.28991205 0.3130432 0.3640828
-0.0802804 0.11184365 0.51141465 0.12778997 0.30961165 0.44546363 -0.21377738 -0.23104066
0.39980564 0.055965595 0.21901274 -0.0071384963 0.48586622 0.5297643 0.0028113923 0.47281003
0.15419297 0.7086982 0.06774397 -0.3131194 0.06386254 0.21992205 -0.043753184 0.42909837
-0.30473903 0.14075737 0.19954754 0.005907981 -0.34041002 0.260985 0.20269628 -0.023947993
-0.08694835 0.45655644 0.90141565 0.25128278 0.06890525 0.16646984 -0.686081 -0.3081802
1.207112 0.110084735 0.45348373 0.18851183 -0.89344287 -0.113132246 0.028033715 -0.51381403
0.06165212 0.57048744 0.9357352 0.39807948 0.2867032 0.14899395 -0.6524906 0.22408916
0.20127732 0.56703174 0.60197884 0.4119951 0.03756198 0.2807671 0.050092705 -0.07909158
0.361994 0.37297565 0.10311146 0.35966113 0.3112164 0.46403664 -0.32932556 -0.17529337
-0.17757632 0.11569995 0.13411576 0.44530544 0.4454436 -0.020552933 -0.7413334 -1.0044011
00000000: 88ea 41be f409 c03e dfb9 bc3e 01ec 08bf
00000010: 2aa5 9e3e b8d6 d93e cf2e 02bf ca7d 4c3e
00000020: 2e3c 22be 062d ffbf 4f43 a4bc e22a 17be
00000030: f17b 063f 1dab 043e 34b9 b53e 0a3c 44be
00000040: ac7d 013f 09b3 b43e a727 ce3e bcc5 b23e
00000050: 5dba 5c3e f254 803e 3959 15bf 6ba3 073f
00000060: ad8e db3e fcb5 663e f1c7 903e c190 fd3d
00000070: 54fa c5be f619 70be cf00 b93e b9d0 dc3d
00000080: 9daa 073f 86af 473e 5bec f1bd 0b2a 9ebe
00000090: 5a9e 583e 3649 423e 0e3d e73e 221f debd
000000a0: 2c2a bdbc 1cf5 2fbf ad17 743e 5a0b 103d
000000b0: 4b9b 2b3f 9441 c0be a8d1 583e 65db f4bc
000000c0: 5def d4be f18d 08bf da60 0ebf 13dd abbe
000000d0: ac9c 29bf 7f2d 99bd 16f2 db3e cbd3 efbd
000000e0: 271a 72be 722e f4bd 31b0 a6be fcac 28bf
000000f0: e436 cb3e c84e ebbe 9d6e ce3e 0014 31bd
00000100: a6e1 08be 8cfe 3abf 5460 e8bc dfee 1cbf
00000110: 70c2 dcbe bb42 1dbf c598 343f 0128 09bf
00000120: 1f1d fb3e 944f 4fbf a4e8 91be b5c7 cabe
00000130: 079c 0e3f 3a57 07bf 5179 743e 8ce9 b53e
00000140: 9942 53bd 2ad5 04be 7266 f7bd 98cd efbe
00000150: a55c 593d feeb 35be 523f ef3e 23f4 96be
00000160: 9c51 93bb 3bed 4bbe c8cc c63d 3a82 17be
00000170: 8e2f 2f3f d62f 063e bbea bf3d eceb 80bd
00000180: 5820 2d3f 4ef8 bd3e 1b0e 9b3e 8223 dd3d
00000190: 8fdc 843e f3c2 c93e 7d1a b9be 174b 8a3e
000001a0: 1959 d13e a8f0 823e 17a3 813e 67a4 353e
000001b0: 7d05 fcbe 389e ad3e 5ea6 fa3e f848 e63e
000001c0: ba86 023f 9c1a d8bd 06c3 f23d 977a ec3d
000001d0: d1a8 cf3e 0a8d 8fbb e1aa acbe 2d43 713e
000001e0: 12bc fe3e 921d 4a3e 5b5f e03e 526f 54be
000001f0: c0e6 09bf 3a29 793e 4eac 4ebe 66ff 033e
00000200: b40a 04be 66e4 4ebf 6078 5f3d 8eb3 af3e
00000210: 9d78 c6be b998 34be 68bb 523d e2d7 e2be
00000220: abb9 8bbe d5d6 86bf 2a7f 80be 6a29 38bf
00000230: 16d4 c6bd 02ec 0ebf 4b27 893e 1597 7a3d
00000240: afc5 253f 198e 0c3f f3cc 5c3e 482a c03e
00000250: 2b8d 1b3f 7bcf 233e ebc2 563d 7c6d 713e
00000260: 53ea bf3d cd62 863d 19bf 1b3f 7556 933e
00000270: 4904 293e 1c66 023f 92f0 a5be 3766 ccbe
00000280: a8a3 6f3e 08b8 d43d d81d 863e ad17 2cbf
00000290: 5609 413e 3449 5abe 0e18 7d3e 27d5 c2bc
000002a0: ea24 0b3e 6719 9fbf 208d cd3d e0a2 0abf
000002b0: 7f82 d03e 5a6f 94be 3347 a03e 1069 ba3e
000002c0: 0d6a a4bd 490e e53d 12ec 023f 60db 023e
000002d0: 6b85 9e3e cf13 e43e 75e8 5abe ec95 6cbe
000002e0: 53b3 cc3e 2e3c 653d e044 603e 0cea e9bb
000002f0: 75c3 f83e a29e 073f 563f 383b 2814 f23e
00000300: c3e4 1d3e 3f6d 353f 5abd 8a3d 3051 a0be
00000310: 5dca 823d 3f33 613e 8a36 33bd c8b2 db3e
00000320: c106 9cbe b322 103e 3156 4c3e bd97 c13b
00000330: 394a aebe d39f 853e 9d8f 4f3e 952e c4bc
00000340: fa11 b2bd c4c1 e93e 2dc3 663f 23a8 803e
00000350: 321e 8d3d 1277 2a3e 01a3 2fbf ccc9 9dbe
00000360: a582 9a3f 1b74 e13d 052f e83e 3f09 413e
00000370: acb8 64bf e1b1 e7bd f6a6 e53c 5189 03bf
00000380: ef86 7c3d 770b 123f 588c 6f3f 13d1 cb3e
00000390: c3ca 923e df91 183e a009 27bf a177 653e
000003a0: a41b 4e3e fe28 113f 491b 1a3f 06f1 d23e
000003b0: 97da 193d b5c0 8f3e 022e 4d3d c4fa a1bd
000003c0: 4757 b93e aaf6 be3e 1a2c d33d 8125 b83e
000003d0: c257 9f3e 3696 ed3e 5c9d a8be 1b80 33be
000003e0: 91d6 35be 18f4 ec3d a455 093e 13ff e33e
000003f0: 2f11 e43e a05e a8bc 07c8 3dbf 3790 80bf

JKNet_layer_list.0.bias f4 [111]
0.22090912 0.27738875 0.10124219 0.020054458 -0.34271064 -0.07120406 -0.4584312 -0.081789866
0.13001393 -0.1118255 0.2885101 -0.12477231 -0.57754654 -0.53286797 0.07496449 -0.5588335
0.2995742 -0.3229956 -0.472187 0.18841136 0.14570789 -0.3545806 0.30521983 -0.4860205
0.06047849 -0.36287236 0.17928857 0.14010222 0.37090498 -0.1325503 0.14872943 -0.3395212
0.27169424 -0.22807193 0.045197718 -0.6461313 -0.271651 0.021675354 -0.02320108 0.11313267
0.29502675 -0.38258302 -0.12473885 0.22945698 0.18065695 0.17789626 -0.24966387 0.17731936
0.22727479 -0.29193118 0.32371205 0.04618817 0.37342498 -0.09602833 -0.05986918 0.0781555
0.03163571 0.21382973 -0.28852433 0.21267846 0.16853194 0.17233889 -0.16858582 -0.25315595
0.13051197 0.3652143 0.6532452 0.2648924 0.66132194 0.38030738 0.28625855 -0.2415453
0.099736296 -0.29674983 -0.27087897 0.115825035 0.14638388 0.44729847 0.28078893 -0.055056646
-0.37533242 -0.68483025 0.054617442 0.38742167 0.43027192 -0.40186575 0.5098062 0.07993717
-0.5985136 -0.3384008 -0.348029 -0.47959515 -0.087185025 0.08112755 0.41425392 -0.09225904
-0.15025665 1.1578318 0.22114089 0.20152515 -0.004075959 0.23026666 -0.353984 0.13857725
-0.6607128 0.15019041 -0.16344874 -0.22824873 -0.50477856 0.31505427 -0.25380346
00000000: 0036 623e e605 8e3e 1158 cf3d 3f49 a43c
00000010: c577 afbe 6fd3 91bd 7fb7 eabe 7281 a7bd
00000020: 5f22 053e c504 e5bd 99b7 933e a088 ffbd
00000030: 17da 13bf 096a 08bf fc86 993d b60f 0fbf
00000040: ca61 993e ae5f a5be 7fc2 f1be e8ee 403e
00000050: 7334 153e 978b b5be c645 9c3e aed7 f8be
00000060: 4bb8 773d 68ca b9be 6c97 373e f576 0f3e
00000070: 42e7 bd3e 44bb 07be 874c 183e b9d5 adbe
00000080: 821b 8b3e b08b 69be 3e21 393d dc68 25bf
00000090: d715 8bbe 8390 b13c 3110 bebc 1ab2 e73d
000000a0: bf0d 973e ece1 c3be 1577 ffbd c5f6 6a3e
000000b0: 23fe 383e 702a 363e e3a7 7fbe 3593 353e
000000c0: b9ba 683e 0178 95be 96bd a53e ce2f 3d3d
000000d0: 8f31 bf3e 80aa c4bd 6339 75bd fe0f a03d
000000e0: 7294 013d 2ef6 5a3e 76b9 93be 62c8 593e
000000f0: a393 2c3e 9b79 303e c3a1 2cbe a89d 81be
00000100: eea4 053e 5efd ba3e 143b 273f fa9f 873e
00000110: 654c 293f a6b7 c23e 7b90 923e a757 77be
00000120: 8b42 cc3d 98ef 97be a6b0 8abe ad35 ed3d
00000130: a8e5 153e 4e04 e53e 91c3 8f3e 1483 61bd
00000140: 922b c0be 0951 2fbf 8ab6 5f3d 225c c63e
00000150: 9a4c dc3e 59c1 cdbe a982 023f 19b6 a33d
00000160: 3038 19bf df42 adbe db30 b2be 7f8d f5be
00000170: 108e b2bd 3326 a63d 1719 d43e 4ff2 bcbd
00000180: e1dc 19be d533 943f c272 623e 9c5c 4e3e
00000190: 9f8f 85bb 06cb 6b3e 643d b5be 32e7 0d3e
000001a0: 7924 29bf 84cb 193e 1b5f 27be 09ba 69be
000001b0: 2b39 01bf cb4e a13e 87f2 81be

JKNet_layer_list.1.weight f4 [111]
1.8909627 0.68061507 1.0261436 1.3126576 1.1208708 1.3017974 0.7566408 0.7879698
1.192861 0.783855 1.3496761 1.1305144 0.1449358 1.3704451 1.6275655 1.1054826
1.1305493 1.2535695 0.51264733 1.082409 1.0640239 1.378111 1.6886333 0.6985621
1.1277006 0.56627274 1.5106332 0.64414334 1.8518742 0.30268437 1.2438289 0.7473877
0.7466817 0.99458075 1.2527478 1.3659873 0.88221115 1.3470837 0.41676745 1.3833332
0.8853551 0.290349 1.4385587 0.9351752 0.7672233 1.1291302 1.6857241 2.1409369
1.2388269 1.1901616 0.5237133 1.6702446 0.19774088 1.2423235 1.3903737 1.726784
0.8874143 0.6867697 0.4744554 1.023888 0.86510026 1.2164425 1.1096369 1.1148503
0.9245407 1.2553545 0.9351347 1.1604134 1.8564953 1.1728804 0.67320085 1.2332478
1.1853234 0.7939886 1.3249319 1.4040797 1.125115 1.3591621 0.84424394 1.3057376
0.66712517 1.1075248 1.5743161 1.7905246 0.41957602 0.65027875 1.2676967 0.85986733
1.1564494 1.3585254 0.65061647 1.1224656 0.6073942 0.93987536 0.76503193 1.1348894
1.1397728 0.9253684 0.51389956 0.5277701 1.441112 1.4617239 1.0613993 1.0503789
0.9582009 0.911709 0.2145243 1.014541 1.1069921 0.5119604 1.2407035
00000000: 110b f23f ca3c 2e3f ac58 833f 2a05 a83f
00000010: b278 8f3f 4ca1 a63f 36b3 413f 64b8 493f
00000020: abaf 983f b9aa 483f 30c2 ac3f b2b4 903f
00000030: 0d6a 143e bf6a af3f 1154 d03f 7480 8d3f
00000040: d7b5 903f f774 a03f db3c 033f 618c 8a3f
00000050: ef31 883f f165 b03f 2325 d83f f7d4 323f
00000060: 7e58 903f 40f7 103f 6e5c c13f 94e6 243f
00000070: 370a ed3f 72f9 9a3e c935 9f3f cd54 3f3f
00000080: 8826 3f3f d89c 7e3f 0a5a a03f acd8 ae3f
00000090: 97d8 613f 3d6d ac3f 8b62 d53e 1011 b13f
000000a0: a2a6 623f a0a8 943e b122 b83f a467 6f3f
000000b0: bf68 443f 5787 903f cfc5 d73f 1c05 0940
000000c0: e191 9e3f 3757 983f 1312 063f 93ca d53f
000000d0: 967c 4a3e 7504 9f3f c4f7 b13f 4207 dd3f
000000e0: 952d 633f 24d0 2f3f d1eb f23e c30e 833f
000000f0: 3677 5d3f 63b4 9b3f 9508 8e3f 6ab3 8e3f
00000100: b3ae 6c3f 75af a03f fd64 6f3f 6d88 943f
00000110: a3a1 ed3f f220 963f e456 2c3f 10db 9d3f
00000120: adb8 973f d642 4b3f 5e97 a93f e2b8 b33f
00000130: c503 903f 06f9 ad3f 5f20 583f 6922 a73f
00000140: b7c8 2a3f 5fc3 8d3f 3183 c93f e92f e53f
00000150: abd2 d63e ab78 263f e343 a23f 4420 5c3f
00000160: 8906 943f 29e4 ad3f cd8e 263f f4ac 8f3f
00000170: 307e 1b3f ac9b 703f 22d9 433f 0e44 913f
00000180: 13e4 913f f2e4 6c3f ec8e 033f f11b 073f
00000190: 5c76 b83f c519 bb3f efdb 873f d172 863f
000001a0: a74c 753f c365 693f 42ac 5b3e 7bdc 813f
000001b0: ebb1 8d3f d60f 033f 5fcf 9e3f

JKNet_layer_list.1.bias f4 [111]
-0.7858964 -0.6214112 -0.07882758 -0.03942292 -0.2572665 -0.42023402 -0.38497803 -0.43707484
-0.36624417 0.70149577 -0.5915414 -0.12817846 -0.5705415 0.008948961 -0.026988985 -0.1230526
-0.6458712 -0.44406515 0.12302015 0.07318055 -0.010154113 0.82220876 0.11025317 -0.2542334
-0.397179 -0.58846736 0.1658562 -0.3358507 -1.407594 -0.5978862 0.6573328 -0.33595845
-0.20170344 -0.39145103 -0.38774565 0.048021197 0.22221662 -0.23121217 -0.41063675 0.44042543
-0.17768726 -0.48655277 -0.15611982 -0.08886369 0.13224798 0.04492212 0.12195832 0.23605224
0.27385414 0.19006506 -0.35589993 0.19931951 -0.88760376 -0.25928155 0.04722303 -0.32930884
-0.14713882 0.14753802 -0.68298155 -0.025407702 -0.39910153 -0.69862306 0.52362597 -0.5338567
-0.5167862 0.12901829 -0.13737793 -0.063784726 0.50338167 0.5970431 -0.019258507 -0.3803481
0.22793879 -0.042026736 -0.29913896 -0.14541042 0.15334146 -0.02426951 -0.22675413 -0.39160228
-0.2960804 0.52698225 0.17910166 -0.40486482 -0.42104483 0.056460623 -0.055144504 -0.24417335
0.5696744 -0.15542115 0.23107728 0.33716044 -0.0041481974 -0.6443567 0.034156412 0.42581397
-0.00074272323 0.6491951 -0.65468067 -0.57273495 0.37680417 -1.0302756 -0.26886377 0.36210957
-0.33666322 -0.32288635 -0.5101935 -0.11141821 -0.06244345 0.3444891 -0.28532887
00000000: 8230 49bf ce14 1fbf 5b70 a1bd ee79 21bd
00000010: 6fb8 83be ea28 d7be d71b c5be 46c8 dfbe
00000020: 5b84 bbbe 3a95 333f 426f 17bf 3741 03be
00000030: 020f 12bf aa9e 123c 0118 ddbc 0003 fcbd
00000040: d157 25bf 825c e3be fdf1 fb3d afdf 953d
00000050: 705d 26bc 467c 523f 6acc e13d e12a 82be
00000060: 0c5b cbbe cca5 16bf 35d6 293e 9ff4 abbe
00000070: 0a2c b4bf 120f 19bf f646 283f bf02 acbe
00000080: 598b 4ebe 456c c8be 9986 c6be e0b1 443d
00000090: c18c 633e e2c2 6cbe fb3e d2be 717f e13e
000000a0: a6f3 35be 721d f9be e0dd 1fbe 2bfe b5bd
000000b0: 046c 073e 4200 383d 49c5 f93d aeb7 713e
000000c0: 9c36 8c3e 6aa0 423e 8438 b6be 6a1a 4c3e
000000d0: 003a 63bf 8dc0 84be f06c 413d 2b9b a8be
000000e0: 8fab 16be 3514 173e e1d7 2ebf d023 d0bc
000000f0: 0957 ccbe f6d8 32bf 5a0c 063f d5aa 08bf
00000100: 1a4c 04bf 5f1d 043e cdac 0cbe 91a1 82bd
00000110: 9fdd 003f d1d7 183f 04c4 9dbc fcbc c2be
00000120: c968 693e 3a24 2cbd be28 99be 78e6 14be
00000130: 8b05 1d3e dad0 c6bc 3c32 68be 1880 c8be
00000140: da97 97be 4fe8 063f 6d66 373e 714a cfbe
00000150: 3093 d7be 4143 673d 34df 61bd 9408 7abe
00000160: 2ed6 113f b926 1fbe 869f 6c3e 4ba0 ac3e
00000170: 9aed 87bb 90f4 24bf 98e7 0b3d 4a04 da3e
00000180: 50b3 42ba a631 263f 2799 27bf c29e 12bf
00000190: 7aec c03e 12e0 83bf 83a8 89be 6d66 b93e
000001a0: 1f5f acbe 5c51 a5be 0b9c 02bf 3b2f e4bd
000001b0: b4c4 7fbd e060 b03e a016 92be

JKNet_layer_list.1.running_mean f4 [111]
0.10143363 0.4307725 0.30918828 -0.21208385 -0.5141498 0.06768214 -0.21217886 -0.011577317
-0.36230725 0.3596063 0.32145098 0.24555299 -0.4882671 -0.5866886 0.41684222 -0.42619053
0.5091548 -0.5044259 -0.5052713 0.046426408 -0.40067303 -0.68246454 0.027258584 -0.46346164
-0.038994722 -0.49860433 -0.22779642 0.30049592 0.17814267 0.009716112 0.5402041 -0.14091966
0.55561966 -0.06574354 0.18823083 -1.1283189 -0.06406264 -0.121840075 -0.0682667 0.20201916
0.5087736 -0.18605094 0.10065692 0.61129606 0.4186246 0.2903909 -0.5147304 0.40858638
-0.1468953 -0.44568667 0.015619877 0.12904829 0.39966872 0.2097994 -0.12336258 0.07223321
-0.15463017 0.10274914 -0.1815279 -0.17273745 -0.25288373 0.00532558 0.18211013 -0.05591837
0.50409806 0.13800858 0.76116526 0.0029660433 0.05295668 0.47041667 0.2891659 -0.12282445
0.21368395 0.09049696 -0.554233 0.43164605 0.6984227 0.27095574 -0.043970626 -0.20173265
-0.047428954 -1.0495274 0.16746938 0.62083334 0.31360418 -0.5601832 0.857535 0.4134133
-0.58101434 -0.09081282 -0.19291642 -0.42950568 0.120464765 -0.059094176 0.39071527 -0.13774078
-0.05482092 1.6705168 -0.11806848 0.44666302 0.08774565 0.54329187 -0.6719201 0.41908252
-0.94019926 -0.040959887 0.2184743 -0.3876279 -0.733979 0.4313382 -0.6728107
00000000: 6fbc cf3d 378e dc3e ed4d 9e3e 822c 59be
00000010: 529f 03bf ef9c 8a3d 6a45 59be c9ae 3dbc
00000020: 5680 b9be 511e b83e 3995 a43e 3e72 7b3e
00000030: 25fe f9be 3931 16bf 586c d53e a535 dabe
00000040: f857 023f 0e22 01bf 7659 01bf 9e29 3e3d
00000050: 0425 cdbe ffb5 2ebf 654d df3c d84a edbe
00000060: eeb8 1fbd 1149 ffbe 7743 69be 9ada 993e
00000070: 086b 363e 5430 1f3c d14a 0a3f 3e4d 10be
00000080: 173d 0e3f 8da4 86bd 95bf 403e c16c 90bf
00000090: 4633 83bd 4a87 f9bd 69cf 8bbd 1cde 4e3e
000000a0: fd3e 023f 2384 3ebe 3725 ce3d e67d 1c3f
000000b0: f755 d63e 1eae 943e 5fc5 03bf 3c32 d13e
000000c0: b96b 16be 0b31 e4be 83ea 7f3c 3c25 043e
000000d0: 61a1 cc3e a7d5 563e 85a5 fcbd 01ef 933d
000000e0: 5f57 1ebe 246e d23d 73e2 39be 16e2 30be
000000f0: fa79 81be 3482 ae3b 147b 3a3e a90a 65bd
00000100: 920c 013f 1f52 0d3e badb 423f f361 423b
00000110: 1be9 583d 74da f03e 8e0d 943e 638b fbbd
00000120: f7cf 5a3e 7856 b93d 37e2 0dbf b600 dd3e
00000130: d4cb 323f b6ba 8a3e 8b1a 34bd 0193 4ebe
00000140: dd44 42bd ea56 86bf 187d 2b3e efee 1e3f
00000150: ba90 a03e 2b68 0fbf 6a87 5b3f e8aa d33e
00000160: 5bbd 14bf 12fc b9bd e28b 45be 2be8 dbbe
00000170: 3bb6 f63d bc0c 72bd d50b c83e eb0b 0dbe
00000180: e78b 60bd 7fd3 d53f e3cd f1bd 04b1 e43e
00000190: feb3 b33d 2d15 0b3f f502 2cbf fc91 d63e
000001a0: e6b0 70bf 8ec5 27bd bab7 5f3e 2a77 c6be
000001b0: 0ce6 3bbf 5cd8 dc3e 523d 2cbf

JKNet_layer_list.1.running_var f4 [111]
0.019651983 0.11655947 0.050421983 0.17825986 0.29482085 0.062122025 0.15614705 0.10513872
0.12401146 0.108175084 0.053973094 0.023662772 0.0606837 0.08906268 0.12983434 0.017023038
0.038897786 0.014689668 0.019525407 0.16245247 0.17124113 0.018452398 0.109701246 0.14439455
0.06585713 0.089959055 0.094578095 0.049398933 0.028113032 0.039314944 0.023568055 0.06222333
0.008520975 0.12276612 0.09515839 0.16317156 0.062960856 0.014239702 0.03562141 0.029951071
0.35129958 0.018583365 0.016535629 0.04580765 0.050921045 0.033560574 0.015005825 0.0612927
0.08117205 0.01847356 0.1333765 0.040286522 0.12552711 0.023605537 0.017273687 0.02129232
0.1272906 0.109835915 0.14467096 0.07821852 0.086476654 0.090336666 0.03776259 0.037145726
0.01220096 0.041771702 0.1934925 0.06397825 0.019962417 0.007919822 0.07506496 0.010506867
0.20792496 0.045154326 0.044242445 0.070023105 0.027416183 0.04629715 0.17158939 0.08591658
0.0869051 0.015641386 0.16423811 0.061476503 0.014561188 0.09187968 0.0128534 0.028020535
0.1293988 0.011679409 0.024823334 0.025951618 0.06789574 0.15832092 0.092384584 0.03836947
0.083814286 0.017480718 0.15627082 0.029884003 0.09496781 0.016150525 0.16688524 0.016950173
0.06520769 0.04177238 0.07195414 0.1198535 0.12456222 0.044426106 0.035919905
00000000: 32fd a03c bbb6 ee3d 4887 4e3d c189 363e
00000010: c2f2 963e aa73 7e3d 03e5 1f3e f852 d73d
00000020: b8f9 fd3d e68a dd3d e412 5d3d 6ed8 c13c
00000030: 798f 783d 7f66 b63d 4bf3 043e e673 8b3c
00000040: 4953 1f3d efac 703c bff3 9f3c f159 263e
00000050: d659 2f3e 7c29 973c 0cab e03d 2adc 133e
00000060: 1ae0 863d 743c b83d 29b2 c13d 8956 4a3d
00000070: 4d4d e63c b508 213d cb11 c13c e4dd 7e3d
00000080: 8f9b 0b3c ce6c fb3d 67e2 c23d 7216 273e
00000090: 9ff1 803d a44d 693c c1e7 113d f35b f53c
000000a0: 8add b33e 243c 983c ba75 873c cda0 3b3d
000000b0: 9692 503d d076 093d feda 753c 0e0e 7b3d
000000c0: 883d a63d dd55 973c d993 083e 7b03 253d
000000d0: 2e8a 003e 6660 c13c 8c81 8d3c 3b6d ae3c
000000e0: 7858 023e a7f1 e03d a024 143e 0831 a03d
000000f0: ac1a b13d 6e02 b93d f2ac 1a3d 1e26 183d
00000100: 89e6 473c ce18 2b3d e622 463e 0707 833d
00000110: 3988 a33c 24c2 013c a8bb 993d ff24 2c3c
00000120: 48ea 543e bef3 383d 9137 353d 4668 8f3d
00000130: e797 e03c 15a2 3d3d 21b5 2f3e 08f5 af3d
00000140: 4dfb b13d 5d22 803c 092e 283e c9ce 7b3d
00000150: 0d92 6e3c 6a2b bc3d 1197 523c 528b e53c
00000160: 1e81 043e fe5a 3f3c 4e5a cb3c 7d98 d43c
00000170: ec0c 8b3d e11e 223e 2134 bd3d 4e29 1d3d
00000180: d3a6 ab3d b933 8f3c 7505 203e 4ccf f43c
00000190: 7c7e c23d 1b4e 843c f7e3 2a3e 17db 8a3c
000001a0: 9c8b 853d 8419 2b3d b15c 933d c075 f53d
000001b0: 7a1a ff3d 26f8 353d c020 133d

JKNet_layer_list.4.weight f4 [111, 111]
0.48626712 -0.35463175 -0.56602293 -0.29911458 -0.23407887 -0.033654686 -0.40508318 -0.40218574
-0.40434146 0.08302102 -0.43025917 0.47953418 -0.18017499 0.4515089 0.030346667 0.0077421996
-0.35452718 -0.444721 -0.32165158 0.232268 -0.3306761 -0.54168063 0.38665336 -0.4152043
-0.21157461 -0.20771565 -0.0784491 -0.049856607 -0.53463256 -0.12381523 -0.3186917 0.11227988
-0.3296658 0.08068849 0.3346999 -0.3637973 -0.71624714 -0.36107814 0.004846625 -0.12655468
-0.34501198 -0.19017242 0.5803998 0.23617712 -0.5526677 0.084856614 0.36041075 -0.009828335
-0.4143885 -0.12894133 -0.48759362 0.44168738 -0.40538955 0.046542507 -0.57321626 0.47113207
-0.33533245 -0.019265797 -0.36491072 -0.47963095 -0.44035482 0.076324634 -0.5157079 0.15878545
-0.42769155 -0.2558915 -0.62156004 0.05566376 0.28425393 0.3220388 -0.22850223 -0.21037357
0.14142738 0.48914438 -0.25893173 -0.39397573 -0.3370341 0.24441124 0.4096346 0.21886975
-0.21646588 -0.4199138 -0.13889137 -0.07228433 0.1944116 -0.45727262 0.2318274 0.17323774
0.3244903 -0.2429485 -0.41008446 0.09727987 -0.2970968 -0.3806548 0.3581969 0.34707996
-0.010348347 0.042352393 0.20210989 -0.014563265 0.19076349 0.0065575982 -0.35476792 -0.3656232
-0.3348197 0.47876552 -0.1084964 0.3224918 0.3942091 0.20237353 0.059594113 -0.17400068
0.4551415 0.28456894 0.32396907 -0.36509162 -0.28794923 0.40040857 0.36391574 0.2503327
-0.08578188 -0.4671373 -0.4945632 -0.16324307 -0.6103876 -0.6012885 0.14882593 -0.13558392
-0.04542132 0.45522624 -0.367842 0.3765028 0.3962011 -0.42156714 0.32776433 -0.39654246
-0.16315274 -0.00460928 0.17977156 -0.37261987 -0.33014742 -0.060213454 -0.32263875 0.3662842
0.057150662 -0.47542143 0.35559413 -0.25113598 0.10937671 -0.3316372 0.111520596 -0.05551573
0.18436046 -0.22408849 -0.6528447 -0.226365 0.10613258 -0.32552224 -0.72527367 0.38183314
0.7290746 -0.26077697 -0.06725727 0.35364905 -0.14240092 -0.19031624 -0.21835607 0.24143164
-0.20493045 0.4013915 0.4655342 0.37006852 -0.5777876 -0.083238475 -0.3708247 0.34657627
-0.30912477 -0.39611265 -0.08147663 -0.124483265 0.0049417745 -0.022857064 0.035285357 -0.4467356
-0.36511907 -0.49945745 -0.17788857 0.40660962 -0.43307856 -0.3299801 -0.37811995 0.06834458
0.34802803 -0.73268926 -0.34613305 -0.16468163 0.11348648 0.020421457 -0.016816616 -0.5061659
-0.4281181 -0.26286578 -0.41004947 0.14806645 0.31255004 -0.49181083 -0.30818772 -0.32199776
-0.00021209719 -0.080534905 -0.3948366 -0.63991964 -0.5434309 0.4061558 0.1489984 0.29150853
-0.44612694 -0.44817138 -0.06447765 -0.47493362 -0.2559407 -0.06984475 -0.21578763 0.27787715
-0.029461654 0.29027936 0.40045035 -0.27611667 0.36651373 0.37390786 -0.13715993 -0.17873754
-0.533713 -0.34155294 0.070392355 0.058054384 -0.12687084 -0.6268976 -0.3327259 -0.2538696
0.115305 -0.20303592 0.27907816 0.4687762 -0.14998317 0.35096782 0.3660089 -0.36382076
0.23792584 -0.17395304 0.14464186 0.24211824 -0.18244988 -0.323484 0.32869133 0.161977
00000000: 01f8 f83e 4b92 b5be e1e6 10bf 8c25 99be
00000010: 5fb2 6fbe 7fd9 09bd 1067 cfbe 4aeb cdbe
00000020: d805 cfbe ed06 aa3d ee4a dcbe 8185 f53e
00000030: cb7f 38be 2d2c e73e 9399 f83c 47b2 fd3b
00000040: 9684 b5be 79b2 e3be 84af a4be aad7 6d3e
00000050: 614e a9be 95ab 0abf 6ef7 c53e a895 d4be
00000060: 04a7 58be 69b3 54be eca9 a0bd 7136 4cbd
00000070: aedd 08bf d792 fdbd 8f2b a3be fef2 e53d
00000080: f5c9 a8be 0240 a53d c95d ab3e a443 babe
00000090: f95b 37bf 3cdf b8be 70d0 9e3b 8d97 01be
000000a0: 69a5 b0be 8fbc 42be 1595 143f 6ad8 713e
000000b0: a17b 0dbf 4ec9 ad3d c287 b83e 0607 21bc
000000c0: bb2a d4be 3209 04be dfa5 f9be d924 e23e
000000d0: 388f cfbe 5ba3 3e3d 4dbe 12bf 3938 f13e
000000e0: b2b0 abbe 4ed3 9dbc 94d5 babe 3092 f5be
000000f0: 3076 e1be 1750 9c3d 6f05 04bf a798 223e
00000100: 63fa dabe 3604 83be 8f1e 1fbf afff 633d
00000110: bb89 913e 45e2 a43e 7dfc 69be 2b6c 57be
00000120: 57d2 103e 2271 fa3e b392 84be 30b7 c9be
00000130: bc8f acbe f146 7a3e a0bb d13e 641f 603e
00000140: 3ba9 5dbe f1fe d6be 8a39 0ebe cf09 94bd
00000150: d613 473e a31f eabe 2964 6d3e 3c65 313e
00000160: 9823 a63e 7ec7 78be 97f6 d1be ab3a c73d
00000170: 121d 98be 30e5 c2be 9665 b73e 77b4 b13e
00000180: 1d8c 29bc b479 2d3d e5f5 4e3e c39a 6ebc
00000190: 8157 433e 1fe1 d63b 24a4 b5be f732 bbbe
000001a0: 7d6d abbe c120 f53e 5c33 debd a51d a53e
000001b0: c6d5 c93e 023b 4f3e f518 743d 3c2d 32be
000001c0: 4f08 e93e 05b3 913e 46df a53e 4aed babe
000001d0: 156e 93be 5a02 cd3e 2a53 ba3e 9c2b 803e
000001e0: 69ae afbd 9f2c efbe 6337 fdbe 3129 27be
000001f0: 5d42 1cbf 0bee 19bf d365 183e 83d6 0abe
00000200: b50b 3abd 6a13 e93e c955 bcbe fac4 c03e
00000210: dfda ca3e a6d7 d7be bad0 a73e 9d07 cbbe
00000220: 8311 27be 7109 97bb 0916 383e 08c8 bebe
00000230: 1509 a9be 62a2 76bd e830 a5be 9a89 bb3e
00000240: d016 6a3d 706a f3be 6f10 b63e e594 80be
00000250: e600 e03d 5acc a9be e964 e43d 7664 63bd
00000260: fdc8 3c3e 7477 65be d520 27bf 3acc 67be
00000270: 0a5c d93d daaa a6be 89ab 39bf a27f c33e
00000280: a2a4 3a3f 8f84 85be 2ebe 89bd 7d11 b53e
00000290: 8cd1 11be 43e2 42be bc98 5fbe db39 773e
000002a0: 4ad9 51be 3083 cd3e 805a ee3e 9f79 bd3e
000002b0: e3e9 13bf ef78 aabd bcdc bdbe 7272 b13e
000002c0: 9a45 9ebe 47cf cabe 38dd a6bd 15f1 febd
000002d0: 9cee a13b bd3e bbbc 6187 103d 87ba e4be
000002e0: e3f0 babe e3b8 ffbe 6c28 36be 232f d03e
000002f0: 79bc ddbe 27f3 a8be f098 c1be 3ef8 8b3d
00000300: bb30 b23e 8691 3bbf 5a38 b1be 4da2 28be
00000310: 9a6b e83d e64a a73c 00c3 89bc 1794 01bf
00000320: 4c32 dbbe 5896 86be 01f2 d1be bb9e 173e
00000330: 8f06 a03e a1ce fbbe c8ca 9dbe e4dc a4be
00000340: 6866 5eb9 7cef a4bd 0628 cabe c6d1 23bf
00000350: 4a1e 0bbf a7f3 cf3e 0993 183e 9b40 953e
00000360: c06a e4be b876 e5be dc0c 84bd 802a f3be
00000370: a90a 83be c40a 8fbd 6ff7 5cbe ea45 8e3e
00000380: 9159 f1bc 7f9f 943e d407 cd3e 2a5f 8dbe
00000390: b0a7 bb3e da70 bf3e a773 0cbe f906 37be
000003a0: 6aa1 08bf 07e0 aebe de29 903d 6fca 6d3d
000003b0: 6eea 01be 5c7c 20bf 0d5b aabe 32fb 81be
000003c0: 0725 ec3d a6e8 4fbe 55e3 8e3e 6f03 f03e
000003d0: 3095 19be 0eb2 b33e 8565 bb3e b746 babe
000003e0: d5a2 733e bf20 32be ff1c 143e d8ed 773e
000003f0: 24d4 3abe b29f a5be 3b4a a83e 4cdd 253e

JKNet_layer_list.4.bias f4 [111]
0.34743768 0.009906561 0.10053738 0.22967336 -0.3294257 0.13821459 0.25687617 -0.07661967
0.09862917 -0.2436837 0.494887 -0.14600876 -0.19875005 0.073352665 -0.24956486 -0.12798391
-0.22002992 0.081903175 0.36249518 0.10655474 0.056288347 0.08007026 0.013179683 0.2918991
0.16353986 0.29914618 -0.16919239 0.26868877 0.1729052 -0.10524466 -0.23614298 0.10359519
-0.21066184 0.0479345 0.13590032 0.35464874 0.1163762 0.39163515 -0.0036200853 -0.08167848
0.31419155 -0.21898673 -0.09427167 0.16488007 0.052798178 0.24078906 -0.15545096 -0.29568908
-0.14488338 -0.2912373 0.044565525 -0.24451719 -0.08320993 0.22739233 0.2766212 0.10361936
0.084734485 0.08171516 0.08944552 -0.17268233 -0.0959291 0.21027127 0.100615285 -0.16467385
0.2700948 -0.22145744 0.042915884 0.16868308 -0.17131987 -0.20015818 0.04351456 -0.16443509
-0.21247534 0.24994472 0.079583645 0.098784514 0.07774754 0.08701788 0.2966704 0.16849439
0.016736418 -0.07596849 -0.21595845 -0.352916 -0.042423308 0.1950466 0.21156141 -0.09295808
0.2323295 -0.1880081 0.09326498 -0.059843082 -0.007856676 0.27633733 0.001900229 -0.22143409
0.16389264 0.20227975 0.20697366 -0.1582079 -0.31606063 0.24826065 -0.05948993 0.12034568
0.20649607 -0.23323251 -0.09524166 0.029297631 0.11825507 0.22424056 0.12547745
00000000: 5ae3 b13e 214f 223c 8be6 cd3d 7e2f 6b3e
00000010: 7caa a8be 2088 0d3e 4685 833e c6ea 9cbd
00000020: 17fe c93d 3888 79be d461 fd3e 5283 15be
00000030: 2285 4bbe ec39 963d ee8d 7fbe 370e 03be
00000040: 864f 61be dabc a73d f898 b93e 5f39 da3d
00000050: 9c8e 663d e0fb a33d 99ef 573c cd73 953e
00000060: fe76 273e b029 993e c540 2dbe 9391 893e
00000070: 100e 313e 838a d7bd 77cf 71be b729 d43d
00000080: bdb7 57be f756 443d 7429 0b3e 8594 b53e
00000090: a556 ee3d 6784 c83e f43e 6dbb 0c47 a7bd
000000a0: b7dd a03e 0f3e 60be 8111 c1bd 52d6 283e
000000b0: e742 583d 6891 763e 892e 1fbe 8f64 97be
000000c0: 4f5c 14be 0e1d 95be 578a 363d b762 7abe
000000d0: f869 aabd 89d9 683e 4ba1 8d3e 6336 d43d
000000e0: 4689 ad3d 475a a73d 362f b73d a3d3 30be
000000f0: 7a76 c4bd 5a51 573e 630f ce3d 43a0 28be
00000100: de49 8a3e bdc5 62be 91c8 2f3d 42bb 2c3e
00000110: 7a6e 2fbe 44f6 4cbe 533c 323d ac61 28be
00000120: 2393 59be 82f1 7f3e c0fc a23d 894f ca3d
00000130: 1a3a 9f3d 6e36 b23d 2fe5 973e cb89 2c3e
00000140: d01a 893c 5e95 9bbd 3624 5dbe 68b1 b4be
00000150: 10c4 2dbd 4cba 473e 8ea3 583e ce60 bebd
00000160: c9e7 6d3e 3285 40be b601 bf3d 051e 75bd
00000170: 4ab9 00bc 167c 8d3e 1b11 f93a 9ebf 62be
00000180: 79d3 273e 6c22 4f3e e7f0 533e 4001 22be
00000190: b3d2 a1be 0a38 7e3e b6ab 73bd cc77 f63d
000001a0: b573 533e 81d4 6ebe 0f0e c3bd 9601 f03c
000001b0: b72f f23d 519f 653e 297d 003e

JKNet_layer_list.5.weight f4 [111]
0.76659304 1.7504009 1.3610566 0.72503495 0.6896364 1.1064522 1.0228131 1.313431
1.1067936 1.411531 2.4077346 1.3895507 0.45024356 0.86238426 1.1646352 0.66161156
1.3014158 0.51926994 1.3401664 1.5757463 0.54569393 0.9228568 0.96643 1.4351294
1.5330302 1.0180159 1.2639291 0.58098286 1.1661918 1.1909206 0.597915 1.2060821
1.1259332 0.9980734 0.6853949 0.6987065 2.0451195 1.9946824 0.27433294 0.62927616
1.0988574 1.4842228 0.658632 1.9148941 1.5911585 0.39919436 0.53488463 1.0558972
0.7138287 0.8896494 0.785698 0.76719135 1.2407053 0.84922856 1.2295643 1.920929
1.3105358 0.6565029 1.5868863 1.0720744 0.48761773 0.7484796 0.95684534 0.7612005
0.45647734 1.4865519 1.2651863 1.4438128 0.750846 1.1788983 1.3356484 1.0039365
1.4319371 0.94597626 0.6763439 1.4095978 0.8594859 1.2079288 1.2811797 0.7161972
0.76261085 1.0917461 0.5532028 1.036753 1.4180121 0.35721534 1.64335 1.4245945
0.8509159 1.1982656 0.9849308 1.4747746 0.9743316 1.6520272 1.0990928 1.184439
0.02969936 1.0849767 0.8675393 1.1510755 1.5440544 0.9600988 1.0266579 0.90159625
0.7337246 0.78125143 0.87059313 0.8398037 0.9338846 0.7747088 0.7557959
00000000: 713f 443f 230d e03f 1a37 ae3f e49b 393f
00000010: 038c 303f 3aa0 8d3f 8aeb 823f 821e a83f
00000020: 6aab 8d3f 0cad b43f 5318 1a40 ccdc b13f
00000030: 5386 e63e 37c5 5c3f c412 953f 605f 293f
00000040: cb94 a63f e0ee 043f 938a ab3f 0eb2 c93f
00000050: 99b2 0b3f 5840 6c3f f567 773f 52b2 b73f
00000060: 553a c43f 584e 823f 6ec8 a13f 4bbb 143f
00000070: c645 953f 1670 983f f510 193f e660 9a3f
00000080: 941e 903f bd81 7f3f 0a76 2f3f 6ede 323f
00000090: 3de3 0240 c151 ff3f 5e75 8c3e 3e18 213f
000000a0: 5ca7 8c3f 03fb bd3f 1b9c 283f 401b f53f
000000b0: 15ab cb3f 3463 cc3e 33ee 083f a427 873f
000000c0: 7abd 363f 10c0 633f 8123 493f a766 443f
000000d0: 6ecf 9e3f 0b67 593f 5d62 9d3f 00e1 f53f
000000e0: a3bf a73f 9310 283f 171f cb3f bc39 893f
000000f0: 08a9 f93e 5c9c 3f3f d1f3 743f 09de 423f
00000100: 66b7 e93e 5547 be3f a0f1 a13f dcce b83f
00000110: 7237 403f 24e6 963f 87f6 aa3f fe80 803f
00000120: b749 b73f 802b 723f e024 2d3f b36d b43f
00000130: 4507 5c3f 699d 9a3f b2fd a33f b358 373f
00000140: 773a 433f 56be 8b3f b39e 0d3f 53b4 843f
00000150: 6c81 b53f eee4 b63e 4b59 d23f 1d59 b63f
00000160: a0d5 593f c460 993f 6d24 7c3f 6ac5 bc3f
00000170: cc6d 793f a175 d33f 13af 8c3f b29b 973f
00000180: 124c f33c 84e0 8a3f 0e17 5e3f 7156 933f
00000190: 93a3 c53f 09c9 753f 8769 833f 03cf 663f
000001a0: 60d5 3b3f 1800 483f 31df 5e3f 60fd 563f
000001b0: 1013 6f3f 5153 463f d77b 413f

JKNet_layer_list.5.bias f4 [111]
-0.46842718 0.5378757 0.5005507 -0.3844051 -0.4429603 0.07439521 0.04077537 -0.0958236
0.3430523 0.12920058 -0.81933594 -0.26740977 -0.365906 0.24009612 0.22720215 -0.60929084
0.05824692 -0.3323638 -0.34679526 -0.6176555 -0.40495896 -0.34564725 0.3301027 1.033121
-0.4456346 -0.28751096 0.6337063 -0.37160486 0.023254134 -0.7476912 -0.62867016 -0.15574539
0.0022032245 0.10239767 -0.23085561 -0.0067203725 -0.7902999 -1.07531 -0.605261 -0.30826205
-0.032867275 -0.23409455 0.46457213 0.38183364 0.49211594 -0.21945852 -0.20321727 -0.013629366
-0.104702875 -0.24463789 -0.23050487 -0.041089125 0.25221014 0.31313574 -0.28393307 -0.09055561
0.4097621 -0.3241274 0.3052086 -0.21217245 -0.33175877 0.37638405 0.16764255 -0.023258511
-0.3278722 0.09382034 0.16236416 0.24270521 0.0296391 0.021342693 -0.12204321 -0.3881969
-0.016446745 0.7425709 -0.36417666 0.09616012 0.49017733 0.57926685 -0.06627002 -0.27092862
-0.3260288 -0.23516604 -0.38596365 0.3198621 -0.15307914 -0.55197966 0.13468125 0.67035043
-0.097669825 -0.44481885 -0.5411433 -0.08808271 -0.076689824 0.70516986 -0.014180876 0.1999398
-0.22912274 0.46275616 0.026042335 0.47665322 0.04448791 -0.46477258 0.2791346 0.17489022
0.27078578 -0.37266645 -0.79063916 -0.363115 0.010868604 -0.13198103 -0.5354088
00000000: b0d5 efbe 39b2 093f 1724 003f bfd0 c4be
00000010: b1cb e2be 845c 983d 1304 273d 2a3f c4bd
00000020: 8da4 af3e 284d 043e 00c0 51bf efe9 88be
00000030: 0858 bbbe c2db 753e aea7 683e 7cfa 1bbf
00000040: 5394 6e3d 972b aabe 268f b1be ac1e 1ebf
00000050: c856 cfbe adf8 b0be 3903 a93e 4f3d 843f
00000060: 382a e4be a334 93be 933a 223f fe42 bebe
00000070: 747f be3c b168 3fbf 87f0 20bf b87b 1fbe
00000080: f963 103b dfb5 d13d 6a65 6cbe 9236 dcbb
00000090: 1851 4abf c2a3 89bf 63f2 1abf 86d4 9dbe
000000a0: d69f 06bd 7bb6 6fbe 66dc ed3e b37f c33e
000000b0: 9ff6 fb3e bcb9 60be 3018 50be b44d 5fbc
000000c0: 766e d6bd 5b82 7abe 7809 6cbe 124d 28bd
000000d0: b021 813e 5453 a03e ad5f 91be 3875 b9bd
000000e0: 57cc d13e 07f4 a5be 4d44 9c3e bc43 59be
000000f0: 49dc a9be 69b5 c03e 7daa 2b3e a288 bebc
00000100: ddde a7be e124 c03d ca42 263e b787 783e
00000110: b3cd f23c dfd6 ae3c caf1 f9bd bec1 c6be
00000120: 53bb 86bc 2019 3e3f 5d75 babe 99ef c43d
00000130: 86f8 fa3e d54a 143f 94b8 87bd 28b7 8abe
00000140: 3fed a6be 5ecf 70be 079d c5be f7c4 a33e
00000150: c7c0 1cbe 8a4e 0dbf e2e9 093e 169c 2b3f
00000160: 1e07 c8bd 4cbf e3be 5e88 0abf b564 b4bd
00000170: 8e0f 9dbd 0386 343f e856 68bc 05bd 4c3e
00000180: 279f 6abe 60ee ec3e bc56 d53c e40b f43e
00000190: f438 363d acf6 edbe bbea 8e3e 6c16 333e
000001a0: 6fa4 8a3e 23ce bebe 5467 4abf 36ea b9be
000001b0: 3b12 323c 0926 07be 8d10 09bf

JKNet_layer_list.5.running_mean f4 [111]
-2.1174934 -6.2015357 -0.15463477 -1.8770707 -0.27663913 -2.5976675 -4.157492 -6.214238
1.5841868 -8.676183 -5.847057 -3.4719405 5.934822 1.4542425 -6.7983947 -5.0784764
-10.117495 3.1662612 -7.891051 -6.6353264 -10.292661 -1.5435885 -1.948368 1.4256933
-6.8140087 -0.75435024 -1.192794 5.37265 0.078905396 -8.1878805 -4.656998 -1.4027299
2.0088108 1.945671 5.745098 -1.241127 -10.500099 -9.462235 2.8111768 2.7884133
3.2117138 0.72104573 7.7479744 -3.286267 5.4152613 -1.9852406 2.7326837 -2.6022444
-5.442984 -5.8051887 6.2386246 -0.086762935 3.9682539 0.5089698 7.3890204 -5.5611463
0.93079555 -0.81880045 -8.062353 2.0979705 0.03856277 0.24676861 -2.617575 -2.5012262
-5.9471073 -8.121373 0.055484444 -6.494178 -5.0520434 -8.992707 -6.966878 2.8651347
-0.5112448 1.9306897 -0.85455245 -2.959143 4.938085 0.08442416 1.124941 2.6597269
-1.018141 -1.373253 1.7405884 -0.99345124 -6.6892138 2.888688 -5.7191696 1.2057759
-5.6036644 2.9024205 1.3526608 -10.480588 5.7664256 -4.9427366 -1.744008 -2.1568491
-6.6631804 -1.7506658 -1.1924784 -1.7029516 -5.8661804 2.131864 1.1975132 -0.18129511
1.5123678 -3.4597905 -2.385665 4.060171 -4.965846 1.2621431 -5.345851
00000000: 0385 07c0 fb72 c6c0 9458 1ebe da43 f0bf
00000010: a5a3 8dbe 2f40 26c0 2d0a 85c0 0adb c6c0
00000020: a2c6 ca3f a5d1 0ac1 171b bbc0 4634 5ec0
00000030: 10ea bd40 9e24 ba3f 738c d9c0 e182 a2c0
00000040: 42e1 21c1 06a4 4a40 7d83 fcc0 9854 d4c0
00000050: bdae 24c1 4f94 c5bf 1f64 f9bf 1e7d b63f
00000060: 5c0c dac0 191d 41bf 79ad 98bf c0ec ab40
00000070: 2799 a13d 8f01 03c1 2106 95c0 a78c b3bf
00000080: 5b90 0040 bf0b f93f d8d7 b740 40dd 9ebf
00000090: 6800 28c1 5165 17c1 52ea 3340 5d75 3240
000000a0: b88c 4d40 7496 383f 68ef f740 3352 52c0
000000b0: d249 ad40 5d1c febf 4ae4 2e40 2c8b 26c0
000000c0: ed2c aec0 1bc4 b9c0 d0a2 c740 c4b0 b1bd
000000d0: dff7 7d40 d84b 023f db72 ec40 e9f4 b1c0
000000e0: 9e48 6e3f e89c 51bf 66ff 00c1 2645 0640
000000f0: fff3 1d3d e9b0 7c3e 5986 27c0 1714 20c0
00000100: b44e bec0 25f1 01c1 a843 633d 4ed0 cfc0
00000110: 57aa a1c0 21e2 0fc1 aaf0 dec0 5e5e 3740
00000120: f0e0 02bf d720 f73f f3c3 5abf 9962 3dc0
00000130: cb04 9e40 93e6 ac3d 11fe 8f3f f738 2a40
00000140: 7252 82bf c1c6 afbf 9acb de3f d252 7ebf
00000150: 0a0e d6c0 44e0 3840 7003 b7c0 dd56 9a3f
00000160: 3851 b3c0 42c1 3940 fd23 ad3f 7db0 27c1
00000170: 8f86 b840 e62a 9ec0 a73b dfbf d109 0ac0
00000180: c638 d5c0 d115 e0bf 22a3 98bf 51fa d9bf
00000190: c0b7 bbc0 7670 0840 1d48 993f 6da5 39be
000001a0: 4595 c13f 356d 5dc0 bcae 18c0 ecec 8140
000001b0: 36e8 9ec0 e88d a13f 3611 abc0

JKNet_layer_list.5.running_var f4 [111]
13.624079 51.649387 27.156792 11.54908 31.189547 41.747803 20.584696 39.99115
56.14804 16.5359 26.463139 9.376538 15.662502 27.821865 44.732494 18.612034
36.75965 10.876175 14.364823 20.649567 34.23873 18.150867 21.026775 37.757015
23.532642 21.78218 32.848686 15.664879 22.068008 23.04823 21.848257 43.406628
17.801273 53.70941 8.315243 56.537193 32.691814 24.008194 19.413458 15.711531
26.852581 24.43551 27.682943 12.871485 38.149185 19.819727 36.039417 27.018702
39.082016 14.518913 24.09353 20.339003 17.199469 26.894249 31.47889 27.96377
45.809456 17.557802 59.585598 29.170862 14.351192 21.515955 20.934324 17.54207
39.59305 43.99722 51.89422 63.446217 25.652456 17.037663 12.950865 20.493631
33.28585 38.999775 9.4405155 53.039974 17.691639 32.46576 27.89356 24.896992
7.494176 26.702948 11.284687 18.359253 38.227608 24.981276 36.26741 34.570145
39.779854 18.316755 18.641548 66.056946 25.482891 63.52255 43.02002 28.395815
23.687742 32.617306 22.638285 32.844143 17.47268 35.965958 22.767109 21.313313
28.206377 26.031574 26.280466 42.56857 48.780792 9.939031 18.378675
00000000: 3afc 5941 f998 4e42 1c41 d941 08c9 3841
00000010: 3184 f941 c0fd 2642 75ad a441 f0f6 1f42
00000020: 9897 6042 8649 8441 82b4 d341 4d06 1641
00000030: 9c99 7a41 2e93 de41 13ee 3242 72e5 9441
00000040: e209 1342 d004 2e41 51d6 6541 5032 a541
00000050: 76f4 0842 fa34 9141 d636 a841 2f07 1742
00000060: da42 bc41 e841 ae41 0e65 0342 58a3 7a41
00000070: 488b b041 c662 b841 3bc9 ae41 63a0 2d42
00000080: 0269 8e41 70d6 5642 3c0b 0541 1626 6242
00000090: 6bc4 0242 c810 c041 c34e 9b41 6e62 7b41
000000a0: 16d2 d641 ed7b c341 ab76 dd41 9af1 4d41
000000b0: c498 1842 cd8e 9e41 5d28 1042 4d26 d841
000000c0: fc53 1c42 784d 6841 8dbf c041 47b6 a241
000000d0: 8398 8941 6c27 d741 c4d4 fb41 cdb5 df41
000000e0: e23c 3742 6176 8c41 a757 6e42 ed5d e941
000000f0: 7c9e 6541 ad20 ac41 7f79 a741 2956 8c41
00000100: 485f 1e42 27fd 2f42 ae93 4f42 edc8 7d42
00000110: 3b38 cd41 224d 8841 be36 4f41 f5f2 a341
00000120: b624 0542 c5ff 1b42 5a0c 1741 ef28 5442
00000130: 7a88 8d41 f0dc 0142 0326 df41 0a2d c741
00000140: 4ad0 ef40 a39f d541 148e 3441 c0df 9241
00000150: 12e9 1842 a7d9 c741 d411 1142 d447 0a42
00000160: 921e 1f42 b788 9241 e421 9541 281d 8442
00000170: f6dc cb41 1717 7e42 8014 2c42 a12a e341
00000180: 7f80 bd41 1f78 0242 351b b541 6760 0342
00000190: 0cc8 8b41 24dd 0f42 0a23 b641 aa81 aa41
000001a0: a9a6 e141 aa40 d041 653e d241 3746 2a42
000001b0: 881f 4342 4506 1f41 8707 9341

JKNet_layer_list.8.weight f4 [111, 111]
-0.5017507 0.23580796 -0.19213247 0.13643406 -0.061754275 -0.14952368 0.16619201 -0.27046382
0.16239278 0.0677781 -0.7117497 -0.45423028 -0.025571488 0.08865016 0.018305328 -0.40209174
0.4534461 -0.3719453 -0.37346783 -0.28365377 -0.57130396 -0.36317417 -0.067856826 -0.21259391
-0.046910416 -0.3583621 0.5259229 -0.32085782 -0.4857588 -0.2688102 -0.17828847 -0.17522131
-0.49566525 0.0050021103 0.045687605 -0.0010969881 -0.5749843 -0.08944904 0.31285635 -0.4612559
-0.59559053 -0.54937387 -0.2877037 0.5586788 -0.39633402 -0.34197453 -0.27196315 0.0216219
0.10146669 -0.43644503 -0.5192222 -0.5886567 -0.36188278 -0.48113942 -0.4350623 -0.00073087774
-0.19694649 -0.4156303 -0.36591202 -0.49935228 0.07943718 -0.50016207 -0.5069747 -0.2552065
0.40578142 -0.33376434 -0.047174018 -0.27088138 -0.24998352 -0.3695436 -0.2462021 -0.16081919
-0.6286155 0.2609584 -0.48584542 -0.2552638 0.2759674 -0.30706537 -0.46475625 -0.44708422
-0.20589904 -0.38130513 -0.40329677 0.24266851 -0.2789142 0.26589364 -0.31395128 0.3682163
-0.029315164 -0.65794706 0.01325247 0.4482271 -0.025712525 -0.10446321 -0.06920127 -0.18392494
0.31315446 -0.4611641 0.17209661 -0.1132448 -0.5893696 -0.42033574 -0.77923197 0.1844234
-0.20426205 -0.7831832 -0.42428958 0.21355204 0.44435978 -0.31714317 -0.50017583 -0.1977184
0.31238493 0.4695162 -0.23324199 -0.27674094 0.384234 -0.34236234 -0.29766542 0.363794
-0.38834825 -0.5258336 -0.6904874 0.3388818 0.42525452 0.17413782 -0.35633585 0.18351367
-0.085738346 -0.2004103 -0.39448786 0.017065143 -0.20599183 -0.29065618 0.25347468 -0.54584295
-0.3077754 0.44045904 -0.31515193 -0.36763963 -0.21052489 -0.50079536 -0.13097352 -0.4613806
0.2256854 -0.13683447 0.23367563 -0.35517117 -0.20567073 0.49801782 0.37554616 -0.38808042
-0.35849172 0.37934142 -0.3500542 -0.29663086 -0.16268216 -0.21976669 -0.13716967 0.34594345
-0.31276846 0.05561935 0.021529144 -0.004832443 -0.29310045 0.4276231 0.062741525 0.33872694
0.05111009 -0.3232245 0.24143821 0.09344684 -0.094649255 -0.3855442 0.07796183 -0.3855889
-0.45045617 0.06972674 -0.38562927 0.24156943 -0.39855772 0.38100326 0.43687025 -0.44650078
0.16693671 -0.13964441 -0.09998482 -0.21920663 0.49886918 -0.454493 0.09327141 0.23761015
-0.45335072 0.60990465 -0.37081274 0.1494055 0.2318804 -0.11405857 -0.2941102 0.19198455
-0.023646614 -0.54001737 -0.2228769 0.2867814 0.20890549 0.2131579 -0.10754887 -0.2398223
-0.18665308 -0.39759728 0.4450654 -0.18029942 -0.15338202 -0.27890527 0.028453587 0.18547776
0.22568274 -0.45197183 0.30611312 0.36134562 0.39707413 -0.32631043 -0.44018593 -0.31055617
-0.349495 0.14432323 0.44299832 -0.11343534 0.1974155 -0.44862652 -0.2277302 0.20259017
0.0020512994 0.0730291 -0.21682534 -0.52107406 -0.027635349 -0.47667703 -0.4700919 -0.4815094
-0.26269758 -0.15172845 0.30382562 0.44757578 -0.14741099 -0.41525587 0.037265405 -0.383411
0.12501565 -0.24871366 -0.4692719 -0.45744035 0.07614109 -0.40336907 -0.5108916 -0.2375538
00000000: bc72 00bf a477 713e 60be 44be 5fb5 0b3e
00000010: 0df2 7cbd bc1c 19be 3d2e 2a3e 3c7a 8abe
00000020: 4b4a 263e 3fcf 8a3d 3a35 36bf df90 e8be
00000030: 4c7b d1bc 378e b53d 0ef5 953c f8de cdbe
00000040: 162a e83e 9d6f bebe 2d37 bfbe 113b 91be
00000050: fa40 12bf f7f1 b9be 85f8 8abd 38b2 59be
00000060: 2325 40bd 3d7b b7be e2a2 063f 7a47 a4be
00000070: 61b5 f8be 7ea1 89be 4191 36be 376d 33be
00000080: d6c7 fdbe bee8 a33b ed22 3b3d d0c8 8fba
00000090: 2c32 13bf 0f31 b7bd b52e a03e bc29 ecbe
000000a0: 9f78 18bf c4a3 0cbf e64d 93be 9305 0f3f
000000b0: 4bec cabe 4917 afbe c13e 8bbe 6920 b13c
000000c0: c5cd cf3d b975 dfbe bfeb 04bf 35b2 16bf
000000d0: b348 b9be e857 f6be 7cc0 debe 6098 3fba
000000e0: 57ac 49be 7fcd d4be d258 bbbe 1aab ffbe
000000f0: f6af a23d 9f0a 00bf 18c9 01bf 6daa 82be
00000100: 95c2 cf3e 29e3 aabe 8b39 41bd f7b0 8abe
00000110: aefb 7fbe d234 bdbe 671c 7cbe c9ad 24be
00000120: f2ec 20bf 579c 853e bbc0 f8be f0b1 82be
00000130: 994b 8d3e ac37 9dbe 88f4 edbe 39e8 e4be
00000140: 33d7 52be 6d3a c3be ea7c cebe 187e 783e
00000150: d8cd 8ebe 3623 883e 39be a0be d986 bc3e
00000160: 5b26 f0bc 386f 28bf e320 593c 067e e53e
00000170: 13a3 d2bc cff0 d5bd 65b9 8dbd d256 3cbe
00000180: c855 a03e b31d ecbe 183a 303e e4ec e7bd
00000190: ede0 16bf 3f36 d7be bf7b 47bf 7dd9 3c3e
000001a0: 122a 51be b27e 48bf 7c3c d9be 63ad 5a3e
000001b0: 2083 e33e 9760 a2be 860b 00bf b176 4abe
000001c0: ebf0 9f3e 6d64 f03e fdd6 6ebe fdb0 8dbe
000001d0: 52ba c43e 1e4a afbe 9a67 98be 3543 ba3e
000001e0: 95d5 c6be 089d 06bf c8c3 30bf ea81 ad3e
000001f0: f6ba d93e 2f51 323e a771 b6be 02eb 3b3e
00000200: 9697 afbd 5c38 4dbe 50fa c9be 33cc 8b3c
00000210: 86ef 52be e3d0 94be 6fc7 813e 5dbc 0bbf
00000220: bd94 9dbe d983 e13e 985b a1be 433b bcbe
00000230: d693 57be 2034 00bf ec1d 06be 143a ecbe
00000240: 131a 673e 561e 0cbe aa48 6f3e ffd8 b5be
00000250: 599b 52be 31fc fe3e 9647 c03e 7ab2 c6be
00000260: 3a8c b7be 0a39 c23e 4e3a b3be 00e0 97be
00000270: 2796 26be 850a 61be 3576 0cbe 801f b13e
00000280: 3023 a0be 1ed1 633d e35d b03c 7859 9ebb
00000290: 4311 96be 6af1 da3e a17e 803d 9e6d ad3e
000002a0: d058 513d af7d a5be 943b 773e 0f61 bf3d
000002b0: 78d7 c1bd 0d66 c5be 74aa 9f3d e96b c5be
000002c0: 31a2 e6be e5cc 8e3d 3371 c5be fa5d 773e
000002d0: c20f ccbe dc12 c33e 75ad df3e c09b e4be
000002e0: 75f1 2a3e f2fe 0ebe d7c4 ccbd b477 60be
000002f0: c86b ff3e 4eb3 e8be 1505 bf3d 1350 733e
00000300: 961d e8be b622 1c3f 2bdb bdbe c1fd 183e
00000310: 0e72 6d3e 8a97 e9bd 9d95 96be 9997 443e
00000320: 8bb6 c1bc 943e 0abf d839 64be 03d5 923e
00000330: 52eb 553e 1146 5a3e 9542 dcbd fa93 75be
00000340: fc21 3fbe df91 cbbe 9ddf e33e 69a0 38be
00000350: 2d10 1dbe accc 8ebe 7f17 e93c e2ed 3d3e
00000360: 6019 673e da68 e7be dcba 9c3e 4b02 b93e
00000370: 4d4d cb3e 2912 a7be 0d60 e1be 3801 9fbe
00000380: 02f1 b2be 78c9 133e add0 e23e ca50 e8bd
00000390: 4a27 4a3e 60b2 e5be 1b32 69be cc73 4f3e
000003a0: 186f 063b 4890 953d 7607 5ebe 1c65 05bf
000003b0: 8763 e2bc 030f f4be e3af f0be 6688 f6be
000003c0: 4c80 86be b45e 1bbe 088f 9b3e a728 e53e
000003d0: e8f2 16be 6b9c d4be 9ca3 183d 724e c4be
000003e0: 1a04 003e cbae 7ebe 6844 f0be 9f35 eabe
000003f0: dcef 9b3d 6486 cebe cbc9 02bf 4e41 73be

JKNet_layer_list.8.bias f4 [111]
0.19132482 -0.17757921 0.1459111 0.24808192 0.030875862 -0.10660662 -0.00992893 0.4960132
0.1627038 -0.32853112 -0.20136558 -0.36563328 0.24119098 0.36422607 -0.28146878 0.16905117
-0.22621192 0.0582057 0.36101434 0.25832847 0.0480283 0.3148546 0.054258812 -0.11508408
0.190779 -0.23215982 0.036950257 0.29231274 0.17270522 0.26928815 -0.22183417 0.02212264
0.072167516 -0.22989993 0.10424362 -0.22124162 -0.24936488 -0.35740352 0.236379 -0.0749651
-0.37658173 -0.061983194 -0.2731999 -0.1267075 -0.15046464 0.12818061 -0.26434416 0.26546508
0.29509246 -0.2025913 -0.197935 -0.10977752 -0.30401784 -0.16933411 -0.14722018 0.13515091
-0.38783547 0.060174987 -0.2325018 -0.08491014 0.3175563 0.35039496 -0.24583837 0.13389686
0.064658105 0.27412003 0.26131126 -0.3324912 -0.33396173 0.19552237 -0.2833394 -0.25736713
-0.12867971 0.06602665 -0.32507813 -0.18488239 -0.28739136 -0.33918288 -0.09586316 -0.26824918
0.36924058 -0.31666338 -0.32474765 -0.30095676 0.3400983 -0.20426185 -0.35866132 -0.30876854
-0.117521256 -0.26284745 -0.28252098 -0.0823525 -0.1526892 -0.30387565 0.166427 0.36222988
0.14962764 0.14016092 -0.1601229 0.31398585 -0.22414179 -0.3956203 -0.004336781 -0.14281024
-0.43559465 -0.21500477 -0.13483079 -0.017809052 -0.41502726 0.11719852 -0.27564174
00000000: a7ea 433e 53d7 35be b869 153e 3009 7e3e
00000010: 60ef fc3c 9254 dabd f3ac 22bc 71f5 fd3e
00000020: d39b 263e 3b35 a8be c732 4ebe 4934 bbbe
00000030: c5fa 763e d77b ba3e ad1c 90be c01b 2d3e
00000040: 19a4 67be 1a69 6e3d dfd6 b83e a143 843e
00000050: 53b9 443d 9f34 a13e 7d3e 5e3d 34b1 ebbd
00000060: 925b 433e 4ebb 6dbe 2759 173d 04aa 953e
00000070: a3d9 303e 23e0 893e 7f28 63be 8a3a b53c
00000080: 90cc 933d e36a 6bbe ae7d d53d 2a8d 62be
00000090: 8259 7fbe 98fd b6be 560d 723e 4d87 99bd
000000a0: 52cf c0be 17e2 7dbd dbe0 8bbe 9cbf 01be
000000b0: 6713 1abe c741 033e 1e58 87be 0aeb 873e
000000c0: 5c16 973e 1874 4fbe 79af 4abe 09d3 e0bd
000000d0: 3aa8 9bbe ec65 2dbe e3c0 16be 0065 0a3e
000000e0: 5f92 c6be 0c7a 763d f414 6ebe 5ee5 adbd
000000f0: bd96 a23e f866 b33e 0ebd 7bbe 421c 093e
00000100: 786b 843d 7659 8c3e 97ca 853e 493c aabe
00000110: 08fd aabe 0437 483e dd11 91be a0c5 83be
00000120: 9dc4 03be fb38 873d a470 a6be cf51 3dbe
00000130: f624 93be 61a9 adbe e853 c4bd f557 89be
00000140: 1a0d bd3e b421 a2be 5345 a6be 0117 9abe
00000150: 5d21 ae3e 052a 51be 75a2 b7be e916 9ebe
00000160: fcae f0bd f193 86be 97a6 90be 6da8 a8bd
00000170: 8f5a 1cbe 9795 9bbe d76b 2a3e 3276 b93e
00000180: fd37 193e 5886 0f3e 42f7 23be c1c2 a03e
00000190: 6d85 65be be8e cabe 8e1b 8ebb d93c 12be
000001a0: 4306 dfbe 362a 5cbe 1511 0abe 4ae4 91bc
000001b0: 747e d4be c705 f03d ea20 8dbe

JKNet_layer_list.9.weight f4 [111]
0.90876275 1.2905731 0.66954815 1.896929 0.5834345 0.9065021 1.2288176 1.341783
0.45342606 0.9580406 0.6132218 1.2325715 0.38563162 1.5397758 0.73337513 1.8285557
1.1402696 0.8796422 0.5270001 0.9847076 1.2771395 0.8091785 0.773507 0.6740127
1.4665095 0.94018525 1.8001589 0.4798526 0.7970114 0.75888026 1.280647 0.8893
1.7103195 0.58574665 0.88381743 0.8107217 0.9901639 0.62106943 0.9052596 0.76697385
0.8898591 1.2204244 1.5010675 0.5958227 1.5478342 0.46449938 0.751642 0.49657413
1.251964 1.2044405 0.9807531 0.85398847 1.2256262 1.017054 1.1600574 1.0947402
1.6447194 0.5548077 0.64059293 0.83748496 1.0864162 1.2990507 0.18186554 0.78854316
1.066491 1.2988734 1.0641617 1.0845379 0.86777794 1.0548686 0.6700454 0.8444753
0.54189146 0.94821525 0.88520783 0.8777438 1.2648103 1.2080315 1.1090444 1.2882837
0.8219852 1.4342116 1.1152004 0.7941927 1.248452 0.9173757 0.9955818 1.318151
1.3380626 0.9176186 1.2022935 1.1675675 0.78360486 0.92973506 1.3346884 0.69872135
0.997741 1.112928 0.85819936 1.0521588 1.2502236 1.181938 1.3042663 0.8174447
1.1935636 1.2587962 1.1052132 0.978699 0.96469134 0.97442466 1.731596
00000000: ada4 683f 8031 a53f 8267 2b3f 92ce f23f
00000010: f75b 153f 8610 683f e549 9d3f 8cbf ab3f
00000020: 7627 e83e 2642 753f 1bfc 1c3f e7c4 9d3f
00000030: 8271 c53e 6017 c53f 79be 3b3f 1d0e ea3f
00000040: 5bf4 913f 3b30 613f 7be9 063f cc15 7c3f
00000050: 4f79 a33f 5226 4f3f 8e04 463f 198c 2c3f
00000060: 95b6 bb3f fbaf 703f 9b6b e63f 3daf f53e
00000070: f008 4c3f fa45 423f 3eec a33f 2aa9 633f
00000080: c0eb da3f 7ef3 153f dc41 623f 758b 4f3f
00000090: 627b 7d3f 68fe 1e3f 18bf 673f 6658 443f
000000a0: cecd 633f de36 9c3f fb22 c03f d687 183f
000000b0: 6e1f c63f ddd2 ed3e 9c6b 403f f73e fe3e
000000c0: 5b40 a03f 1b2b 9a3f a312 7b3f fd9e 5a3f
000000d0: 52e1 9c3f d32e 823f c37c 943f 7220 8c3f
000000e0: 2a86 d23f e107 0e3f e6fd 233f 6a65 563f
000000f0: b00f 8b3f 4b47 a63f f63a 3a3e f7dd 493f
00000100: c782 883f 7c41 a63f 7336 883f 23d2 8a3f
00000110: b226 5e3f ef05 873f 1888 2b3f 892f 583f
00000120: 66b9 0a3f 3cbe 723f fb9c 623f d1b3 603f
00000130: 4ee5 a13f c7a0 9a3f 2bf5 8d3f 7be6 a43f
00000140: 9f6d 523f 3f94 b73f e3be 8e3f 3650 4b3f
00000150: 46cd 9f3f 22d9 6a3f 73de 7e3f 2cb9 a83f
00000160: a345 ab3f 0de9 6a3f c1e4 993f da72 953f
00000170: 549a 483f 1e03 6e3f 12d7 aa3f 67df 323f
00000180: f46b 7f3f 6d74 8e3f f4b2 5b3f 24ad 863f
00000190: 5407 a03f bf49 973f 33f2 a63f 0e44 513f
000001a0: b1c6 983f 3c20 a13f a077 8d3f 058c 7a3f
000001b0: 03f6 763f e573 793f f0a4 dd3f
