training/dirckpt/MAP_best_loss_4.ckpt (torch, 213387 bytes, 25 tensors)

JKNet_layer_list.0.weight f4 [111, 18]
0	0x3f1748f2	0.5909568
1	0x3d7e0792	0.06201894
2	0x3f4172ea	0.7556597
3	0xbf537a79	-0.82608753
4	0xbee0a4dc	-0.43875778
5	0x3f0ab944	0.5418894
6	0xbf53471b	-0.82530373
7	0xbea1cdb0	-0.3160224
8	0xbed198c3	-0.4093686
9	0xbfa8f592	-1.3199942
10	0x3fbca226	1.4736984
11	0xbf5aaf86	-0.8542408
12	0xbeedebcd	-0.46468964
13	0x3f48f0b9	0.78492314
14	0xbf823ef6	-1.0175464
15	0xbf81ca21	-1.013981
16	0xbdeeb729	-0.11656029
17	0xbe100ef2	-0.14068201
18	0xbedbce46	-0.42930812
19	0x3e6ac5a2	0.22926953
20	0x3e91a530	0.2844634
21	0xbed16266	-0.40895385
22	0xbf216f74	-0.6306069
23	0x3f22d006	0.6359867
24	0x3c07a50b	0.008279095
25	0xbe83ade1	-0.25718597
26	0xbe1faec4	-0.15594012
27	0x3d7a1807	0.06105807
28	0x3ee3289b	0.44366917
29	0x3dad1f55	0.08453242
30	0x3f75f061	0.96069914
31	0x3e3cc846	0.18435773
32	0xbf212ed5	-0.62962085
33	0x3f0471cb	0.51736134
34	0xbedd8b89	-0.4327052
35	0x3e9a8a9c	0.30183876
36	0xbc8a4016	-0.016876262
37	0xbc5cdcc2	-0.013480367
38	0xbeab3741	-0.33440593
39	0xbdcf5880	-0.10124302
40	0xbee3a5dc	-0.44462478
41	0x3ebf521f	0.3736734
42	0x3e212e6a	0.15740362
43	0x3efcf461	0.49405196
44	0xbea99458	-0.3312099
45	0x3f54f4f7	0.83186287
46	0xbea86b78	-0.32894492
47	0x3f60d308	0.8782201
48	0xbf1f4341	-0.62211996
49	0xbe5d3464	-0.21602017
50	0xbec69ae0	-0.38790035
51	0x3ed49f21	0.41527656
52	0xbef41a36	-0.47676247
53	0xbe51f0a7	-0.20501958
54	0xbe5d2acc	-0.21598357
55	0x3e918a94	0.2842604
56	0x3eb18639	0.34672716
57	0xbeb70a3d	-0.3575
58	0x3f17142e	0.59015167
59	0xbf2f08a1	-0.6837254
60	0x3dda2e9a	0.1065342
61	0x3ee38c33	0.444429
62	0x3eba188a	0.36346847
63	0x3c1cf9d7	0.009581051
64	0x3e64f727	0.22359906
65	0x3e3992d7	0.18122421
66	0x3f06a7a0	0.52599525
67	0x3f09fbbf	0.5389976
68	0x3d871b3d	0.06596992
69	0x3e68c5a2	0.22731641
70	0xbda0a611	-0.07844175
71	0xbe4442ab	-0.19166057
72	0x3f0b2891	0.54358774
73	0xbe89489a	-0.26813203
74	0xbf9819a7	-1.1882828
75	0x3de083b4	0.109626204
76	0x3ea1b46c	0.31582963
77	0xbe1362f7	-0.14393221
78	0x3e6783a1	0.22608806
79	0xbf1c4712	-0.61045945
80	0x3f25ed46	0.64815176
81	0xbfbc130d	-1.4693314
82	0xbe1d5e10	-0.15367913
83	0xbcb60ef9	-0.022223936
84	0x3fafbfb1	1.3730375
85	0xbea21db9	-0.31663302
86	0x3f25cc44	0.6476481
87	0x3f199ea5	0.600077
88	0x3d7ec388	0.062198192
89	0x3eaf6a2f	0.342607
90	0x3cf53624	0.029933043
91	0xbec4e4b3	-0.38455734
92	0x3ec6cee1	0.3882971
93	0x3eedd2c2	0.46449858
94	0x3f3f26b4	0.7466843
95	0x3f074a23	0.528475
96	0x3f4c25e8	0.7974534
97	0xbdf402cb	-0.11914595
98	0x3f102c43	0.5631754
99	0xc0095f7c	-2.146453
100	0xbd1190b5	-0.035538394
101	0x3e9e50c2	0.30920988
102	0x3f5348d6	0.82533014
103	0x3d8a6d83	0.06759169
104	0xbf127804	-0.5721438
105	0xbeb8ef57	-0.36120102
106	0xbf674735	-0.9034303
107	0x3d14d3c7	0.03633478
108	0xbf876179	-1.0576621
109	0xbf2501fd	-0.6445616
110	0x3f62997c	0.8851545
111	0x3fd698bc	1.6765361
112	0xbde549e3	-0.111957334
113	0xbd04fd58	-0.03246817
114	0x3f2f02ac	0.6836345
115	0xbf78beb4	-0.9716599
116	0x3dcc6e62	0.09981991
117	0xc034ad5d	-2.8230813
118	0xbe523491	-0.20527865
119	0xbf82bcbf	-1.0213851
120	0xbe1cfe67	-0.15331422
121	0x3fd56739	1.6672126
122	0x3f1a9035	0.6037629
123	0xbdfefd0d	-0.12450609
124	0xbf90946a	-1.1295292
125	0xbf134594	-0.5752804
126	0xbf44c565	-0.768637
127	0x3e977252	0.29579407
128	0xbe5d3ca4	-0.21605164
129	0xbebd47a7	-0.3696873
130	0x3e3a470d	0.18191166
131	0x3d341180	0.043962
132	0xbf76c94e	-0.96400917
133	0x3d3570fe	0.04429721
134	0xbe6e882b	-0.23294131
135	0x3d8773c0	0.066138744
136	0xbfded42b	-1.7408499
137	0xbe4da316	-0.20081744
138	0xbfb71621	-1.4303628
139	0xbe8df859	-0.27728537
140	0x3f21600e	0.6303719
141	0x3fb7f0d2	1.4370368
142	0x3e03f5c5	0.12886722
143	0xbeb14544	-0.34623158
144	0xbe0ef7ad	-0.13961668
145	0xbdb9261d	-0.09040473
146	0xbe74a84d	-0.23892327
147	0x3fabae56	1.3412578
148	0x3e70a1c5	0.2349921
149	0xbef37793	-0.47552165
150	0xbec4825b	-0.38380703
151	0xbee946c2	-0.45561796
152	0xbe50f892	-0.20407322
153	0xbf24d42a	-0.64386237
154	0xbe8c2fad	-0.27380124
155	0xbf15237d	-0.58257276
156	0xbee5bf05	-0.448723
157	0x3f2128e3	0.62953013
158	0xbeb6bed3	-0.35692462
159	0xbed95358	-0.424464
160	0x3eb96d30	0.36216116
161	0xbe50e9fe	-0.20401761
162	0x3f07dbfe	0.53070056
163	0xbc4db6e6	-0.012555813
164	0xbe9bdd6b	-0.30442366
165	0xbf4f048b	-0.8086631
166	0x3f48b422	0.7839986
167	0x3e8853da	0.26626474
168	0xbf57d443	-0.8430826
169	0xbfd895aa	-1.6920674
170	0xbd996e81	-0.0749178
171	0xbfbfed5f	-1.4994315
172	0x3fade117	1.3584317
173	0x3e73fc12	0.23826626
174	0x3d4d758f	0.05016094
175	0x3ea2e34d	0.31814042
176	0xbeedda72	-0.46455723
177	0x3f59ac59	0.85028607
178	0xbde463be	-0.11151837
179	0xbef810c4	-0.4845029
180	0x3e4066fe	0.18789288
181	0x3ed33c95	0.41257158
182	0x3f20d867	0.62830204
183	0x3d7c9c2f	0.061672386
184	0x3ed3bbfa	0.41354352
185	0xbe715779	-0.23568524
186	0xbdf41833	-0.11918678
187	0xbe865016	-0.26232976
188	0xbe6bf50d	-0.23042698
189	0x3eecbf30	0.46239614
190	0xbe5198bd	-0.20468421
191	0xbf07ddeb	-0.53072995
192	0x3ce5b859	0.028042005
193	0xbda312f9	-0.07962603
194	0xbe46010c	-0.19336337
195	0xbe8c101c	-0.2735604
196	0x3e016276	0.12635216
197	0x3ea1b3a3	0.31582364
198	0xbe79d791	-0.24398638
199	0x3f02d79a	0.5111023
200	0x3cc1d0f9	0.023659216
201	0xbecc1de5	-0.39866558
202	0x3f34bc97	0.70600265
203	0xbe65a4d7	-0.22426163
204	0xbf807970	-1.003706
205	0xbf64ee2b	-0.89425915
206	0xbf59d6a9	-0.8509317
207	0x3e1f7ed6	0.15575728
208	0x3d3d3ce8	0.046200663
209	0x3ece263d	0.40263548
210	0x3d14edb6	0.03635951
211	0xbe854df0	-0.26036024
212	0x3e83ecba	0.25766546
213	0xbefd0d2b	-0.4942411
214	0xbe27b48c	-0.16377467
215	0x3e17f91a	0.14841118
216	0xbe88842e	-0.26663345
217	0x3dc95f5a	0.0983264
218	0x3b3a719a	0.002844906
219	0xbe9a4950	-0.30134058
220	0x3c1d0523	0.009583744
221	0xbe01a991	-0.1266234
222	0x3e8eca42	0.27888685
223	0x3e2bc1a1	0.16773082
224	0xbc8b0e8a	-0.016974706
225	0x3f21a2dc	0.6313913
226	0x3e4b6986	0.19864473
227	0x3f1f690f	0.6226968
228	0xbf0ea62e	-0.5572232
229	0x3d69cb31	0.057078544
230	0xbed87e07	-0.4228365
231	0x3f6b14ea	0.9182879
232	0xbe29fcd2	-0.1660035
233	0xbe4cec88	-0.20012105
234	0xbfa2fe99	-1.2733947
235	0xbf68a1e3	-0.9087202
236	0x3e7158a0	0.23568964
237	0xbf2444ab	-0.6416728
238	0x3d2a443e	0.041568987
239	0xbea29f37	-0.31762096
240	0x3ed54e0b	0.41661105
241	0x3f2c6e24	0.6735556
242	0x3db8678e	0.090041265
243	0x3f136499	0.57575375
244	0xbf437e9c	-0.76365066
245	0xbf26be59	-0.651342
246	0xbf980b4c	-1.1878448
247	0xbde0d179	-0.10977454
248	0x3e96edce	0.29478306
249	0xbdf14422	-0.117805734
250	0x3ddc2957	0.107500724
251	0xbdbb618c	-0.09149465
252	0xbeb214da	-0.34781533
253	0xbe823964	-0.2543441
254	0xbf5be8b3	-0.85901946
255	0xbf433752	-0.7625629

JKNet_layer_list.0.bias f4 [111]
0	0x3e2b2290	0.16712403
1	0xbe21a7df	-0.15786694
2	0xbd759f5b	-0.059966426
3	0xbeac449b	-0.33646092
4	0x3d7365c2	0.059423216
5	0x3ddd600f	0.10809337
6	0x3e442ab1	0.1915691
7	0xbe9eb1a7	-0.30994913
8	0xbed5ad46	-0.4173376
9	0xbed909ab	-0.4239019
10	0x3de4d583	0.11173537
11	0xbe8e2df7	-0.27769443
12	0xbe6e2a0b	-0.23258226
13	0xbf1d1a30	-0.61368084
14	0x3f937957	1.1521405
15	0xbf3fbcd3	-0.748975
16	0x3ebffcae	0.37497467
17	0xbe373f95	-0.17895348
18	0x3ddbac12	0.10726179
19	0xbc8e864e	-0.017398026
20	0x3dd99946	0.10624938
21	0xbebae6c5	-0.36504188
22	0xbf5d663d	-0.8648413
23	0x3ee618f5	0.44940916
24	0x3e09e650	0.13466763
25	0xbe58fdd4	-0.21190578
26	0xbf217ae1	-0.63078123
27	0x3ed9aa50	0.4251275
28	0xbf0267ec	-0.5093982
29	0xbeac0bfd	-0.33602896
30	0x3ed9bf0d	0.42528573
31	0x3f632869	0.88733536
32	0x3efefd61	0.49802688
33	0x3e02cb12	0.12772778
34	0x3f7ec470	0.9951849
35	0xbdc3acc3	-0.09554436
36	0x3eef4602	0.467331
37	0xbe46d4b1	-0.19417073
38	0x3f19fa45	0.60147506
39	0xbf1b5486	-0.6067585
40	0x3ebe2f3c	0.37145412
41	0x3dfe40bf	0.12414693
42	0x3ec41d80	0.38303757
43	0xbe10bc64	-0.14134365
44	0xbd2c2e1c	-0.04203616
45	0xbe8b7f92	-0.27245766
46	0x3eb16802	0.34649664
47	0xbbe66459	-0.0070310053
48	0xbf70dbca	-0.9408537
49	0xbed424db	-0.41434368
50	0x3f5056c1	0.81382376
51	0xbf108ac7	-0.5646176
52	0x3e8f6e34	0.28013766
53	0x3f6e05a2	0.92977345
54	0x3e4f884c	0.20266837
55	0xbe3c46a2	-0.1838632
56	0x3e20a6bb	0.15688603
57	0x3e955023	0.29162702
58	0x3e70cd46	0.23515806
59	0xbd16b2c2	-0.03679157
60	0xbe89967a	-0.26872617
61	0x3f780ac7	0.96891445
62	0xbe88fe68	-0.26756597
63	0xbe3093c9	-0.17243876
64	0xbd4d64ba	-0.05014489
65	0x3f47e5d9	0.78085095
66	0xbe989444	-0.29800618
67	0xbe566b7d	-0.20939441
68	0xbf1bdb53	-0.6088154
69	0x3e9906e5	0.29888073
70	0xbe888f0e	-0.26671642
71	0x3f67b29e	0.90506923
72	0xbd98524d	-0.07437573
73	0x3eb4605f	0.35229775
74	0xbf26fc82	-0.65229046
75	0x3c708022	0.014678987
76	0xbf7be0c2	-0.9838983
77	0x3f0f1851	0.5589648
78	0x3e4d9437	0.2007607
79	0x3ec32b45	0.3811895
80	0x3ebb77fb	0.36614975
81	0xbd066c63	-0.03281821
82	0x3f2f4803	0.68469256
83	0x3e060cf8	0.13090885
84	0xbcc6d07f	-0.02426934
85	0xbe7585d8	-0.23976839
86	0x3e8c2145	0.27369133
87	0xbf1079d2	-0.56435883
88	0xb9cd9370	-0.00039210496
89	0x3e0100a2	0.12597898
90	0x3e808ca8	0.25107312
91	0xbdf976fe	-0.12180899
92	0xbe86d872	-0.2633701
93	0xbb2a9492	-0.0026028496
94	0xbe69228c	-0.22767085
95	0xbe7750e4	-0.24151951
96	0xbe1847b4	-0.14871103
97	0xbe4c1bec	-0.19932526
98	0x3e1eeb24	0.15519387
99	0x3eb94aa4	0.3618976
100	0x3e7357e8	0.23764002
101	0xbf05af78	-0.5222087
102	0x3e21d7d9	0.15804996
103	0xbf57ef81	-0.8434983
104	0x3f7945e5	0.97372276
105	0xbefe762e	-0.4969954
106	0x3f3caa69	0.73697525
107	0x3e8c39ae	0.27387756
108	0xbe7e2f10	-0.2482264
109	0x3ea84682	0.32866293
110	0xbf44ce0e	-0.76876915

JKNet_layer_list.1.weight f4 [111]
0	0x3fd9fb48	1.702981
1	0x3f5f8c49	0.87323433
2	0x3f73f81b	0.95300454
3	0x3f8ce392	1.1006949
4	0x3f77b1fc	0.9675596
5	0x3fa285be	1.2697065
6	0x3fc4495c	1.5334888
7	0x3f9e6e34	1.2377381
8	0x3f83bcb1	1.0291959
9	0x3fc6122e	1.5474298
10	0x3f214ddd	0.63009435
11	0x3f979a7f	1.1844023
12	0x3f83034c	1.0235381
13	0x3fda7e27	1.7069749
14	0x3fc3f634	1.530951
15	0x3fb12e82	1.3842318
16	0x3e97d5b2	0.29655224
17	0x3f80dcbf	1.0067366
18	0x3ed7440d	0.42044106
19	0x3f85e7bf	1.0461348
20	0x3fa35bdc	1.2762408
21	0x3f6ba91d	0.9205492
22	0x3fcc6cd6	1.5970714
23	0x40033283	2.049958
24	0x3efa91a7	0.4893925
25	0x3fe5d020	1.795414
26	0x3fc709d5	1.5549875
27	0x3fdf05b8	1.742362
28	0x3fccc493	1.599749
29	0x3fa8c271	1.3184339
30	0x3f59d84e	0.8509568
31	0x3fabe504	1.3429265
32	0x3f771e51	0.96530634
33	0x3faa5d12	1.3309653
34	0x3f6f99df	0.93594164
35	0x3fc486b9	1.5353614
36	0x3ea6b3c3	0.32559022
37	0x3f8b09f3	1.0862411
38	0x3fb5f567	1.4215516
39	0x3fa88eab	1.3168539
40	0x3f47b9d5	0.7801793
41	0x3fa6d94f	1.3035067
42	0x3f496270	0.7866583
43	0x3fa0ffad	1.2578026
44	0x3f5ab6db	0.85435265
45	0x3fa615f8	1.2975454
46	0x3fb5e9c8	1.4211969
47	0x3f89299d	1.0715824
48	0x3facbd20	1.3495216
49	0x3fcada9f	1.5847968
50	0x3fe5d34a	1.7955105
51	0x4000e678	2.0140667
52	0x3fafb00d	1.3725601
53	0x3fb1cc55	1.3890482
54	0x3fc2b3b4	1.5211091
55	0x3fe1c709	1.7638866
56	0x3f862a3b	1.0481638
57	0x3e5155a1	0.20442821
58	0x3f684f0a	0.90745604
59	0x3f8e677b	1.112533
60	0x3ec3a2d7	0.38210174
61	0x402908ab	2.641154
62	0x3ff02134	1.8760133
63	0x3fa9e4fe	1.3273008
64	0x3fc09c0f	1.5047625
65	0x3efa25b9	0.48856905
66	0x3f04533d	0.5168951
67	0x3f5d2f6d	0.8640049
68	0x3f9ebf34	1.24021
69	0x3f5d899a	0.8653809
70	0x3fada345	1.3565451
71	0x400ec70a	2.2308984
72	0x3f4cd660	0.8001461
73	0x3f698f0a	0.91233885
74	0x3f82f54f	1.0231112
75	0x3f9377e0	1.1520958
76	0x3fbb0c3e	1.4613111
77	0x3f8f4810	1.1193867
78	0x3f1cf9d7	0.61318725
79	0x3f6d740b	0.9275519
80	0x3e8924e9	0.26785973
81	0x3f7ff3f8	0.9998164
82	0x3f8262b8	1.0186377
83	0x3e063dea	0.13109556
84	0x3c247c4c	0.0100394
85	0x3f94439c	1.1583133
86	0x3fdb2cc6	1.7123039
87	0x3faacc17	1.3343533
88	0x3fc93a6f	1.5720958
89	0x3f54dd83	0.831505
90	0x3f963d92	1.173754
91	0x3f820331	1.0157224
92	0x3f8a5323	1.0806621
93	0x3fd2032b	1.6407217
94	0x3f2f72a0	0.6853428
95	0x3f51cfd6	0.8195776
96	0x3fd835e2	1.6891444
97	0x3fa7e370	1.3116283
98	0x3f3ebbc4	0.7450526
99	0x3f02b740	0.5106087
100	0x3f8e46a6	1.111531
101	0x3f16aa36	0.5885347
102	0x3f375ca0	0.7162571
103	0x3e83eac5	0.25765052
104	0x3fe9165c	1.8209949
105	0x3f901d7b	1.1258997
106	0x3fff1ec1	1.993126
107	0x3f289a1d	0.6586016
108	0x3f74bc02	0.9559938
109	0x3f9f2182	1.2432101
110	0x3f9e57ed	1.2370583

JKNet_layer_list.1.bias f4 [111]
0	0xc015fca5	-2.3435452
1	0xbf32ded4	-0.6987126
2	0xbf1e1c6d	-0.61762124
3	0xbf501108	-0.8127599
4	0xbf1a1979	-0.6019512
5	0xbf30999a	-0.6898438
6	0xbf2c29ae	-0.672511
7	0xbefffe0e	-0.49998516
8	0xbf926833	-1.1438049
9	0xbfd94dad	-1.697683
10	0xbf8018a0	-1.0007515
11	0xbf9e841b	-1.2384065
12	0xbf39a47a	-0.72516596
13	0xbe30dc8e	-0.17271635
14	0xbf57640f	-0.8413705
15	0xbf16f453	-0.5896656
16	0xbe122ff0	-0.14276099
17	0xbfa2f1b3	-1.2730011
18	0xbf32f061	-0.6989804
19	0x3e0c4956	0.1369985
20	0xbeb8adcc	-0.36070096
21	0xbe0589aa	-0.13040796
22	0xbdc20698	-0.09473914
23	0xbf429bc0	-0.76018906
24	0xbea7b76e	-0.32757133
25	0xbf3411d5	-0.7033971
26	0xbf1d7a7f	-0.6151504
27	0xbf88162c	-1.0631766
28	0xbfa71538	-1.305335
29	0xbf532269	-0.8247438
30	0xbf028216	-0.50979745
31	0xbe31acac	-0.17351025
32	0xbf58a0e5	-0.84620506
33	0xbe8a5f8d	-0.27026024
34	0x3e24f823	0.16110282
35	0xbf174b21	-0.5909901
36	0xbf5b5ee1	-0.8569165
37	0xbf30da33	-0.69082946
38	0xbec5982c	-0.3859266
39	0xc024a486	-2.5725417
40	0xbe8545ba	-0.2602976
41	0xbfadd836	-1.3581607
42	0x3d6a64e8	0.057225138
43	0xbf04e795	-0.51915866
44	0xbf08e0d4	-0.5346806
45	0xbefe2067	-0.49634096
46	0xbe821edb	-0.25414166
47	0xbf335e9e	-0.7006625
48	0xc02e4685	-2.7230542
49	0xc01667cc	-2.3500853
50	0xbf47fc57	-0.78119415
51	0xbf204ccf	-0.626172
52	0xbf0d1d2f	-0.55122656
53	0xbfdc73a0	-1.7222786
54	0xbf8fc403	-1.1231693
55	0xbfd23d6a	-1.6424992
56	0xbef85081	-0.4849892
57	0xbf4e0962	-0.8048307
58	0xbede5498	-0.43423915
59	0xbf1ca602	-0.6119081
60	0xbf36b8fe	-0.71376026
61	0xbfa56379	-1.2920982
62	0xbfb5c48e	-1.4200609
63	0xbed43a18	-0.41450572
64	0xbf88c2ec	-1.0684485
65	0xbd348f88	-0.044082195
66	0x3e4ffaf8	0.2031058
67	0xbf8e9008	-1.1137705
68	0xbf99e8af	-1.2024134
69	0x3e2b95c2	0.16756347
70	0xbfbdbaba	-1.482261
71	0xbf99388e	-1.1970384
72	0xbf3b8f57	-0.73265594
73	0xbaac4a20	-0.001314465
74	0xbf450410	-0.76959324
75	0xbcc3752c	-0.023859583
76	0xbd3c0169	-0.045899782
77	0xbea39d72	-0.3195606
78	0xbeefdc59	-0.468478
79	0xbea2425c	-0.31691253
80	0xbf40dc58	-0.7533622
81	0xbf02955d	-0.5100916
82	0xbe9fc3fc	-0.31204212
83	0xbf2c8b92	-0.6740047
84	0xbf0af34f	-0.5427751
85	0xbf1d1bd2	-0.61370575
86	0xbe30d395	-0.17268212
87	0xc010d4e9	-2.262995
88	0xbf9066e1	-1.1281396
89	0xbf457c10	-0.7714243
90	0xbfae8269	-1.3633548
91	0xbf837c1c	-1.027225
92	0xbf0b4065	-0.54395133
93	0xbec92f64	-0.3929397
94	0xbf4d71ab	-0.8025157
95	0xbee5548b	-0.44791064
96	0xbfb8431d	-1.4395481
97	0xbf8cd697	-1.1002988
98	0xbeed3721	-0.46331123
99	0xbe0023b3	-0.12513618
100	0xbec76cba	-0.3895014
101	0xbd22e154	-0.03976567
102	0xbe7e410f	-0.24829505
103	0x3c783d02	0.015151264
104	0xbf973bb4	-1.1815095
105	0xbea51d1c	-0.3224877
106	0xbffc0411	-1.9688741
107	0xbf0e7c33	-0.5565826
108	0xbf485b1b	-0.78264016
109	0xbe7509d3	-0.23929529
110	0xbfaa5f8d	-1.331041

JKNet_layer_list.1.running_mean f4 [111]
0	0xbe9a93f6	-0.3019101
1	0xbae1a76d	-0.0017216034
2	0xbdb3f5f7	-0.087871484
3	0x3cac0a6d	0.021001065
4	0x3ed92dc1	0.4241772
5	0x3fa68a5c	1.3010974
6	0x3d7cccf7	0.061718907
7	0xbf5e8f1b	-0.8693711
8	0xbf8fc9da	-1.1233475
9	0x3e842510	0.25809526
10	0x3df760d0	0.120790124
11	0xbe968507	-0.29398367
12	0xbd610c8e	-0.054943614
13	0xbfba3195	-1.4546381
14	0x3f076fca	0.5290495
15	0xbf7d0f21	-0.9885121
16	0x3e17e31d	0.1483273
17	0xbdc5b2ce	-0.09653245
18	0xbedce60a	-0.43144256
19	0xbe1f52ef	-0.1555898
20	0x3f2423ad	0.64116937
21	0xbe68648a	-0.22694603
22	0xbfc8b370	-1.567976
23	0xbfe050db	-1.7524675
24	0x3e5d3f3b	0.21606152
25	0xbff46fb1	-1.9096586
26	0x3eb933b6	0.36172265
27	0xbfb6f333	-1.4292969
28	0x3e62de2b	0.22155063
29	0x3f1489dd	0.5802286
30	0x3f1e39ea	0.6180712
31	0x3d510951	0.051034275
32	0xbf0b81a8	-0.54494715
33	0xbf2ea3fd	-0.68218976
34	0x3e763436	0.24043354
35	0x3e1290d4	0.1431306
36	0x3f8a5b57	1.0809125
37	0xbcf8c89a	-0.030369092
38	0x3d108f42	0.03529287
39	0xbf423aee	-0.7587117
40	0x3f4ecee7	0.8078446
41	0x3fcfc103	1.6230778
42	0xbf35cde6	-0.710173
43	0xbfa6f42f	-1.3043269
44	0xbea37f37	-0.31932995
45	0xbf88ccca	-1.0687497
46	0xbc2cd256	-0.010548195
47	0x3ec59719	0.3859184
48	0x3f4ab62a	0.7918421
49	0x3f126278	0.571815
50	0x3fd436b0	1.6579189
51	0xbfd8b569	-1.6930362
52	0xbf7b0122	-0.98048604
53	0x400dec4f	2.2175481
54	0x3f57ac02	0.8424684
55	0xbe8be71b	-0.27324757
56	0xbe7c5205	-0.24640663
57	0x3ed985cd	0.42484894
58	0xbf85dab7	-1.0457371
59	0x3e44f563	0.19234233
60	0x3ef8c828	0.48590207
61	0xbe2a39ef	-0.16623662
62	0xbdb367fc	-0.08760068
63	0xbf85197e	-1.0398405
64	0xbdd72454	-0.10504976
65	0x3fff53a0	1.9947395
66	0xbfc3518c	-1.5259261
67	0x3f032003	0.5122072
68	0x3f0b93a5	0.5452216
69	0xbf647778	-0.89244795
70	0x3fa8104b	1.3129972
71	0xbe92d8a3	-0.28680906
72	0x3f2d37a3	0.6766302
73	0xbf8679be	-1.0505903
74	0xbfcd9c2a	-1.6063282
75	0xbec268b3	-0.37970504
76	0xbfb66060	-1.4248161
77	0x3f4c3d36	0.797809
78	0xbf2322c0	-0.637249
79	0x3dcda73f	0.10041665
80	0xbe5feaaa	-0.21866861
81	0x3dfb7d7f	0.12279796
82	0x3fa6ab1c	1.3020968
83	0x3eff6a8a	0.4988597
84	0x3faa0345	1.3282248
85	0xbf49323f	-0.78592294
86	0x3d17ef25	0.0370933
87	0x3f364770	0.71202755
88	0x3fb570c2	1.4175036
89	0xbf64226c	-0.89115024
90	0xbede216a	-0.43384868
91	0xbecff3d7	-0.40615723
92	0xbeb43c15	-0.3520209
93	0xbf3fdc97	-0.7494597
94	0xbeb02e1a	-0.34410173
95	0x3eae1ed2	0.3400789
96	0x3ef6f00c	0.48230016
97	0x3ee97ac0	0.45601463
98	0x3ed00540	0.40629005
99	0x3faa18f1	1.3288862
100	0xbf57ed9b	-0.8434693
101	0x3eb9bc14	0.36276305
102	0x3e8f6d9d	0.28013316
103	0xbf93fcfa	-1.1561577
104	0xbecf91d7	-0.40540954
105	0xbf0ee032	-0.55810845
106	0xc01c8749	-2.4457572
107	0x3df21b2e	0.1182159
108	0xbf4da165	-0.80324394
109	0xbe85eb58	-0.26156116
110	0x3f2d9dc9	0.67818886

JKNet_layer_list.1.running_var f4 [111]
0	0x3dcd99d0	0.10039103
1	0x3e26b082	0.1627827
2	0x3db8f99b	0.090319835
3	0x3dd7f6bb	0.10545107
4	0x3d648348	0.055789262
5	0x3dd2c5b7	0.10291617
6	0x3debd703	0.115156196
7	0x3ef7feba	0.48436528
8	0x3e1c5f19	0.15270652
9	0x3e0b2fb6	0.13592419
10	0x3d567e5d	0.052366603
11	0x3e205c4c	0.15660208
12	0x3e26f3d0	0.16303945
13	0x3e36a0ce	0.1783478
14	0x3d59f339	0.05321047
15	0x3e1e2302	0.15443042
16	0x3d88160d	0.06644831
17	0x3cfde50f	0.030993013
18	0x3e247e60	0.16063833
19	0x3dfe6fd7	0.124236755
20	0x3e7b35da	0.24532261
21	0x3d82b745	0.06382612
22	0x3e9ef71c	0.31047904
23	0x3de23394	0.11044994
24	0x3d95f4ee	0.07322107
25	0x3da5ffe9	0.081054516
26	0x3dccea70	0.10005653
27	0x3dada2c4	0.08478311
28	0x3d9b1375	0.075720705
29	0x3db3e7fa	0.087844804
30	0x3d925695	0.071454205
31	0x3ef4e446	0.4783041
32	0x3d094d32	0.033520885
33	0x3e4cf937	0.20016943
34	0x3e19f052	0.15033081
35	0x3e3d01cf	0.18457721
36	0x3e0b5080	0.13604927
37	0x3db95d62	0.090510145
38	0x3df85d10	0.12127125
39	0x3e0ce771	0.13760163
40	0x3df4319b	0.11923524
41	0x3dda21f5	0.10651008
42	0x3e1ed61e	0.15511367
43	0x3e3d2b36	0.18473515
44	0x3dd54daa	0.10415204
45	0x3d85bdf4	0.06530371
46	0x3e7ee8a0	0.24893427
47	0x3dc2a400	0.09503937
48	0x3d8e5d9c	0.06951448
49	0x3d1d8563	0.038457286
50	0x3d882d11	0.06649221
51	0x3e0fb2fe	0.14033124
52	0x3e8f17ec	0.27947938
53	0x3dbcdc6f	0.09221732
54	0x3dea98dd	0.114549376
55	0x3da36732	0.07978667
56	0x3cfc206c	0.030777179
57	0x3e02be87	0.12767993
58	0x3d9894ba	0.07450242
59	0x3e406b64	0.18790966
60	0x3deaa5ec	0.11457428
61	0x3e892aac	0.2679037
62	0x3dec8b7b	0.11550041
63	0x3e74245b	0.23841994
64	0x3db3deff	0.087827675
65	0x3d640dbd	0.055677164
66	0x3e187753	0.14889269
67	0x3e1c9b3b	0.1529359
68	0x3d3bfada	0.045893528
69	0x3e22879f	0.15872048
70	0x3dbf52ae	0.09341942
71	0x3e07b572	0.1325281
72	0x3e38375b	0.17989866
73	0x3ee4a226	0.4465496
74	0x3d62435d	0.055240024
75	0x3e0e4a2e	0.13895485
76	0x3d917cca	0.0710388
77	0x3da5a096	0.0808727
78	0x3ded72fc	0.11594197
79	0x3d9cd8fe	0.076585755
80	0x3d7e52fa	0.06209085
81	0x3e4c9e1d	0.1998219
82	0x3d3e0559	0.04639182
83	0x3d657f40	0.05602956
84	0x3e430a5f	0.19046925
85	0x3de8bbf8	0.11363977
86	0x3d86746c	0.065651745
87	0x3d59cffe	0.053176872
88	0x3e3bb130	0.1832931
89	0x3d41c420	0.04730618
90	0x3e3855e0	0.18001509
91	0x3d8c8701	0.068616875
92	0x3ddca353	0.10773339
93	0x3d1c84ac	0.038212463
94	0x3dea946f	0.11454093
95	0x3dd36d1d	0.10323546
96	0x3d91a384	0.07111266
97	0x3dbd7953	0.092516564
98	0x3e3d17d8	0.18466127
99	0x3e1994b2	0.14998129
100	0x3e57a90b	0.21060579
101	0x3e3d3052	0.18475464
102	0x3de6f474	0.112770945
103	0x3df85869	0.12126238
104	0x3da321d1	0.07965434
105	0x3d81fa95	0.06346623
106	0x3dd352c1	0.103185184
107	0x3e1701ce	0.14746782
108	0x3e0ff925	0.14059885
109	0x3dfb2f3c	0.122648686
110	0x3d11a053	0.035553288

JKNet_layer_list.4.weight f4 [111, 111]
0	0x3e202ee6	0.1564289
1	0xbd85f443	-0.0654073
2	0x3e200f72	0.15630892
3	0xbe1d0f2e	-0.15337822
4	0x3ec3a19e	0.38209242
5	0xbea96d5d	-0.3309125
6	0xbd9c202d	-0.076233245
7	0x3dca20f5	0.09869567
8	0xbe10820a	-0.14112106
9	0xbf7fc671	-0.9991217
10	0xbeb7cf93	-0.35900554
11	0xbe4abae2	-0.19797853
12	0xbeb6d527	-0.35709497
13	0xbf697d9a	-0.9120728
14	0xbebd186b	-0.36932692
15	0x3e80cb10	0.25154924
16	0x3e6631b0	0.22479892
17	0x3e2c93a3	0.16853194
18	0x3e0e8ee2	0.13921693
19	0x3ea1f729	0.3163388
20	0xbe8b1c6c	-0.27170122
21	0x3efa69ba	0.48908788
22	0xbf484b4b	-0.7823989
23	0xbe959d5a	-0.29221612
24	0x3f2ae558	0.667562
25	0x3d5dabde	0.054118983
26	0xbe61c3f2	-0.22047403
27	0x3e92d49f	0.28677842
28	0x3f5d65c9	0.86483437
29	0xbea0600d	-0.3132328
30	0x3e3185fa	0.17336264
31	0x3d96a01e	0.07354759
32	0x3ee8472c	0.453668
33	0x3ee8b591	0.45451024
34	0xbed15920	-0.4088831
35	0xbd3f07ca	-0.046638288
36	0x3ee96bb5	0.45589986
37	0x3f44af48	0.7682996
38	0x3f063272	0.52420723
39	0xbe922bda	-0.2854908
40	0xbda4870c	-0.08033571
41	0xbf08add2	-0.5339023
42	0xbd15065b	-0.036383014
43	0xbf304c63	-0.68866557
44	0xbe9b7870	-0.30365324
45	0xbcd58982	-0.026066545
46	0xbe6d2aae	-0.23160812
47	0x3ed2a2d9	0.41139868
48	0xbea73c0b	-0.32662997
49	0xbf06cb12	-0.5265361
50	0xbecf5773	-0.40496406
51	0xbe680ed6	-0.2266191
52	0x3f259e87	0.6469502
53	0x3efbc5dc	0.49174392
54	0x3f17c6d5	0.5928777
55	0x3ecc8485	0.39944854
56	0x3e95ef0b	0.29283938
57	0x3e29b662	0.1657348
58	0xbeeda86a	-0.46417552
59	0x3f11a718	0.5689559
60	0x3ef0931b	0.46987233
61	0x3eab2bb1	0.3343177
62	0x3e22a55b	0.1588339
63	0x3edd4786	0.4321863
64	0x3e7fe65b	0.24990217
65	0x3ed72ad5	0.42024866
66	0x3d11cddd	0.035596717
67	0x3ef18ccc	0.47177732
68	0xbd72797a	-0.05919788
69	0x3cf577b3	0.029964304
70	0x3e9eb3d0	0.3099656
71	0xbea74000	-0.32666016
72	0xbebaf332	-0.36513668
73	0xbe9f4bac	-0.3111242
74	0x3f00c8d6	0.5030645
75	0xbf157d4a	-0.583943
76	0xbf2346de	-0.6378001
77	0x3e829121	0.2550135
78	0xbf601596	-0.8753294
79	0x3deafe7d	0.11474321
80	0xbe1a985f	-0.15097187
81	0x3d83c0e0	0.06433272
82	0xbea95eb6	-0.3308007
83	0x3d3ca821	0.046058778
84	0x3e13deb4	0.14440423
85	0x3d810cf8	0.06301302
86	0x3ed5e8ef	0.41779277
87	0xbf68ebde	-0.90984905
88	0x3e308484	0.1723805
89	0xbf14049b	-0.5781953
90	0x3efa498f	0.48884246
91	0x3e0b6174	0.13611394
92	0x3f09dbbc	0.53850913
93	0x3e1eb1d0	0.15497518
94	0xbe9fb1af	-0.3119025
95	0xbe0ad20e	-0.13556692
96	0x3f374e47	0.71603817
97	0xbb1eceb0	-0.0024232082
98	0x3eda49e4	0.426345
99	0x3f368ab5	0.713054
100	0xbc1a3eb0	-0.00941436
101	0xbe030395	-0.12794335
102	0xbf02f071	-0.51148134
103	0xbcb17861	-0.021663846
104	0x3ec27b04	0.37984478
105	0xbce92667	-0.028460694
106	0x3f70c011	0.9404307
107	0xbf0dfd72	-0.5546485
108	0x3e9d8252	0.3076349
109	0xbeb1f4e5	-0.34757152
110	0xbe4ddcd0	-0.20103765
111	0xbe812508	-0.25223565
112	0x3e8463cf	0.25857398
113	0x3edd1f94	0.43188155
114	0xbe6ee213	-0.23328428
115	0xbec707d3	-0.38873157
116	0x3e76d186	0.24103364
117	0x3e92f312	0.28701073
118	0x3e905d29	0.28196076
119	0x3ecba4f2	0.3977428
120	0xbf039559	-0.5139976
121	0x3ec65016	0.38732976
122	0x3ed82006	0.42211932
123	0xbee6875a	-0.4502514
124	0xbeaffe8e	-0.34373897
125	0xbfb19e58	-1.3876448
126	0xbec89e74	-0.3918339
127	0xbe0026a4	-0.1251474
128	0xbf066674	-0.5250008
129	0x3eb66c3f	0.3562946
130	0xbe949ea9	-0.29027298
131	0xbf123d89	-0.57125145
132	0xbf01a955	-0.50649005
133	0x3e4fb0e5	0.20282324
134	0xbe396a00	-0.18106842
135	0x3e3086eb	0.17238967
136	0xbf58c7aa	-0.84679663
137	0x3f00ccf0	0.5031271
138	0xbe91d2aa	-0.28481036
139	0x3d6cf952	0.057854958
140	0x3eeab893	0.45843944
141	0xbef6b0b7	-0.48181698
142	0x3c98a9fd	0.018635744
143	0xbe70e98a	-0.23526588
144	0x3dcfea03	0.10152056
145	0x3cf7ad66	0.03023405
146	0xbdc4c13d	-0.0960717
147	0x3edc6768	0.43047643
148	0xbecc91c2	-0.39954954
149	0xbeffff74	-0.49999583
150	0x3e7102ed	0.23536272
151	0xbec26ceb	-0.37973723
152	0xbdb304b7	-0.08741134
153	0xbd420aae	-0.047373466
154	0xbe58f2c6	-0.2118636
155	0xbedbd642	-0.42936903
156	0x3e97d2fb	0.29653153
157	0xbe9bab05	-0.30403915
158	0xbec187ae	-0.37798828
159	0x3e800dac	0.2501043
160	0xbe4d981b	-0.20077555
161	0x3ec5b098	0.38611293
162	0xbf450824	-0.76965547
163	0x3d90799e	0.07054447
164	0xbed425ba	-0.41435033
165	0xbeb79206	-0.35853595
166	0x3e9095dd	0.28239337
167	0x3eb577b7	0.35442898
168	0xbe73b371	-0.2379892
169	0x3ea2e120	0.31812382
170	0xbe91a4b9	-0.28445986
171	0xbed2ecbb	-0.41196236
172	0xbe80dad9	-0.25166968
173	0xbe84b185	-0.25916687
174	0xbf1c9816	-0.61169565
175	0xbe6dd2d7	-0.2322496
176	0xbe528a59	-0.20560588
177	0x3ccc61e3	0.02494902
178	0xbe407939	-0.18796243
179	0xbeb7ba2f	-0.35884234
180	0xbc8372fb	-0.016046038
181	0xbe48e82f	-0.19619821
182	0xbd8441d3	-0.064578675
183	0xbe7d5385	-0.24738891
184	0x3dfe8071	0.12426842
185	0xbe89f117	-0.2694175
186	0x3e942532	0.28934628
187	0xbe9c964c	-0.30583417
188	0xbeed2e63	-0.46324453
189	0xbe972e73	-0.29527625
190	0xbf549815	-0.8304456
191	0x3e97c94b	0.29645762
192	0xbeb25c78	-0.34836173
193	0x3f035197	0.5129637
194	0xbed29bb4	-0.41134417
195	0x3edd4493	0.4321638
196	0xbec4425b	-0.38331875
197	0x3dbacd19	0.091211505
198	0xbe89c13d	-0.26905242
199	0xbee7ff72	-0.45312077
200	0x3d949589	0.07255084
201	0x3bd398ee	0.0064574396
202	0x3ea93ff5	0.33056608
203	0x3c751080	0.014957547
204	0xbf15af82	-0.5847093
205	0x3dcb38be	0.09922932
206	0xbe69a38c	-0.22816294
207	0xbed34b9b	-0.4126862
208	0xbe84c1df	-0.25929162
209	0xbe6b0843	-0.2295237
210	0xbf1c71ed	-0.61111337
211	0xbe5bb3d6	-0.2145532
212	0xbeb232ab	-0.34804282
213	0x3ec92eb7	0.39293453
214	0xbe95ad33	-0.29233703
215	0xbddf99fe	-0.109180436
216	0xbe845740	-0.25847816
217	0x3e9dce02	0.30821234
218	0x3e937103	0.2879716
219	0x3e544a71	0.20731522
220	0xbe80c074	-0.2514683
221	0x3ea03784	0.31292355
222	0xbe70ad59	-0.23503627
223	0x3e21ff4e	0.15820047
224	0x3da7f188	0.08200365
225	0x3eb577b1	0.3544288
226	0xbeeb6c43	-0.45981035
227	0x3ecb54cf	0.3971314
228	0x3edb57fe	0.4284057
229	0x3ee475fe	0.4462127
230	0x3ed15730	0.4088683
231	0xbe1ab98f	-0.15109847
232	0x3ebde192	0.3708616
233	0xbe8f82ff	-0.2802963
234	0x3d2af3b0	0.041736305
235	0x3e6b5b8b	0.2298414
236	0xbecc2130	-0.3986907
237	0x3ec429b3	0.38313064
238	0x3e9d4af3	0.30721244
239	0x3d3a1b10	0.045435965
240	0x3e37c458	0.17945993
241	0x3fa2244f	1.266733
242	0xbe92a92e	-0.286447
243	0x3e4dd99e	0.20102546
244	0x3ed8bc24	0.4233104
245	0x3f9613d9	1.1724807
246	0xbf149824	-0.5804465
247	0xbe340898	-0.17581403
248	0x3f2cbd0c	0.6747596
249	0x3ec685fa	0.3877409
250	0x3f96292c	1.1731315
251	0x3e95f2d4	0.29286826
252	0xbdb9a51d	-0.09064696
253	0x3ed5c484	0.41751492
254	0x3f1174d8	0.56818914
255	0x3e31cbf0	0.17362952

JKNet_layer_list.4.bias f4 [111]
0	0x3d684951	0.056710545
1	0x3d13a0e7	0.03604212
2	0xbe44076e	-0.19143459
3	0xbe1a33dc	-0.15058845
4	0xbc4286bf	-0.011872946
5	0x3e91477a	0.28374845
6	0x3bccbbd9	0.006247979
7	0xbd372b53	-0.04471905
8	0x3d2cf97a	0.042230107
9	0x3e17a169	0.14807667
10	0x3e59f1d3	0.21283655
11	0x3e01d470	0.12678695
12	0x3e08efe2	0.13372758
13	0xbe4ee39b	-0.20204012
14	0x3d022298	0.031771272
15	0xbdc03324	-0.09384754
16	0x3cc2fcf3	0.023802256
17	0x3db4624b	0.088078104
18	0x3dc3f3f1	0.095680125
19	0x3d696aaf	0.056986507
20	0xbe168ade	-0.14701411
21	0x3db55abe	0.08855198
22	0xbe21ab35	-0.15787967
23	0x3e61b2f2	0.22040918
24	0x3da35a18	0.079761684
25	0x3db21539	0.08695454
26	0x3e1244b0	0.14284015
27	0x3bebde40	0.007198125
28	0x3d9cea17	0.076618366
29	0xbd3d99d1	-0.04628927
30	0xbde09585	-0.109660186
31	0x3c6bd71f	0.014394551
32	0x3d04e59a	0.032445528
33	0x3dcf926b	0.10135349
34	0xbe4e9f75	-0.20178016
35	0xbc010e1b	-0.007876898
36	0xbe9bf30d	-0.3045887
37	0xbe836b42	-0.2566777
38	0x3e4fc760	0.202909
39	0xbdf1b493	-0.1180202
40	0xbe83d226	-0.25746268
41	0x3e5edb13	0.21763258
42	0x3e5d920e	0.21637747
43	0x3da7f394	0.08200756
44	0xbe9d5c09	-0.3073428
45	0xbd17b433	-0.037037086
46	0x3daf7213	0.0856668
47	0xbd2839c8	-0.04107073
48	0x3dc35c44	0.09539083
49	0xbd995389	-0.07486636
50	0xbe38262e	-0.17983314
51	0xbe21024e	-0.15723535
52	0xbd905ac0	-0.07048559
53	0x3cbef5a7	0.023310496
54	0x3e2da79e	0.16958472
55	0xbc09b697	-0.008405349
56	0x3dc370a9	0.095429726
57	0x3e2cafb5	0.16863902
58	0x3e8deb35	0.2771851
59	0x3e464cde	0.1936526
60	0xbdf582ae	-0.11987816
61	0xbe3984b0	-0.18117023
62	0xbe2210a7	-0.15826665
63	0x3dedd107	0.116121344
64	0xbdb0475f	-0.08607363
65	0x3e26e7a7	0.16299306
66	0xbbe6347e	-0.0070253005
67	0x3e2a289e	0.16617057
68	0x3dd3604c	0.103211015
69	0xbe2bd25f	-0.16779469
70	0x3dffcd47	0.124903254
71	0xbda1309c	-0.078706
72	0x3e39bc8b	0.1813833
73	0x3e39bb55	0.18137868
74	0xbe0ccd2e	-0.13750145
75	0x3e460245	0.19336803
76	0xbc8c42ee	-0.017121758
77	0x3d166e52	0.036726303
78	0xbe905117	-0.28186867
79	0xbe134355	-0.14381154
80	0xbea403d8	-0.32034183
81	0xbdfd796b	-0.12376674
82	0x3eae5bac	0.34054315
83	0x3d59fe52	0.053221054
84	0xba59b1ec	-0.00083044055
85	0xbc6f267f	-0.0145965805
86	0x3da8ed40	0.08248377
87	0x3e0fcd9c	0.14043278
88	0x3ea81ab4	0.32832873
89	0xbe7dd366	-0.24787673
90	0x3e50c5cf	0.20387958
91	0x3e8cc3ed	0.2749323
92	0x3e530b1c	0.20609707
93	0x3d23e7d1	0.040016
94	0x3e25a8a9	0.1617762
95	0xbd520c43	-0.051281225
96	0xbea85315	-0.32875887
97	0x3e218fe1	0.15777542
98	0xbd9b995e	-0.07597612
99	0x3cbc1c3c	0.022962682
100	0x3e1a0182	0.15039638
101	0x3d9ad612	0.07560362
102	0xbe817b1f	-0.25289246
103	0xbd8926d4	-0.06696859
104	0x3cc10345	0.02356113
105	0x3e39c88e	0.18142912
106	0xbe6ea4f2	-0.23305109
107	0xbda77795	-0.08177105
108	0x3dacc81e	0.08436607
109	0x3d8f134f	0.06986105
110	0xbe1d6fe8	-0.1537472

JKNet_layer_list.5.weight f4 [111]
0	0x3fadc572	1.357588
1	0x3f964f27	1.1742905
2	0x3fb7ef58	1.4369917
3	0x3f788ba2	0.9708806
4	0x3ec5035b	0.38479123
5	0x3f539de1	0.8266278
6	0xbcafa7e8	-0.021442369
7	0x3fb48d35	1.4105593
8	0x3f0ad0cc	0.5422485
9	0x3fb9cf37	1.4516362
10	0x3f848a89	1.0354778
11	0x38fac308	0.00011957256
12	0x3f827507	1.0191964
13	0x3fe7e017	1.8115262
14	0x3f7f2655	0.99667865
15	0x3f510e16	0.8166212
16	0x3fa2ce74	1.2719254
17	0x3f0b804d	0.54492646
18	0x4021c7a6	2.5278106
19	0x3f970378	1.1797934
20	0x3f8fe62b	1.1242117
21	0x3fdd6105	1.7295233
22	0x3f925c69	1.1434451
23	0x3fb81495	1.4381281
24	0x3f4d838e	0.8027886
25	0x3fb669f6	1.4251087
26	0x3f8515e6	1.0397308
27	0x3fe216db	1.7663225
28	0x3f1f7599	0.62288815
29	0x3fb43f5c	1.4081836
30	0x3fc9e7a1	1.5773813
31	0x3f278464	0.6543639
32	0x3f43c0f2	0.76466286
33	0x3fb84636	1.4396427
34	0x3f6d900a	0.9279791
35	0x3ff0cc7a	1.8812401
36	0x3fcc08f9	1.5940238
37	0x3fc77192	1.5581534
38	0x3ff38d11	1.9027425
39	0x3f68eee4	0.9098952
40	0x3f5cbbb2	0.862239
41	0x3f67273c	0.9029424
42	0x3fb665d6	1.4249828
43	0x3f8d7591	1.1051503
44	0x3f7b2ce8	0.98115396
45	0x3f8d07aa	1.1017964
46	0x3f7a2bdc	0.97723174
47	0x3f4933c6	0.78594625
48	0x3f1830a5	0.59449226
49	0x3fdb0f0a	1.7113965
50	0x3f5893b1	0.8460036
51	0x3fa25d50	1.2684727
52	0x3f99194d	1.1960846
53	0x3f129d60	0.57271385
54	0x3f21c124	0.63185334
55	0x3f625ce1	0.8842297
56	0x3f9d1e9c	1.2274966
57	0x3fbaec06	1.4603279
58	0x3fc41f59	1.5322067
59	0x3fa03fdc	1.2519488
60	0x3f882f37	1.0639409
61	0x3fc6ca19	1.5530425
62	0x3fad27b2	1.3527739
63	0x3f87f801	1.062256
64	0x3f89d591	1.07683
65	0x3f9ba0de	1.2158468
66	0x3fca31e6	1.5796478
67	0x3fac8b62	1.3480036
68	0x3f24042c	0.64068866
69	0x3fb291db	1.3950762
70	0x40141c16	2.3142142
71	0x3f58bdf5	0.8466485
72	0x3f6fc541	0.9366036
73	0x3fbcef2d	1.4760491
74	0x3f26b5ce	0.6512116
75	0x3f9a1531	1.2037717
76	0x3f694004	0.91113305
77	0x3f8e2bba	1.1107094
78	0x3f449df9	0.7680355
79	0x3f90e067	1.1318482
80	0x3f6768fa	0.90394557
81	0x3ff9039f	1.945423
82	0x3fbebe2f	1.490179
83	0x3f883ecf	1.0644168
84	0x3f0bd299	0.5461822
85	0x3f1c84cc	0.6114013
86	0x3f76e10c	0.96437144
87	0x3f3e5366	0.74346006
88	0x3f19f7ef	0.6014394
89	0x3f9c09a3	1.2190441
90	0x3f1743f6	0.59088075
91	0x3fe42816	1.7824733
92	0x3f3f06d2	0.7461978
93	0x3fd245a8	1.6427507
94	0x3fa4ec1e	1.2884557
95	0x3fdcc472	1.724745
96	0x3f892b56	1.071635
97	0x3fc60985	1.5471655
98	0x3dc9e0c0	0.09857321
99	0x3f857239	1.0425483
100	0x3f8d09da	1.1018631
101	0x3f809b09	1.0047313
102	0x3fb07ed1	1.3788701
103	0x3fe58700	1.7931824
104	0x3f625918	0.88417196
105	0x3f47f36d	0.78105813
106	0x3fa87184	1.3159642
107	0x3f4a2f48	0.78978395
108	0x3fe4698d	1.7844712
109	0x3f90a5d4	1.1300607
110	0x3f31f6a9	0.69517

JKNet_layer_list.5.bias f4 [111]
0	0xbed695b3	-0.41911086
1	0xbeaa3df5	-0.33250394
2	0x3e9c6bf4	0.30551112
3	0x3e94a817	0.29034492
4	0xbf53923d	-0.82645017
5	0xbf0860be	-0.53272617
6	0xbf0ceedc	-0.5505197
7	0x3e846599	0.25858763
8	0xbe14a830	-0.14517283
9	0xbd60d652	-0.05489189
10	0x3dbbb018	0.091644466
11	0xbebaf12a	-0.3651212
12	0xbeb9f875	-0.3632237
13	0xbfaad17a	-1.3345177
14	0xbe99d5e4	-0.30045998
15	0xbeeb1cb8	-0.45920348
16	0xbddeb982	-0.108752266
17	0xbf004eba	-0.5012013
18	0xbf22468f	-0.63388914
19	0xbd5cd96e	-0.053918295
20	0xbc353826	-0.01106075
21	0xbf3bc146	-0.73341787
22	0xbe881158	-0.26575732
23	0x3e51b98a	0.20480934
24	0xbf08d668	-0.5345216
25	0xbedd1ae6	-0.43184584
26	0xbf31aa7d	-0.6940077
27	0x3edbadf5	0.42906156
28	0xbeae1581	-0.3400078
29	0xbf288b20	-0.6583729
30	0x3e051f3e	0.13000199
31	0xbe1cf31a	-0.15327111
32	0xbef16556	-0.47147626
33	0xbf833cce	-1.0252931
34	0xbec1a43c	-0.37820613
35	0xbf40f112	-0.75367844
36	0xbf259a5d	-0.64688665
37	0xbd259bde	-0.04043185
38	0xc000064c	-2.0003843
39	0xbe8d9f9d	-0.27660838
40	0xbe876192	-0.26441628
41	0xbea129b8	-0.3147714
42	0xbf88971e	-1.0671117
43	0x3ef8f71e	0.48626035
44	0xbf36eca7	-0.7145485
45	0xbed673ad	-0.4188513
46	0xbeb02a76	-0.34407395
47	0x3e443003	0.1915894
48	0xbf49672f	-0.7867307
49	0xbe8a129b	-0.2696732
50	0xbf2315b7	-0.6370501
51	0xbddea1b0	-0.10870683
52	0xbd66496b	-0.05622236
53	0x3d938746	0.07203536
54	0xbe98903a	-0.29797536
55	0xbe6e9029	-0.2329718
56	0xbe4a9a27	-0.19785367
57	0x3e5783c3	0.21046357
58	0xbf19e83f	-0.60120004
59	0xbf085918	-0.53260946
60	0xbec18aac	-0.3780111
61	0x3e2b823f	0.16748904
62	0x3e3def98	0.18548429
63	0xbe19e611	-0.1502917
64	0xbf1e4481	-0.6182328
65	0xbf7d98ee	-0.9906148
66	0x3da54181	0.080691345
67	0x3eb54845	0.354067
68	0xbed15c27	-0.4089062
69	0xbeb8f0ec	-0.3612131
70	0xbf9463e8	-1.1592989
71	0xbda2ed36	-0.07955401
72	0xbe2e8ba2	-0.17045453
73	0x3c27c560	0.010239929
74	0xbee3c645	-0.44487205
75	0xbf1476ec	-0.5799396
76	0xbeeae3de	-0.45876974
77	0xbed3bbf5	-0.41354337
78	0xbd895af9	-0.06706805
79	0xbe8b25ec	-0.2717737
80	0xbf305ca0	-0.68891335
81	0xbfa9119e	-1.3208501
82	0xbf46de59	-0.77683026
83	0xbe6fd8fa	-0.23422614
84	0xbe749857	-0.23886238
85	0xbe2963d7	-0.16541992
86	0xbeaddb55	-0.339564
87	0xbea3086f	-0.31842372
88	0x3eccfd56	0.4003703
89	0xbf16529b	-0.58719796
90	0xbed77bdc	-0.42086685
91	0xbf496fcd	-0.7868622
92	0xbf1cfafd	-0.6132048
93	0xbf559a78	-0.83438826
94	0x3de4e78b	0.11176976
95	0x3d39657c	0.0452628
96	0xbf30491c	-0.68861556
97	0x3d989394	0.07450023
98	0xbebda661	-0.37041
99	0xbdc5dc90	-0.096612096
100	0xbecfed7d	-0.40610877
101	0xbf3db989	-0.7411123
102	0x3c73f837	0.014890722
103	0xbf8264a8	-1.0186968
104	0x3e6e7a72	0.23288897
105	0xbdf16a3a	-0.11787839
106	0xbeb4c11f	-0.3530359
107	0xbea30e54	-0.3184687
108	0xbec22755	-0.37920633
109	0xbe17868b	-0.14797418
110	0xbe568649	-0.20949663

JKNet_layer_list.5.running_mean f4 [111]
0	0xbf00ca00	-0.5030823
1	0xc06d2866	-3.7055907
2	0x400d686e	2.209499
3	0xbfbb5620	-1.4635658
4	0x3c916adc	0.01775115
5	0xbffd4c5f	-1.9788932
6	0xbfc07685	-1.5036169
7	0xbf46083d	-0.7735632
8	0xc00796f6	-2.118589
9	0x3f081934	0.53163457
10	0xc01e4b85	-2.4733593
11	0xbf983dcd	-1.189386
12	0xc08517f2	-4.159173
13	0xc084f54e	-4.1549444
14	0x401e8cf6	2.4773536
15	0xbfd284c7	-1.644677
16	0xbfc695e6	-1.5514495
17	0xbfacaddc	-1.3490558
18	0xc10094eb	-8.036357
19	0x3faf1716	1.367892
20	0xbe621e74	-0.2208193
21	0x3f9be177	1.2178181
22	0x3db49dfd	0.088191964
23	0xbe61be84	-0.22045332
24	0x3edbe3db	0.42947277
25	0xbf9ac627	-1.2091721
26	0xc007dc5b	-2.1228244
27	0xc03cba03	-2.9488533
28	0xc0b29a9d	-5.5813737
29	0xc0256dcb	-2.5848262
30	0x3fd8c5c1	1.693535
31	0xc06bd313	-3.684758
32	0xbf8b2ae3	-1.0872463
33	0xbef3f59b	-0.4764832
34	0xc000c6fe	-2.0121455
35	0xc0604675	-3.5043004
36	0x3f1d21e2	0.61379826
37	0xc04abe4d	-3.167865
38	0xc0afe2b4	-5.4964237
39	0xc00eca28	-2.2310886
40	0xbf9d3f6b	-1.2284979
41	0xbe115956	-0.14194235
42	0x403c3260	2.9405746
43	0xbdeb3b01	-0.114858635
44	0x40161772	2.345181
45	0x3f5cf24f	0.86307234
46	0x3fd9ca6a	1.7014897
47	0x3d7dd64c	0.061971948
48	0x40132db2	2.299664
49	0xc09787de	-4.7353354
50	0xc01a6ea8	-2.413004
51	0xc0477936	-3.1167731
52	0xbf93cfad	-1.1547753
53	0xbff46b61	-1.909527
54	0x3e85978b	0.2609218
55	0xc00fa8e0	-2.2446823
56	0xc06459e5	-3.5679867
57	0xbfa25076	-1.2680805
58	0xc092e7fe	-4.5908194
59	0xc03dc269	-2.9649909
60	0xbf06459c	-0.52449965
61	0xc03926be	-2.8929896
62	0xbfbe2df1	-1.485777
63	0xc0779038	-3.8681774
64	0xc01d62e2	-2.4591603
65	0xc098920c	-4.767828
66	0xbfa73ec7	-1.3066033
67	0xbf624f75	-0.8840249
68	0xbf869b59	-1.0516158
69	0xc0550268	-3.3282719
70	0xc08dc66b	-4.430471
71	0xc0960ef3	-4.689325
72	0x3ee79d82	0.45237356
73	0x3f9eebbc	1.241569
74	0xbf816824	-1.0109906
75	0xc06bac3b	-3.682387
76	0xbf076960	-0.52895164
77	0xc0406259	-3.0060027
78	0xc0641cb4	-3.564252
79	0xc034e386	-2.826387
80	0xc0625c6e	-3.5368915
81	0xc0e908ec	-7.282339
82	0xc0822a6f	-4.06768
83	0xc0089ddf	-2.1346357
84	0xbfcf1f52	-1.6181433
85	0x3f663bbc	0.899349
86	0xc0893327	-4.287494
87	0x3ef4d178	0.47816062
88	0x3fd1c194	1.63872
89	0xc0b4d6f0	-5.6512375
90	0xbfbc3592	-1.4703848
91	0x40030fe7	2.0478456
92	0x3f6f3205	0.934357
93	0xc07fa9a2	-3.9947286
94	0x40a911cc	5.2834225
95	0xbf633d1d	-0.88765126
96	0xbf129453	-0.57257575
97	0xc01687c0	-2.3520355
98	0xbf74e832	-0.956668
99	0x3fcbfec0	1.5937119
100	0xbfd144df	-1.6349143
101	0xbff01d3f	-1.8758925
102	0xc0373b2e	-2.862987
103	0xc04ffcea	-3.2498116
104	0xbf33cb0b	-0.70231694
105	0x3d1306ca	0.035895146
106	0xc0aec879	-5.4619718
107	0xbf7fbefc	-0.99900794
108	0xbfa74e39	-1.3070747
109	0xbff483c4	-1.9102712
110	0xbc1b91da	-0.009495223

JKNet_layer_list.5.running_var f4 [111]
0	0x411cbe0b	9.796397
1	0x412d7fe6	10.843725
2	0x4181a7dd	16.206964
3	0x41c21a20	24.262756
4	0x416e92a8	14.910805
5	0x40ce651d	6.449843
6	0x412d86fa	10.845453
7	0x4144d298	12.3014145
8	0x40fcdb5e	7.901778
9	0x417cbe9f	15.796538
10	0x40e217a1	7.0653844
11	0x40f207c8	7.56345
12	0x41371621	11.442903
13	0x419135fb	18.151358
14	0x41679f63	14.476413
15	0x4142f23f	12.184142
16	0x4156a42c	13.415081
17	0x40f37e74	7.609186
18	0x4200015d	32.00133
19	0x418ee0d5	17.859781
20	0x41271e20	10.444855
21	0x41b16cf2	22.178196
22	0x412cab10	10.791763
23	0x41b3b8cf	22.465239
24	0x40a8f234	5.279566
25	0x410ed471	8.926866
26	0x40f2375e	7.5692587
27	0x419e372d	19.776941
28	0x414be2b2	12.742846
29	0x41391260	11.566986
30	0x41d03028	26.023514
31	0x41757280	15.340454
32	0x4119f47b	9.622188
33	0x4110da2f	9.0532675
34	0x411f2f47	9.949042
35	0x41c9ab58	25.208664
36	0x4192ba10	18.34085
37	0x41a63641	20.776491
38	0x41773bb6	15.452078
39	0x418048f6	16.035625
40	0x4169c22b	14.609904
41	0x40f48464	7.641161
42	0x41231ae7	10.194068
43	0x41ca1ca9	25.263994
44	0x40d724e9	6.7232556
45	0x4156a1cf	13.414504
46	0x408ffd6d	4.499686
47	0x4165f9a3	14.373446
48	0x4109c8fe	8.61157
49	0x41ad158e	21.635525
50	0x4135bfa4	11.359287
51	0x41013397	8.075095
52	0x4141e39a	12.118067
53	0x418be7a6	17.48811
54	0x413bd7bf	11.740172
55	0x41399c03	11.600589
56	0x4136fc71	11.436631
57	0x4198a0ce	19.078518
58	0x4105bf11	8.359147
59	0x4133e964	11.24448
60	0x40974c54	4.7280674
61	0x41692687	14.571906
62	0x41b7d7d5	22.980387
63	0x4146a36e	12.4149
64	0x4113362f	9.200728
65	0x412247cf	10.142531
66	0x419de087	19.734632
67	0x41f11065	30.133005
68	0x410fd750	8.990067
69	0x41454446	12.329168
70	0x41be1a87	23.762953
71	0x40f2d106	7.5880156
72	0x412c75a7	10.778724
73	0x4133a263	11.227145
74	0x41327b69	11.155129
75	0x41503563	13.013034
76	0x412090b5	10.035329
77	0x410d6af1	8.838609
78	0x41000069	8.0001
79	0x413787b2	11.470629
80	0x410c07c8	8.7519
81	0x4183a53f	16.455687
82	0x4176522d	15.395062
83	0x4125ef46	10.370916
84	0x40d5874c	6.6727657
85	0x41065247	8.395087
86	0x41006565	8.024755
87	0x4096e8f0	4.7159348
88	0x41627f54	14.156086
89	0x41338658	11.220299
90	0x40b2d03f	5.5879207
91	0x4164a6a4	14.290684
92	0x40cbffac	6.37496
93	0x4157351e	13.450468
94	0x41941e77	18.514875
95	0x41a789d7	20.942305
96	0x40cec3a9	6.4613843
97	0x41c9a372	25.204807
98	0x4139a63a	11.603083
99	0x40ba0e91	5.814278
100	0x4145fa4f	12.3736105
101	0x409490e6	4.642688
102	0x41a1cc00	20.22461
103	0x418e1059	17.757982
104	0x41763e54	15.390217
105	0x410d4ce2	8.83127
106	0x4179e6c9	15.618844
107	0x41412f6c	12.074078
108	0x41588587	13.532599
109	0x41120f92	9.128801
110	0x4102614a	8.148752

JKNet_layer_list.8.weight f4 [111, 111]
0	0xbf30ed3a	-0.6911198
1	0x3ea102da	0.31447488
2	0xbec066f7	-0.37578556
3	0xbed4c935	-0.4155976
4	0xbef0efa7	-0.4705784
5	0xbecf6ead	-0.40514126
6	0xbecf59ed	-0.40498295
7	0xbec6cc78	-0.38827872
8	0xbf243366	-0.6414093
9	0xbd181a91	-0.03713471
10	0xbe6b813d	-0.22998519
11	0xbf135830	-0.5755644
12	0x3f480897	0.7813811
13	0xbecb237d	-0.39675513
14	0x3e4aed8b	0.19817178
15	0x3ecd55ab	0.40104422
16	0xbf2b10c2	-0.66822445
17	0x3dbfd6ed	0.09367166
18	0x3d1b16d2	0.03786356
19	0x3c88da18	0.016705558
20	0xbdaafa4d	-0.08348522
21	0xbf0910df	-0.5354137
22	0xbf217b18	-0.6307845
23	0xbdb9d68d	-0.090741254
24	0xbf061f9e	-0.52391994
25	0x3dddb88a	0.10826214
26	0xbf468eda	-0.77561724
27	0xbf1072df	-0.5642528
28	0xbebba2d2	-0.3664766
29	0xbebbf765	-0.36712185
30	0xbeee1317	-0.4649894
31	0xbe78b9df	-0.24289654
32	0x3e69c989	0.22830786
33	0xbef65571	-0.48112062
34	0x3e1c4fc8	0.15264809
35	0xbf4b87a6	-0.7950386
36	0xbc8fba5e	-0.017544921
37	0xbe8d2469	-0.2756684
38	0xbeebf27c	-0.46083438
39	0x3e22bc40	0.15892124
40	0x3ed2d864	0.41180718
41	0xbef861bb	-0.48512062
42	0xbf131471	-0.57453066
43	0xbee82c88	-0.45346475
44	0xbf1c3f26	-0.61033857
45	0x3e911041	0.28332713
46	0xbea0f1f9	-0.3143461
47	0x3e34cdd9	0.1765665
48	0xbe429c5e	-0.19004962
49	0xbe34243f	-0.17591952
50	0x3e2c521f	0.16828202
51	0xbf65ded4	-0.89793134
52	0xbe9cb9e7	-0.30610582
53	0xbe8285f4	-0.25492823
54	0xbf27b807	-0.6551518
55	0xbda041e4	-0.07825068
56	0xbe6bb46b	-0.23018043
57	0xbef20cef	-0.47275493
58	0x3e31360d	0.17305775
59	0xbf3aa18b	-0.72902745
60	0xbede47fe	-0.434143
61	0xbe920b44	-0.2852422
62	0x3e68f2cb	0.22748868
63	0x3c56e2de	0.013115613
64	0xbe79ba8a	-0.24387565
65	0xbe7e56b5	-0.24837764
66	0xbf6551df	-0.8957805
67	0xbe94f9b2	-0.29096752
68	0xbe077b07	-0.13230525
69	0x3db8033b	0.08984991
70	0xbe3b2370	-0.18275237
71	0xbe59be5a	-0.2126402
72	0xbeb0c83b	-0.34527764
73	0xbf003bba	-0.50091136
74	0x3f02db8d	0.5111626
75	0xbecffcfd	-0.40622702
76	0xbe9bf948	-0.30463624
77	0xbf039343	-0.5139658
78	0x3e9d676e	0.30742973
79	0x3e743f94	0.23852378
80	0x3e111b41	0.14170553
81	0xbcd9de2e	-0.026595201
82	0xbf29b647	-0.6629376
83	0xbf2fb51f	-0.68635744
84	0xbf17353b	-0.590656
85	0x3e4e5e73	0.20153217
86	0x3e366385	0.17811401
87	0xbe12fc8a	-0.14354149
88	0xbebc925d	-0.36830416
89	0x3e36f3eb	0.17866485
90	0xbed55861	-0.4166899
91	0xbf4dc1cf	-0.80373853
92	0xbeca6a5e	-0.39534277
93	0xbf189fe0	-0.5961895
94	0xbe88a7aa	-0.26690418
95	0xbf8553e4	-1.0416226
96	0xbf3f2312	-0.7466289
97	0xbf2c89a0	-0.673975
98	0xbea826e7	-0.3284218
99	0xbe0a1412	-0.13484219
100	0xbed96930	-0.42463064
101	0xbd362d7b	-0.044476967
102	0x3de91ec2	0.1138282
103	0xbece0442	-0.40237623
104	0xbe779e21	-0.24181415
105	0x3d5fcb41	0.054637197
106	0x3cc572b3	0.024102544
107	0x3e9b0152	0.30274445
108	0xbe93e4fe	-0.28885645
109	0xbe9dac36	-0.3079545
110	0x3ea1b8c1	0.3158627
111	0xbe936706	-0.28789538
112	0x3e58cdea	0.211723
113	0x3ef28355	0.47365823
114	0x3eaa7809	0.33294705
115	0xbe6c0a7d	-0.23050876
116	0xbe8cf5fb	-0.27531418
117	0xbe8af59e	-0.27140516
118	0xbd4bcc3d	-0.049755324
119	0xbe9015cc	-0.2814163
120	0x3e857a3c	0.2606982
121	0xbea8be32	-0.32957608
122	0xbecaabc0	-0.3958416
123	0x3dd0d955	0.10197703
124	0xbcdf2ddc	-0.027243547
125	0x3e8007f4	0.25006068
126	0x3e796437	0.24354635
127	0xbe8f325d	-0.27968112
128	0x3dd483d7	0.10376709
129	0x3f18f6a1	0.59751326
130	0x3ebf1cfd	0.37326804
131	0x3ec970ee	0.3934397
132	0x3e5ad280	0.21369362
133	0xbe0a184b	-0.1348583
134	0x3eec6c79	0.46176508
135	0xbe63e3a6	-0.2225481
136	0x3f0104d8	0.50398016
137	0xbe2b9a10	-0.16757989
138	0x3eb32c58	0.3499477
139	0xbe25e462	-0.16200402
140	0xbe9279d0	-0.2860856
141	0x3ebaf15d	0.3651227
142	0xbe52f07d	-0.20599551
143	0x3e554201	0.2082596
144	0xbf0bae81	-0.54563147
145	0x3e77b905	0.24191673
146	0xbf0f4b42	-0.5597421
147	0x3e8d0b34	0.2754761
148	0x3ecfe326	0.40602988
149	0xbed51a60	-0.41621685
150	0x3f12ea4f	0.57388777
151	0x3ebb3c6f	0.36569545
152	0xbe43beee	-0.19115803
153	0x3d811e96	0.06304662
154	0x3eec8219	0.46193007
155	0xbe995bfd	-0.29952994
156	0x3dd1770f	0.10227787
157	0xbe025e4f	-0.12731288
158	0x3e54dc85	0.20787247
159	0xbec4d284	-0.3844186
160	0x3e3713cb	0.17878644
161	0x3e72e894	0.23721534
162	0xbece99f8	-0.40351844
163	0x3e987eaf	0.29784152
164	0xbea9b68c	-0.33147085
165	0xbe5b5a32	-0.21421126
166	0xbec59c49	-0.385958
167	0xbe96249a	-0.293248
168	0x3ebf8c22	0.374116
169	0xbe15673b	-0.1459016
170	0xbe2193d5	-0.1577905
171	0xbe7397b9	-0.23788346
172	0xbc55726e	-0.01302777
173	0x3ea4450b	0.32083926
174	0xbeb492c8	-0.35268235
175	0x3ed947d0	0.424376
176	0xbea165b4	-0.31522906
177	0xbe547618	-0.20748174
178	0x3edf4138	0.43604445
179	0xbead095d	-0.33796206
180	0x3e85b97a	0.2611807
181	0xbf00a5af	-0.50252813
182	0xbc000bf4	-0.00781535
183	0xbeb2b08c	-0.3490032
184	0xbea4d93e	-0.32196993
185	0x3e6ffa0d	0.2343523
186	0x3ec206ec	0.37895906
187	0xbe91fc25	-0.28512684
188	0xbe8d03ed	-0.27542058
189	0xbe3cd837	-0.18441854
190	0x3ec0114f	0.37513205
191	0x3ea22d33	0.3167511
192	0xbd98cf85	-0.07461456
193	0xbedad140	-0.4273777
194	0xbe1f4088	-0.1555196
195	0xbe5f30a7	-0.21795903
196	0xbed48f5e	-0.4151563
197	0xbe2a7686	-0.16646776
198	0xbeb38913	-0.35065517
199	0xbdeb15a7	-0.11478739
200	0xbe00ebc6	-0.1258994
201	0xbe9af939	-0.30268267
202	0xbd69b9d0	-0.05706197
203	0xbe04e5f3	-0.12978344
204	0xbea2c5ef	-0.31791636
205	0x3ee98b87	0.45614263
206	0x3e12775e	0.14303347
207	0xbe2f324f	-0.17109035
208	0x3ece8775	0.4033772
209	0xbec374ee	-0.38175148
210	0xbe8cfa90	-0.27534914
211	0x3d8d5461	0.069008596
212	0x3f073a1d	0.5282305
213	0x3ea02e87	0.31285498
214	0x3e305142	0.17218497
215	0x3ca9eb6f	0.020742146
216	0x3d1ea717	0.038733568
217	0xbe203764	-0.1564613
218	0x3e9229b7	0.2854745
219	0x3e8fe742	0.28106123
220	0xbe64fab8	-0.22361267
221	0x3e7b84c6	0.24562368
222	0x3dd94458	0.10608739
223	0xbe593834	-0.21212846
224	0xbed19213	-0.40931758
225	0xbed6adcc	-0.41929471
226	0x3ea62c19	0.3245552
227	0x3edf2bbb	0.4358805
228	0x3e5695d1	0.20955588
229	0xbf13a9b0	-0.576808
230	0x3e2a4c48	0.16630661
231	0xbed78d70	-0.42100096
232	0x3e5a277a	0.21304122
233	0x3e7f212e	0.24915001
234	0xbe1753ce	-0.14778063
235	0xbea0ae0e	-0.31382793
236	0xbe8a1cc9	-0.26975086
237	0xbe42279f	-0.18960427
238	0x3e51b771	0.20480134
239	0xbe800f7b	-0.2501181
240	0xbec90a48	-0.39265656
241	0xbee74c34	-0.45175326
242	0xbcee0b4f	-0.029058127
243	0xbe735540	-0.23762989
244	0x3e8beee7	0.27330706
245	0xbed32fc6	-0.41247386
246	0x3e389813	0.18026762
247	0x3e975258	0.2955501
248	0x3e8316fb	0.2560347
249	0xbeb3650c	-0.3503803
250	0x3e830f03	0.2559739
251	0x3ead07d8	0.33795047
252	0xbea759e4	-0.3268577
253	0x3e135db3	0.14391212
254	0xbea6a7eb	-0.32549986
255	0x3e306fa2	0.17230085
