training/dirckpt/MAP_best_loss_1.ckpt (torch, 213387 bytes, 25 tensors)

JKNet_layer_list.0.weight f4 [111, 18]
00000000: 90e1 80bf 8253 8bbf 6f29 cdbf a95a 88bd
00000010: e3a6 9fbe d05e d4be 8281 4e3f 1fb9 d8bf
00000020: 9651 63bf aa6d bbbf 58b1 263f 992e 133c
00000030: ac13 5dbf b6eb f33f 0666 dc3f 8b82 e83f
00000040: a11e 353e ccce 1bbb a5d5 36be 3e5b a1bd
00000050: 39ac b23d 8614 ebbd a5c5 ae3e 95e9 fb3e
00000060: d61a 4dbf 8851 f9bf 7530 c33e 509e b8bf
00000070: 6266 973f a8af 6e3e 4257 e6be 8905 473f
00000080: 478a 1fbf 1def 9ebe 721d 7cbf b96b 92bf
00000090: 1632 61bf 5535 70be c637 2b3f cd43 2ebf
000000a0: 5705 28be 4c60 503e a7a7 063f 7d6c 393f
000000b0: 3da2 81bf 8aaf 2e3f 033f c0be 0670 a63e
000000c0: 2ec8 973f 16ab 52bd a55b 18be 88c5 36be
000000d0: f4ee ccbf ba8d 23bf e65f d9bd 6b31 0abf
000000e0: cc50 873e 348f f4be 7945 b93e 64f0 71bf
000000f0: ebc7 443f ff79 64bc 87ed 1b3f 20c2 303e
00000100: 91e0 5c3c 70da f73e 45a6 803e 77a6 bf3f
00000110: 7ac8 edbe 549c 5ebf a65e 4ebf 8d9c dcbe
00000120: b234 a8bc 6e32 a53e b1ce 52be a31c b0be
00000130: 1819 eebe 3867 3e3e 8fb6 fcbd 71e2 56be
00000140: 24a9 ecbe 6ff6 043e bf80 86bd 59f4 05bf
00000150: 3a27 343e 2344 ddbe 11aa 0e3f 38e6 13bf
00000160: 67a5 5fbd e83f 78be 67f2 01bf ebff 683f
00000170: aa55 9a3e 898a 853f e6e9 d2bd aeac 873e
00000180: eab2 533e 9fcb 88be 0946 bbbe cdfb c7bf
00000190: 8418 acbf 4d99 08be feb9 98be 2150 0540
000001a0: c0d1 4a3f fbfd acbe 39cf 29bf 6f9a 73be
000001b0: 0b03 0bbe eb75 80bf 499c 513f 92ef 733e
000001c0: 5dad 42bf fa93 23be c4fd b2be 54a7 f5bf
000001d0: e845 c2bd 890a 29c0 9980 c83f 0e36 ebbd
000001e0: 49de f0bd 20e0 813f 3ecd 98bf c24d c6bf
000001f0: 3e31 a3bf c59f 88bf 9379 29bf ce32 71bf
00000200: 1ecf 893d 719a 98be ba36 ec3d 5fd3 7fbd
00000210: ff54 10be dccc 89be 7b06 bdbe 7b3d e33c
00000220: d4aa f5be ec74 0fbf 9c2e c4be ebb9 893e
00000230: c828 863d 62e7 7dbe 1cdf 0d3f 4393 ae3d
00000240: 5c65 0a3f 887c 553e 59cf 543e 1d81 453f
00000250: d709 933f d19a 17bf c742 90bf f0a3 95bf
00000260: f39f 03bf 0226 0ec0 f50f 5b3e eb8e 2b3e
00000270: d4fd 8abe a501 0f3f 6ee4 48be b19c 1dbf
00000280: 5a49 593e 7fc1 52be a871 53bf 1816 07bf
00000290: aa10 7b3f 9ace 54be c35d 0b3d 1021 2240
000002a0: 2ae3 ccbd e750 7ebd 6023 e1bd 1519 92bd
000002b0: cb07 c33d cad8 81be 36a0 2f3e e542 9abe
000002c0: bd23 6dbe 4145 a93d 33bf b33c b9f2 44bf
000002d0: 7541 fb3d b59e 33bf e9ea 823f 771b f93d
000002e0: 0f74 203f a0fa 543f b283 bc3e e1ff 503f
000002f0: afc8 bf3e 6f48 863e 8f73 9abe 73db e7bd
00000300: 864a 603e 627b 4b3f cac6 fcbe d29a 51bf
00000310: 3ef8 fa3e f80a 1ebe c829 20be 97a6 7fbf
00000320: 8b97 113f 09d6 243f 3ff6 813e 4f7f 8e3e
00000330: 22e4 c03e fa3f edbf 5479 7cbf 53ba 6ac0
00000340: 791d 083f 901e 023f 770d e83e 73ec 5c3e
00000350: e415 9cbf 2c90 90bc 7a5c 90bf b02e 1c3f
00000360: 834c d6be b464 7f3f ee25 063f 1d8d 44bf
00000370: ca39 dfbe e188 a7bf b0b3 febd bf84 763f
00000380: 3b61 5fbe 5af0 813f 575f ef3e 4b8e fe3d
00000390: 2ada a5bc 11a4 51be 4b43 8c3e ce60 f53e
000003a0: 0509 ec3c 7f5d 9abe 50fb 08ba d7c0 083e
000003b0: d3e4 153f 7621 063f 79b9 f83e e244 f3bf
000003c0: d3f8 babe 426b 9abf b716 573f 55f1 6fbf
000003d0: 002c 15bf 74d3 25bf 91f0 63be 9acc 07be
000003e0: cb3d 953c 2e23 df3e efe3 2bbf 0863 29bb
000003f0: 602e 35bf 07dd 883e 45f3 8d3d 51ac 7fbf
-1.0068836 -1.088486 -1.602827 -0.06657917 -0.31182012 -0.41478586 0.80666363 -1.6931494
-0.88796365 -1.4642842 0.65114355 0.008983278 -0.8635814 1.9056308 1.7218635 1.8164839
0.17687465 -0.0023774384 -0.17854936 -0.07878731 0.08724255 -0.11478524 0.34135166 0.49201646
-0.80119073 -1.9478006 0.38122907 -1.4423313 1.182812 0.23309195 -0.44988447 0.7774282
-0.6232037 -0.31041804 -0.9848243 -1.1439124 -0.8796705 -0.23457845 0.6688198 -0.68072206
-0.16408287 0.20349234 0.5259957 0.72431165 -1.0127636 0.682366 -0.37548074 0.32507342
1.1857965 -0.05143269 -0.1487871 -0.1784879 -1.6010423 -0.6388813 -0.10613994 -0.53981656
0.2642883 -0.47765505 0.36185816 -0.9450743 0.7686755 -0.013945102 0.6090931 0.17261553
0.013481275 0.48408842 0.25126854 1.4972676 -0.46442014 -0.8695729 -0.8061317 -0.4308819
-0.02053294 0.32265037 -0.20586659 -0.34396848 -0.4650352 0.18594062 -0.12339508 -0.20984818
-0.46222794 0.12984632 -0.06567525 -0.5232597 0.17593089 -0.43216047 0.5572825 -0.5777316
-0.0546011 -0.24243128 -0.507605 0.910155 0.30143481 1.0432903 -0.10298519 0.26498932
0.20673719 -0.2671785 -0.3657687 -1.5623719 -1.3444982 -0.1333973 -0.298294 2.0830157
0.79226303 -0.33787522 -0.6633182 -0.2378938 -0.1357538 -1.0035986 0.818791 0.23821858
-0.7604578 -0.15974417 -0.34959233 -1.919169 -0.0948599 -2.641268 1.5664245 -0.114849195
-0.117611475 1.0146523 -1.1937635 -1.549248 -1.2749403 -1.0673758 -0.6620113 -0.94218147
0.067289576 -0.2980533 0.11533876 -0.06245744 -0.14094923 -0.26914108 -0.36919007 0.027739277
-0.47981894 -0.56037784 -0.3831681 0.26899657 0.06550747 -0.24795297 0.5541856 0.08524182
0.5406091 0.20848286 0.20782222 0.77150136 1.1487378 -0.59220606 -1.1270379 -1.1690655
-0.5141594 -2.2210698 0.21392806 0.16753738 -0.2714678 0.55861884 -0.19618389 -0.6156722
0.21219388 -0.20581625 -0.825953 -0.5276809 0.980723 -0.20781937 0.034024965 2.533268
-0.100042656 -0.062088873 -0.10993075 -0.0713369 0.09522971 -0.2536071 0.1715096 -0.3012916
-0.23158164 0.08265162 0.021941757 -0.76932865 0.12268344 -0.7016404 1.0227939 0.12163442
0.6267709 0.83194923 0.36819226 0.8164044 0.37457797 0.26227137 -0.3016629 -0.113211535
0.21903428 0.7948514 -0.49370414 -0.8187686 0.4901752 -0.15433872 -0.15640938 -0.9986357
0.5687186 0.6438909 0.25383183 0.27831504 0.37674052 -1.8535149 -0.9862263 -3.6676223
0.5316997 0.50827885 0.45322773 0.21574573 -1.219418 -0.017646872 -1.1278222 0.6100874
-0.4185525 0.99763036 0.52401626 -0.7677782 -0.43598777 -1.3088647 -0.124366164 0.96296304
-0.21814434 1.0151474 0.46752426 0.12429484 -0.02024563 -0.20472743 0.2739509 0.4792542
0.028812895 -0.30149457 -0.0005225437 0.13354813 0.58552283 0.5239481 0.48579004 -1.9005396
-0.36517963 -1.2063982 0.84019035 -0.9372762 -0.58270264 -0.64775777 -0.22259738 -0.13261643
0.018217942 0.43581527 -0.67144674 -0.002584638 -0.7077389 0.2673113 0.069311656 -0.9987231

JKNet_layer_list.0.bias f4 [111]
00000000: d8e5 5fbf 536e e1bc 7ce2 cb3e 62f4 8cbe
00000010: 34bd 473e f375 0f3f b273 aa3e 618c f4be
00000020: 04aa a33e a640 943e 5132 9ebc 2adb 2bbe
00000030: cc58 c13e 877d 7dbe 2618 ce3e 93fa a3be
00000040: ac06 a0be b5ed efbe 669c 5d3e ce14 7bbe
00000050: 7c0a 973e 659a b13c 27c5 f13e 7e44 35bf
00000060: 7351 babe d036 143f 2696 2fbc 5514 71be
00000070: 104f 4a3e 8ccb 87be d979 09bf 3cb8 24bf
00000080: e498 023f 28b1 cc3e 539d 8a3e eb76 97be
00000090: 595c 74be 2b38 cbbe 1ad8 45bf 0118 6dbe
000000a0: 16e0 1cbe 4060 93be 89d5 093f 47ee 23bf
000000b0: 9c96 ad3d d15f f1be 12f3 acbe 2861 12bf
000000c0: 8be3 52be f809 563d f42c 913e cc26 2dbe
000000d0: fbde 72be a6be e43e 2390 57be 59ed af3e
000000e0: f931 c8be cadc 993e e703 7b3e f53a 4abb
000000f0: d656 94be 3fd5 6abf 9144 033f d804 8c3e
00000100: 5f8a 4abe d716 123e f4dc b5bd 4682 933d
00000110: ea3d d43e bbcb adbc 2346 edbd 4521 81be
00000120: d0c2 59bc 52bf 503e 3b1e 8dbe 60f1 9dbe
00000130: 3ed8 b0bd 460f 1a3f cd9d 3ebd e411 1dbe
00000140: 3d2d 823f 3454 8cbe c014 04bf 267a 163f
00000150: 2a27 26bf 0e4d 47be 5c16 313d c011 553e
00000160: 1cc7 cfbd 8500 1dbf 3ec9 9f3f c231 7f3e
00000170: 842a eb3e 6c1b 2b3e 62dc 17bb 831b adbd
00000180: c746 12be 7cb8 27be 67e8 ca3e ac2f f6be
00000190: 3599 09be 0038 01be 48fc dc3f 9bb7 d4bc
000001a0: ad03 8cbe da91 983e ed7d c4be 9d3d 053f
000001b0: 2fbf 1f3e 739b 46bc 8bae 20bf
-0.8746009 -0.027518427 0.3982123 -0.275302 0.19505769 0.5603935 0.33291394 -0.4776335
0.3196565 0.28955573 -0.019311102 -0.16782823 0.3776306 -0.24754916 0.402528 -0.3202711
-0.3125509 -0.46861044 0.21641693 -0.24519655 0.29500186 0.021680066 0.47220728 -0.70807636
-0.36390266 0.5789614 -0.0107169505 -0.23542912 0.19756722 -0.2652248 -0.5370155 -0.6434362
0.5101454 0.3997891 0.27073154 -0.29582915 -0.23863353 -0.3969129 -0.7728287 -0.23153688
-0.15319857 -0.2878437 0.53841454 -0.6403546 0.08475992 -0.47143415 -0.33779198 -0.571795
-0.20594613 0.0522556 0.2835461 -0.16909331 -0.23717873 0.44676703 -0.21051078 0.3436077
-0.39100626 0.3005126 0.24513207 -0.0030857895 -0.289725 -0.9173164 0.512765 0.27347445
-0.19779347 0.14266525 -0.08880034 0.07202582 0.41453487 -0.02121531 -0.11585643 -0.25220695
-0.013291076 0.20385483 -0.27562127 -0.30848217 -0.08634995 0.60179555 -0.04653721 -0.15338856
1.0170056 -0.27407992 -0.5159416 0.58780134 -0.6490351 -0.19462988 0.043234214 0.20807552
-0.10145399 -0.6132892 1.2483289 0.24921325 0.45930874 0.1670968 -0.002317213 -0.08452513
-0.14284812 -0.16378969 0.39630434 -0.48083246 -0.1343735 -0.12619019 1.726449 -0.025966456
-0.27346554 0.29798776 -0.38377324 0.5204714 0.15600275 -0.012122023 -0.6276633

JKNet_layer_list.1.weight f4 [111]
00000000: ab35 e23f 3672 9c3f 78ad 823f 3cd0 493f
00000010: 7e46 303d 497f e93f 617b d93f c346 e93e
00000020: 7d01 e03f e9d6 553f 3050 393f 3bfa db3f
00000030: 2ab7 7a3f 09cb a93f 0281 613f 9c1f f03f
00000040: 5cfd d53f 5616 953f 5493 de3f 115c cb3f
00000050: 7848 a53f 8aea 9a3f a353 ad3f 9f46 943f
00000060: 0011 ca3f b4ed 993f 4a17 9d3f bff0 8c3f
00000070: 85f8 e03f b008 dc3f 7ce3 2c3f de78 8a3f
00000080: dfd7 2340 a405 c03f 4d78 aa3f 860d 573f
00000090: 0645 bc3f 3208 c23f 6180 763f e6d1 873f
000000a0: 4f27 e13f ec5c d33f a29e de3f 9135 1140
000000b0: 4349 0340 3e0e 3c3f b0b9 d73f ec1f 8e3f
000000c0: 24de 923f 3135 ef3f ae99 733f c7fb 413d
000000d0: 1361 ab3f a1a1 0540 3de1 3a3f 6cf5 7f3f
000000e0: dd96 183f a5af de3c ac19 153e 0f05 3440
000000f0: 1ba8 c63f 4a51 2840 090e 1d40 7376 a63f
00000100: 3590 b73f c0a3 b03f acf0 343f ac75 943f
00000110: 04db 813f 7304 663f 8570 983f 0cf1 d43f
00000120: fb70 8a3f 13f6 7e3f cbba 343e ca98 c93f
00000130: e2a8 fe3f 97e8 e73f 7b45 e33f 3e97 893f
00000140: 0b61 ab3f feba a83f f35c 9b3d 6959 c43f
00000150: 8d2e 4c3f 16dc 113f 326e 993f 1347 bc3f
00000160: 93aa e13f 1247 ae3f e5c3 df3f 570f af3e
00000170: c5df 143f d1e6 fd3f 7ade c53f e336 e83f
00000180: f1cd c43f 67a7 693f 8636 683f 77a7 e93f
00000190: ee6f 9a3f e040 ef3f 7253 b53f a087 2640
000001a0: e059 8e3f b382 c53f f6b4 a93f 90c5 c33f
000001b0: 59e1 0140 9772 b43f f87d 8a3f
1.7672628 1.2222354 1.0209188 0.78833365 0.043035977 1.8241969 1.6990777 0.455618
1.7500454 0.8353105 0.7238798 1.7185739 0.97935736 1.3265086 0.88087475 1.8759646
1.6717944 1.1647441 1.7388711 1.5887471 1.2912741 1.2102826 1.3541149 1.1584052
1.5786438 1.2025666 1.2272732 1.101097 1.7575842 1.7190151 0.67534614 1.0818136
2.5600507 1.5001721 1.3317963 0.8400501 1.4708564 1.5158751 0.9628964 1.0610931
1.7590121 1.6512733 1.7392161 2.2688944 2.0513465 0.7345923 1.6853542 1.1103492
1.1474042 1.8688108 0.9515637 0.047359254 1.3389 2.08799 0.72999936 0.9998386
0.596052 0.027183363 0.14560574 2.8128088 1.5520052 2.6299615 2.4539816 1.3004898
1.4340883 1.3799973 0.70679736 1.1598411 1.0144963 0.8985054 1.1909338 1.6636062
1.0815729 0.9959423 0.17649381 1.5749753 1.9895289 1.8117856 1.7755579 1.074928
1.338899 1.3182065 0.07586088 1.5339786 0.7975853 0.5697645 1.1986754 1.470919
1.763018 1.3615439 1.7481657 0.3419139 0.58153945 1.9836065 1.545852 1.814175
1.5375348 0.9127106 0.90708196 1.8254231 1.2065408 1.8691673 1.416609 2.602028
1.1121178 1.5430511 1.325835 1.5294666 2.0293791 1.409747 1.0819693

JKNet_layer_list.1.bias f4 [111]
00000000: b247 a9bf b76b b2bf 80a4 8bbf b580 6cbf
00000010: 8c14 04bf 10c1 51bf 055c 1dc0 a0e4 63bf
00000020: 149a 18bf 8091 8bbf f524 47bf e1cb a9bf
00000030: 622c 9cbf 6e49 95bf d185 c4be 446a 69bf
00000040: 1ff9 05bf cef0 c1bf 6ecf 14bf 5530 87bf
00000050: 0da7 a4bf 4a99 d7bf 348f e4be 63cd d0be
00000060: 5c52 44bf 0ac3 35bf a8d2 79bf 8a0d d3bf
00000070: 8a71 ccbe 2a0d 64bf fa79 43be 48cc 9c3d
00000080: e75e 35c0 f189 9ebe 320e a9bf 23bc 55bf
00000090: f959 97bf 6d4f cfbf 3c70 a0be e7e4 e4be
000000a0: 874b 13bf 1e6b 51bf bb75 28bf 081d c9bf
000000b0: d6c7 35bf 5b19 0ebf 2730 61bf bacd 11be
000000c0: 65a9 ebbf 5839 b1bf 49ab 55be 6d25 babe
000000d0: 2ba3 fabe c394 bfbf 4fca 6cbf 84e8 e1bf
000000e0: cd74 85bf a7e3 9abe bc86 14bf 9497 06c0
000000f0: 0fae afbf d2ce dfbf 53c9 3ac0 6ee0 13bf
00000100: 0321 3ebf df93 b0be 759b 4f3e 5cb4 d3bf
00000110: fc42 84bf a32b 7fbf 7a9c bcbf 498a 1bbe
00000120: 8063 30bf ab67 67be c45c fcbd df29 d5be
00000130: d51c b1bf 884d 4fbf 8375 d5be 928a 53bf
00000140: c8e7 c6bf 7973 73bf bf49 d0be 1bce a3bf
00000150: 2a41 eebd 192d 2bbe 5416 d8be 2839 1fbf
00000160: 3b90 ccbf 3da8 eebe e506 ccbf a614 17bf
00000170: ba8e c3be 0c06 98bf d1d7 7abf db5e b2bf
00000180: 2b3e 47bf dfef f1be d851 96be c4ac 85bf
00000190: 69f2 8cbf cda5 f8be 7094 63c0 3742 b6bf
000001a0: 4864 93bf acc9 cbbf 3dcd 9cbd 2a10 69bf
000001b0: 26d2 3ebf c0c8 20bf e347 bfbf
-1.3225005 -1.3939122 -1.0909576 -0.9238389 -0.5159385 -0.81935215 -2.4587414 -0.8902073
-0.59610105 -1.0903778 -0.77790767 -1.3265344 -1.2201045 -1.1663034 -0.38383344 -0.91177773
-0.52333254 -1.5151613 -0.5812901 -1.0561625 -1.286348 -1.6843655 -0.44640505 -0.40781698
-0.7668817 -0.7100073 -0.9758706 -1.6488507 -0.39930373 -0.89082587 -0.19089499 0.07656151
-2.8339174 -0.30964616 -1.3207457 -0.834902 -1.1824332 -1.6196114 -0.31335628 -0.4470589
-0.5753712 -0.8180407 -0.6580464 -1.5711985 -0.7100805 -0.5550744 -0.879641 -0.14238635
-1.841107 -1.3845625 -0.20866121 -0.3635668 -0.48952612 -1.4967273 -0.924962 -1.7649083
-1.042627 -0.3025181 -0.5801809 -2.1030016 -1.3724993 -1.7484992 -2.9185379 -0.5776433
-0.7426912 -0.34487817 0.20274146 -1.6539416 -1.0332942 -0.9967596 -1.4735253 -0.1518947
-0.68901825 -0.2259814 -0.12322381 -0.41633508 -1.3836924 -0.8097768 -0.41691217 -0.82633317
-1.5539484 -0.9509807 -0.40681264 -1.2797273 -0.11633523 -0.16716422 -0.42204535 -0.6219659
-1.5981516 -0.4661273 -1.5939604 -0.5901588 -0.3819483 -1.1876845 -0.9798556 -1.3935198
-0.77829236 -0.4725332 -0.29359317 -1.0443349 -1.1011478 -0.48563996 -3.555935 -1.4238957
-1.1514978 -1.592092 -0.076563336 -0.9104029 -0.7453941 -0.6280632 -1.4943813

JKNet_layer_list.1.running_mean f4 [111]
00000000: 001e a7bf 5015 de3d 7a03 1a3f 368b 07bf
00000010: 2ff5 bebe 0a0a 463f 38da a1bf 23de 8bbf
00000020: 1a2b 743e 4e4e 1540 6338 b73f ad3f a0be
00000030: cbc9 1bbf 1bc2 01c0 1037 16bf 5f14 fa3f
00000040: b449 20c0 4140 ffbd c250 f1bd 66d2 b0be
00000050: 26e6 013e dc33 ea3e ac6e 35be 1714 8ebf
00000060: ae39 36bf 7e94 653f d0db e73e 8c5b fb3f
00000070: 4ed4 583f 613f e8be 41d1 78be 7bd9 84bf
00000080: 4c66 363f 565f 373e 5ea8 a73f 9993 02bf
00000090: ca43 dabf 28d9 8e3e fda6 b6be c6b9 0ac0
000000a0: 804e 213f 8e24 9a3f 37a2 ef3e 3479 1a3f
000000b0: b2c9 edbf 14dd 1cbf 576c 15c0 db7c 56c0
000000c0: 1e96 c93e 4a9b 0b3c fb37 7e3f 2c57 563d
000000d0: 2a32 cbbf 4405 bebe e46c 24bf 7a47 553f
000000e0: 0421 21bf 4dc2 6fbe 9a96 2a3f 16fa efbf
000000f0: 25e0 1fbe e2a0 b1bf 7071 27bb 9dc8 5bc0
00000100: 6894 54bf 3215 8dbd 4efc cdbe 9eda 783f
00000110: d8c6 07bf e055 943f 9992 a73f e16e bebe
00000120: 95ba bc3d bd5e fabe 6020 85bc 4e68 e03e
00000130: dc66 f6be dd93 49bc dfb5 0dbf 222a 163e
00000140: 0157 62bf cd98 e33f 738c a83e d90b 943e
00000150: 8664 0cbe 58ff 74be a4d3 933f 8263 4c3f
00000160: eeaa 193f a6c8 9cbf e592 3d40 7c16 cebe
00000170: 260d c13e 88bc e3bf 1bf1 dc3e 4885 a53f
00000180: 31be 72bf da50 b2bf f1c1 e33d cb44 92bf
00000190: 153f 1240 3c2e eebe d018 8740 80d5 1a3f
000001a0: 20c8 2abe 80ea e93f 6fbc 20bd 35fd 9bbe
000001b0: 8a7c cdbf dadc 1d3f dd20 8c3e
-1.305603 0.10843909 0.60161555 -0.52946794 -0.37296435 0.7735907 -1.264472 -1.0927166
0.23844567 2.3329043 1.4314083 -0.3129858 -0.60854787 -2.0274723 -0.5867777 1.9537467
-2.5044985 -0.12463427 -0.117829815 -0.3453552 0.12685451 0.4574269 -0.17717999 -1.1099881
-0.7118176 0.89679706 0.4528489 1.9637313 0.8469895 -0.45360854 -0.24298574 -1.037887
0.7124984 0.17907462 1.3098257 -0.51006466 -1.7051938 0.27900052 -0.35674277 -2.1675887
0.63010406 1.2042406 0.46803448 0.6034119 -1.8577178 -0.6127484 -2.3347375 -3.3513706
0.39372343 0.0085209105 0.9930417 0.052329227 -1.5874684 -0.37113392 -0.64228654 0.8331219
-0.62941 -0.23413964 0.6663605 -1.8748195 -0.15612848 -1.3877223 -0.0025549792 -3.4341195
-0.8303895 -0.06888808 -0.40231556 0.97208583 -0.53037786 1.1588707 1.3091613 -0.3719397
0.09215275 -0.48900405 -0.01625079 0.43829578 -0.4812535 -0.01230332 -0.5535564 0.1466451
-0.8841401 1.7781006 0.32919654 0.2891529 -0.13710222 -0.23925531 1.1548963 0.79839337
0.60026443 -1.2248733 2.9620907 -0.4025153 0.37705344 -1.779191 0.431527 1.2931299
-0.9482146 -1.3930924 0.11120976 -1.1427244 2.2851002 -0.4651965 4.221779 0.60482025
-0.16677904 1.8274689 -0.039242204 -0.3046662 -1.6053631 0.6166512 0.27368823

JKNet_layer_list.1.running_var f4 [111]
00000000: 955e 233e e883 d83d ee1a 283e 024c 0f3e
00000010: 05e3 143e 32b9 2f3e 9457 343e 8f67 0c3e
00000020: 199f 373e e7de 813d 5943 5c3d be4e 0f3e
00000030: 005d 093e 3fb9 443e 05a6 f33d abe9 c13e
00000040: fadd 453e 88a9 413d 468b 183e c25d 493e
00000050: d619 003e d2b3 cd3d 43e9 603e 7f5d a93d
00000060: b872 fa3d b3a8 c63d fecb d73d f5e6 173e
00000070: e5c7 a63e 0155 f53d 92d2 693d 4637 443e
00000080: 3f62 383e 19e3 b73e 078d 233e 1a3d b53d
00000090: b44a eb3d 0812 8a3d 0084 153e e228 a43e
000000a0: 10af 943e 63bd 8b3d 0fa2 973d 6a9b 113e
000000b0: c9cd e83d d08e 5b3d c0d9 223e 56a1 da3d
000000c0: 8aeb 5d3e 9eb4 1b3e 8bdf 103e ade2 413d
000000d0: 4747 223f 81cb bf3e 713a 393e e27a aa3d
000000e0: 4951 d33d 3c49 443d ef83 e03d 753d 903e
000000f0: 4781 813d 75c9 4d3e d886 eb3d e2d7 803e
00000100: 1909 a73d 811e ee3d b61a 133e ef50 e03d
00000110: 4335 e03d 7416 ee3d c312 4c3d 95a7 1f3e
00000120: b612 843d 1de0 9c3e da7e 203e 7d1a 6f3e
00000130: 89f8 853e 1cc8 1a3e 0515 283e 66f2 9c3d
00000140: f85c 4f3d f7aa 0d3e ae7d 393e 9dc2 e53d
00000150: 04bc 323e 5544 0e3e bcef 8c3d 49f9 453d
00000160: e8d0 e63d 04e3 b83d 2ed7 c63e 60a8 0e3e
00000170: d8be e23d b98f ac3d 9c43 e83d 6b37 d83d
00000180: 74aa 803e e583 843e 08d3 f33d 3f42 543e
00000190: 8725 323e 160c 193e 551c fc3d 4fea 863e
000001a0: ef5a d03d d03f 9d3d b776 bc3d 9984 283e
000001b0: b1eb c13e 1775 223e e8e2 203e
0.15954049 0.10572034 0.16416523 0.13993838 0.14539726 0.1716049 0.17611533 0.1371138
0.17931785 0.063413434 0.053775165 0.13994882 0.13414383 0.19211291 0.118969 0.37873587
0.19322959 0.04728082 0.14896879 0.19664672 0.12509856 0.10044064 0.21963982 0.08269786
0.12228912 0.097001456 0.10536955 0.14834197 0.32574382 0.11979104 0.05708558 0.1916171
0.18006228 0.3591545 0.15971766 0.08849545 0.11488858 0.067417204 0.14601135 0.3206244
0.29039812 0.06823232 0.07403957 0.14219442 0.113673754 0.053602993 0.15903378 0.10675304
0.21671882 0.15205619 0.14147775 0.047335315 0.6339001 0.3745995 0.180887 0.08324219
0.10318238 0.047921404 0.10962664 0.28171888 0.06323486 0.20096381 0.11500329 0.25164706
0.08156032 0.11626912 0.14365658 0.10952937 0.10947659 0.11625376 0.04982258 0.15591271
0.06448881 0.30639735 0.1567339 0.23349948 0.2616618 0.15115398 0.16414268 0.07663421
0.05062577 0.13834749 0.18114349 0.1121876 0.17454535 0.13893254 0.06881663 0.04833344
0.112703145 0.09027675 0.38836044 0.13931417 0.11071557 0.084258504 0.113410205 0.10557445
0.25130045 0.25881878 0.119054854 0.20728396 0.17397128 0.14946017 0.123100914 0.26350638
0.10173594 0.07678187 0.092023306 0.16456832 0.3787513 0.15864979 0.15711558

JKNet_layer_list.4.weight f4 [111, 111]
00000000: 4fc4 bcbe e8f5 873e 1966 95be d73e e4be
00000010: 4d10 58be 2fac 093e 4a3c 2d3e a088 823e
00000020: f839 043f ed54 adbe 9d2e babd a074 9b3e
00000030: aa5e c7be aaf8 883b 6368 39be 77fa a93e
00000040: d4d3 933e 7fee afbe 2122 893e 868f a2be
00000050: 39c1 a7be 6b4d a1be 8277 8a3d 9d47 d8be
00000060: e6c6 7cbe aa4f 37be e956 a0be 4f23 aabe
00000070: 0260 9e3e 717d bbbe 18fc d43e 639b 823e
00000080: 89a7 d1be b4ae 883e d218 0a3e 7b76 ad3e
00000090: 0371 8ebe 9b39 a9be 775f f3be 954a a43e
000000a0: 4261 bdbe 1390 a6be ecc3 b53e 7788 003d
000000b0: 1b60 ebbe 8090 8cbe 28a6 6c3e 4d9d 82be
000000c0: 154a 80be aa34 c0be 6a78 b4be d7ef 13be
000000d0: e14d 073c c185 6c3e 985d aebe 13da b33e
000000e0: 5bb0 d7be 4824 e8be 8f13 c7be a9c8 8dbe
000000f0: b714 8abe 07c6 9dbe 6956 c4be 5220 a73e
00000100: 71fb d3be 5174 143f e37a b43e e0e9 9ebe
00000110: 0e6a 88be b7ab 87be 0957 a1be c9b6 d93e
00000120: f449 c9be 4e89 ecbe 1efb ecbe 9a7e 353e
00000130: 0863 41be e19b da3e 7a49 043e 113c f7be
00000140: e9da 953e f765 f6be 7ddf f3be e04a f0bd
00000150: fe72 c2be b776 9bbe ad18 9f3e d61d a9be
00000160: 1ae9 bfbe 34d1 e13e becd 8cbc e85b bb3e
00000170: 0d0c d7be adc8 ebbe 4e56 ddbe 81e5 c7be
00000180: 535f 66be a28e babe 7a80 bdbe ca97 613e
00000190: d956 d7be 91cb ac3c e958 79be b5f0 a9be
000001a0: 1879 a3be aba7 d53d e1c8 a13e 40ba 0f3e
000001b0: 5926 003e 8173 ac3e b4fb 80be 44a9 a0bf
000001c0: 625d e0be 8ce9 ee3d 18cb 493e 1d8b a4be
000001d0: f106 aabe 3a58 d63f d084 92be 4a85 5f3f
000001e0: 7092 d03e 2908 8e3e 6082 c13d 159f 8e3e
000001f0: e65e 0e3f 6572 463e c540 70bf f79b fdbe
00000200: b8ab 14be 1164 573e 2cc1 a9be 5ee6 2d3e
00000210: 39d8 223e 7aa3 9c3d 5d23 ccbd dc24 33bf
00000220: b403 343c dec5 183f 3341 ac3f 859d cfbe
00000230: 5c36 533e e48b 953e 2e91 9cbe 936a f8bd
00000240: 5035 613e 21f8 f23e af5f 59be 2e85 313f
00000250: 344b 6cbe 0211 233f 66f2 adbe b662 b13d
00000260: 5e53 0abf c4c1 94be 11ca 37be 4274 b8be
00000270: fec2 6d3d 427b a5bf 051a 1bbf 0d3b d83e
00000280: ae9b 4c3f 70fa df3c e436 cebe 9d85 05bf
00000290: bcfe 3d3f d78c 7e3d 6f5d 1d3f bf24 85bd
000002a0: ca4d 9e3e 98b1 bc3e b381 bebf 25a6 633f
000002b0: 98fe 6abf 8f86 7e3f d5bd 0bbf 9d91 b93d
000002c0: bef5 2cbf 3b2f b23e 1c18 663e c046 243f
000002d0: 3de6 7f3f 13d1 88be 248e 49bf d26a 1a3e
000002e0: 903e 5ebe ea19 ac3e a403 d5bd 0d0a 82bf
000002f0: fc85 90be 80fb 7e3e 0cf3 80be ecf7 febe
00000300: fa99 b43d b15c 4abd eeff babd 9cf3 1abe
00000310: b52d 543e 9010 3ebf 4d02 cfbe ab1b 683e
00000320: 1d71 7fbe ee80 483f 9977 c9bd a7e9 ec3e
00000330: 8df8 8e3e 5219 c3be 5b6c 993e 83eb 98be
00000340: 1ead f13e 14b4 5bbc fe0e 4d3e ed03 f7be
00000350: 0b01 8dbf bbb3 443f 398a a7bf 70cc 4d3f
00000360: 2e1f ef3d e166 9cbe df2a c53f a699 283f
00000370: b031 363e a628 093f afe7 d73e 51e6 02be
00000380: f7c3 ec3c 5887 aa3e 7ab9 343e 361b c43e
00000390: 0c22 d5bd fe57 d63d fe82 243c 509f 7a3e
000003a0: cb64 173f b676 b53d dc4f 49bf cdfa d03e
000003b0: 7451 b8be 0d45 143f 7be7 c73d dda6 d6be
000003c0: 9b15 4abf 0cc0 95bf 753c 86bf d6ca d53e
000003d0: ef06 edbd d57c a0be 567d 88bf bc3b a4bd
000003e0: d9b1 643e 6414 c3be bb65 cdbe 511b 803d
000003f0: c73a 8f3d 5af9 c4ba b17f cdbf 3d1f 34bf
-0.36868522 0.265548 -0.29179457 -0.44579193 -0.21099968 0.13444589 0.1691753 0.25494862
0.51650953 -0.33853856 -0.09090922 0.30362415 -0.3893941 0.0041800337 -0.18106227 0.33198902
0.2887255 -0.34361646 0.2678385 -0.31750125 -0.32764605 -0.31504378 0.067610756 -0.42242137
-0.24685249 -0.17901483 -0.31316307 -0.33230063 0.30932623 -0.36619142 0.41598582 0.25509176
-0.40948132 0.26695788 0.1348603 0.33879456 -0.27820596 -0.33051762 -0.4753377 0.32088152
-0.36988264 -0.32531795 0.3550104 0.031380143 -0.4597176 -0.27453995 0.23110259 -0.25510636
-0.2505652 -0.3754018 -0.3524812 -0.1444696 0.008258314 0.23097898 -0.3405578 0.35127315
-0.42126736 -0.4534018 -0.3888211 -0.27692154 -0.2696893 -0.30815145 -0.38347176 0.32641846
-0.41402772 0.57989985 0.35250005 -0.31037807 -0.26643413 -0.26498196 -0.31511715 0.42522267
-0.39314234 -0.46198505 -0.46285337 0.17724076 -0.18885434 0.4269705 0.12918654 -0.48288015
0.29268578 -0.48124668 -0.47631446 -0.11733031 -0.37978357 -0.3036401 0.31073514 -0.33030576
-0.3748253 0.44104922 -0.01718795 0.36593556 -0.42001382 -0.4605154 -0.43229908 -0.39042285
-0.22497301 -0.36436945 -0.37012082 0.22030559 -0.42058447 0.021093162 -0.24350323 -0.33191457
-0.31928325 0.10432371 0.3159857 0.14035892 0.12514628 0.33681872 -0.25192034 -1.2551656
-0.43821245 0.11665639 0.1970638 -0.32137385 -0.3320842 1.6745675 -0.28616953 0.8731276
0.40736723 0.277406 0.09448695 0.27855745 0.55613554 0.19379576 -0.9384883 -0.49533054
-0.1451863 0.21034266 -0.3315519 0.1698241 0.15902795 0.07648368 -0.099676825 -0.6997812
0.010987211 0.5967692 1.3457397 -0.40549865 0.20626205 0.2920829 -0.30579513 -0.121297024
0.21992993 0.47454932 -0.21227907 0.6934384 -0.23075563 0.63697827 -0.33973998 0.08661406
-0.5403346 -0.2905408 -0.17948176 -0.36026198 0.058047287 -1.292824 -0.6058658 0.42232552
0.7992505 0.027341098 -0.40276253 -0.52157 0.7421682 0.062146034 0.61470693 -0.065011494
0.30918723 0.36854243 -1.4883331 0.8892539 -0.9179473 0.9942407 -0.54586536 0.09060977
-0.6756247 0.3480166 0.22470134 0.64170456 0.9996069 -0.2672201 -0.78732514 0.15079811
-0.21703553 0.3361352 -0.10401085 -1.0159317 -0.28227222 0.24900627 -0.2518543 -0.49798524
0.08818431 -0.049404804 -0.09130846 -0.15131992 0.20720561 -0.7424402 -0.40431443 0.22666804
-0.24945493 0.7832173 -0.098372646 0.46272013 0.27924004 -0.38105255 0.2996548 -0.2986718
0.4720239 -0.013409633 0.2002525 -0.48245183 -1.1015943 0.76836747 -1.3089057 0.8039007
0.11675869 -0.3054724 1.5403708 0.6585945 0.17792392 0.5357765 0.42168948 -0.12783171
0.028902037 0.33306384 0.17648879 0.3830201 -0.104068846 0.10466002 0.010040997 0.24474835
0.5913817 0.08860533 -0.7863748 0.40816346 -0.35999644 0.57917863 0.09760948 -0.41924182
-0.7893922 -1.1699233 -1.04872 0.41756314 -0.11573588 -0.3134524 -1.066325 -0.08019206
0.22333468 -0.38101494 -0.40116677 0.0625521 0.06993633 -0.0015027926 -1.6054593 -0.70360166

JKNet_layer_list.4.bias f4 [111]
00000000: 8407 83bd c7a2 dfbd b5e7 5b3e a691 f1bd
00000010: 95e1 893c 5cfc 0f3e 20a0 acbe a209 28be
00000020: 79f2 553e 70b7 7dbd 5b68 d5bb 51b6 473e
00000030: c07b 01bd b070 a63d d601 8abd 0129 263e
00000040: eb22 333e 2c1c 33be 86b1 6bbe 91f9 babc
00000050: 1b20 20be 9099 ed3d 8ba3 383e cfb1 e43d
00000060: e7e2 21be d112 d33c d690 553e 138b bf3e
00000070: b579 20be 66f7 993e ff4f b73e edeb 3cbd
00000080: 1f04 adbe 5a23 9abd ee44 05bd 9ed3 c43d
00000090: 36c0 84bc 094c ff3a 71f4 153e b486 663b
000000a0: 21de d2bd 8fc1 17be 1518 873e cab5 8dbc
000000b0: 897b 383e 46ca f8bd 9cb8 f43c b7ec 143e
000000c0: 5527 70be be94 2bbe 23e2 203e 3d36 9e3d
000000d0: 50ce 93be 93dd 8b3e 7001 ac3e cf6c 893d
000000e0: 9c2b 53be b3a2 673e d8fe 9d3e 34ab 9b3d
000000f0: 6c2e 94be 4f93 583e 0fcf a7bc f288 273c
00000100: 4b54 0bbd aada cabe dc6d 4fbd e4e1 83bd
00000110: 9bc6 35be fb66 853d 827e 12bc 3644 88bd
00000120: e6b5 53be d566 14bd 77b5 51bd f9f4 c9bd
00000130: 6c18 00be d0f5 3d3e d93f ccbe c242 fcbd
00000140: 821c 6c3e 6a03 69be 0b30 3a3e d339 69be
00000150: f246 38be f17c 793e 5d12 98be ae6b 1e3d
00000160: 5cb2 c93d abb9 1b3e f2a7 28be bcb5 ffbd
00000170: 016f b7bd 7164 59be e647 51bc ecec 023c
00000180: 0cb0 d93b 39fa a8ba 253e f3bd b428 7c3e
00000190: e16e b7bc 2d0c 913e f9b4 c2bd 6602 d23a
000001a0: a36e 723d 8cc8 2fbe 8084 abbd 7565 41be
000001b0: cfcb afbb db53 9fbe a7a2 cdbd
-0.06397918 -0.10919719 0.21475108 -0.11795358 0.016831199 0.14061111 -0.33715916 -0.16409925
0.20893277 -0.061942518 -0.0065126843 0.19503142 -0.031612158 0.08126962 -0.067386314 0.16226579
0.17493789 -0.17491215 -0.23016939 -0.02282408 -0.15637247 0.11601555 0.18031137 0.11166727
-0.15809213 0.025765808 0.20856032 0.37410793 -0.15671428 0.30071563 0.3580322 -0.046123434
-0.33792207 -0.07526274 -0.03253644 0.09610675 -0.016204935 0.0019477616 0.14644028 0.0035175504
-0.10296274 -0.1481993 0.2638556 -0.017298598 0.18015875 -0.121479556 0.029873185 0.14543425
-0.23452504 -0.1675596 0.15711264 0.07725189 -0.2886834 0.27317485 0.33594847 0.06710207
-0.20622104 0.22620659 0.30858493 0.07601014 -0.28941667 0.21149944 -0.020484475 0.010225521
-0.034015935 -0.39619952 -0.05064188 -0.064395696 -0.17751543 0.065137826 -0.008941295 -0.06653635
-0.20674857 -0.03623088 -0.05119845 -0.09861178 -0.12509316 0.18550801 -0.39892462 -0.123174205
0.2305775 -0.22755209 0.1818239 -0.22775964 -0.17995813 0.24364068 -0.2970151 0.03867691
0.098484725 0.15207545 -0.16470316 -0.12485835 -0.08956719 -0.21229722 -0.01277349 0.007991057
0.006643301 -0.0012891955 -0.118770875 0.24624902 -0.022391738 0.28329602 -0.09507174 0.0016022443
0.059187543 -0.17166346 -0.08374882 -0.18886359 -0.005364872 -0.31118664 -0.10040789

JKNet_layer_list.5.weight f4 [111]
00000000: f7a3 e43e 65aa a73f e09c cd3f bb73 ab3f
00000010: 368e 1f3d f2a5 983f 28ee 5d3f 4c9d 9f3f
00000020: 8792 b23f e07b a43f 20ab 843f 1f50 803f
00000030: fc27 843f 67a7 b13f 6d37 8e3f 7b1a a23f
00000040: b27c ac3f 7950 0b40 8635 863f 9a35 8a3f
00000050: 3774 a03f 872d f53f 997e 0d40 24de e33f
00000060: 75f0 193d 7502 853f 060e 883f ea2e 9a3f
00000070: e46b b03f e964 6a3f 0888 2440 cfd4 0d3d
00000080: 0753 533f d480 cb3f 64c3 573f f4fd 9e3f
00000090: ad79 883f 3f0e 0040 f62d 0640 2da8 923f
000000a0: f41d a83f d600 963f d549 8d3f 5d6e 0240
000000b0: 40ae 513e b0c8 b73f c74b 913f f38e 663f
000000c0: d43d 813f e806 ac3f e4c0 893e 0d92 d33f
000000d0: 179b e03f 77a5 8e3f 0430 c93f 7132 653f
000000e0: 1639 573f 3271 b43f 46b2 1e40 579b 063f
000000f0: e7f4 513f f400 cc3f ca62 613f 81f1 923f
00000100: 88d6 d23f 92b2 af3f 5085 593f ff4c a93f
00000110: 8624 cc3f 4c3e 993f 2122 c13f 2e0a 8a3f
00000120: ce9a 993f 4d72 a83f 9e7d ad3f 1ae1 a33f
00000130: 263d 323f 22a4 773f d3e8 b73f 848b 0340
00000140: 3c1b 6a3f dc4a 8d3f c496 8d3f f087 e23f
00000150: cc2f e43c 4ac6 223f 19c6 1f3f 6597 b53f
00000160: 713f 3f40 2441 a53f 9f08 823e ffec 0840
00000170: 7c52 a63f 0932 ef3f 6c5f f63f 8f33 853f
00000180: 8303 c43f d9df ec3f bbd3 b53f 5b63 243f
00000190: 8788 3340 9a57 7c3f a26d 1040 841c c53f
000001a0: 0ae9 df3f 82a1 9a3f a433 a93f 1c22 a53f
000001b0: 5756 a03f c788 973f 6205 4a3f
0.44656345 1.3098875 1.60635 1.3394693 0.038953982 1.1925642 0.8669152 1.2469878
1.3950967 1.2850304 1.0364723 1.0024451 1.0324702 1.3879212 1.1110665 1.2664331
1.3475554 2.1767867 1.0485084 1.0797608 1.2535466 1.9154519 2.210852 1.7802167
0.037582833 1.0391375 1.062928 1.2045567 1.3782926 0.91560227 2.5708027 0.03462678
0.82548565 1.589869 0.8428252 1.242125 1.0662133 2.0008695 2.0965552 1.1457573
1.3134141 1.1719005 1.1038157 2.037986 0.20476627 1.435812 1.135125 0.90061873
1.0096993 1.3439608 0.26904976 1.6528946 1.754733 1.1144246 1.5717778 0.8953009
0.8407148 1.4097044 2.479631 0.5258078 0.82014316 1.5937791 0.88041365 1.1479951
1.647172 1.372637 0.84969044 1.3226622 1.5948646 1.1972136 1.508854 1.0784357
1.2000368 1.3159882 1.355396 1.280307 0.69624555 0.9673482 1.4367927 2.0553904
0.91447806 1.103847 1.1061635 1.7697735 0.027854823 0.63583815 0.6241165 1.4186827
2.9882472 1.2910504 0.25397202 2.139465 1.2993922 1.8687145 1.924787 1.040636
1.5313572 1.8505813 1.420524 0.64214104 2.805208 0.9857117 2.2566915 1.5399327
1.7492993 1.2080538 1.3218884 1.2901034 1.2526349 1.1838616 0.78914464

JKNet_layer_list.5.bias f4 [111]
00000000: 4114 08bf 73c8 c2bf b492 a4bf fb83 0fbe
00000010: 3d25 1fbf 29bb 53bf 8cf4 95be 59fa 75bf
00000020: fa5d 87be db01 91bf 1c8a 06bf 852f a1be
00000030: 403e 19bf 9637 50bf 92a3 10bf 17e2 3cbf
00000040: e656 b3bf 2c5b 35bf 6fa7 f9bc 2a7f 8c3e
00000050: 00f8 53bf 9f10 d7be 9278 efbf 2055 3a3e
00000060: 1503 2cbf 1c98 69bf 9a30 4dbf afad 0a3f
00000070: f357 e53d de6d 04bf 4d7a 0fc0 900c 3cbf
00000080: 4281 3bbe ff3e 79bf 8438 c3be df6d debe
00000090: b764 bf3e 0afb b4bd b183 93bf 0293 3ebf
000000a0: 58bd 01bf 2100 04bf 87e1 08bf 24ea 03c0
000000b0: fbb1 14bf 2ff1 2cbf 7b47 4fbe 43ef d3be
000000c0: f542 1bbf 2051 58bf f346 12bf f25c 8fbe
000000d0: 6595 a0bf cd56 0bbf afe9 fcbe d9fc 0bbf
000000e0: bb86 c1be 0275 87bf f1e6 ddbf d5fe 2ebf
000000f0: 38a3 07be da7d a2bf 228f b7bd b73e 81be
00000100: 27ae 56bf 1a22 683d d6e0 02bf 5ba7 113f
00000110: e126 bebe 3ed4 41bf 2062 66be 44f8 da3d
00000120: 9f78 18be 7d82 53bf e1ec 62bf 6d13 16bf
00000130: 1010 08bf aab9 1bbf 4072 3ebf 4972 8ebf
00000140: d942 dfbe 390d d2be 6be3 f5be ef02 afbf
00000150: af3f 48bf 9b25 e4be 5b4f dfbe 8eb5 7abf
00000160: 8972 00bf 03b1 97bf bc37 08bf 48fe d0bf
00000170: 8f4b 833d 9809 8cbf 77ff 8fbf 859e 61bf
00000180: c677 ec3a bef7 b0bf 4d5c 76bf 72cc 8a3e
00000190: 31fe cdbf a942 d1bf ca68 54bd c054 a2bf
000001a0: 26b9 81bf 598e 5bbf d04f 00be 8b21 6dbe
000001b0: 3e9a 47bf 427a b03d 32cf 0abf
-0.53155905 -1.5217422 -1.285727 -0.1401519 -0.62166196 -0.8270746 -0.29288137 -0.96085125
-0.26438886 -1.1328691 -0.5255449 -0.31481567 -0.5986061 -0.8133482 -0.5649959 -0.73782486
-1.4010894 -0.7084224 -0.030475346 0.27440768 -0.8280029 -0.42004868 -1.870867 0.18196535
-0.671922 -0.91247725 -0.80152285 0.5417127 0.111984156 -0.51730144 -2.2418396 -0.7345667
-0.18311027 -0.9736175 -0.38129056 -0.434432 0.37381527 -0.088369444 -1.1524564 -0.74443066
-0.5067954 -0.51562697 -0.5346913 -2.0611658 -0.58084077 -0.67555517 -0.20242111 -0.4139348
-0.60649043 -0.84498787 -0.5713951 -0.280006 -1.2545592 -0.5442932 -0.49397036 -0.5468269
-0.37798104 -1.0582583 -1.7336103 -0.6835759 -0.13245857 -1.2694657 -0.08962847 -0.2524316
-0.83859485 0.056673147 -0.5112432 0.5689599 -0.37139037 -0.7571448 -0.22498369 0.10691884
-0.14889763 -0.82620984 -0.886427 -0.5862339 -0.5314951 -0.60830176 -0.7439308 -1.1128627
-0.43605688 -0.41025713 -0.4802507 -1.367277 -0.78222173 -0.4455994 -0.4361523 -0.9793328
-0.50174767 -1.1850895 -0.53210044 -1.63276 0.06410896 -1.0940428 -1.1249837 -0.88132507
0.0018041066 -1.3825605 -0.9623459 0.27109104 -1.6093198 -1.6348468 -0.051857747 -1.2682114
-1.0134628 -0.8576408 -0.12530446 -0.23157327 -0.7796973 0.08617069 -0.54222405

JKNet_layer_list.5.running_mean f4 [111]
00000000: 8181 66bf 9cb1 61c0 27f3 d4c0 4776 5ebf
00000010: 8338 233d 6455 6dc0 8dd5 debf 5f30 6ac0
00000020: 09ec 35c0 9bbf 7340 7980 54c0 b9a8 2bc0
00000030: e352 4cc0 62e8 7040 86fd a840 7c37 d340
00000040: d3bd acc0 e757 87bf 9191 733f 45d7 3940
00000050: c29a 623f 1129 4bc0 5ad4 b7c0 50e9 6f40
00000060: 41a2 e33e cb76 aabf 33ae acc0 11a3 3440
00000070: 0ce3 11c0 ce83 0bc0 26eb b3c0 1b95 6f3f
00000080: c1f3 85bf ca89 f5bf 31d0 9b3e f5b7 f23f
00000090: 7466 cf3d 426a 2ec0 b162 b4c0 d25d 9ec0
000000a0: 5fd1 27be c25d b2c0 bd85 7a3e 23cc 7ec0
000000b0: 88e8 c6bf ab67 28bf 854c 8f3f f0f0 2ec0
000000c0: 16bb 7bc0 3d7e 6c40 6df0 64bf 8ab8 c5bf
000000d0: 7237 25c0 1f85 58c0 eee1 59c0 ec22 36c0
000000e0: 37b6 70c0 19e8 0ac0 ea50 3540 3fd5 08bf
000000f0: 142b 4fc0 7619 9dc0 0fa6 3bc0 1200 8cc0
00000100: 0438 fcc0 21f2 23bf c13b 26c0 eac9 eb3f
00000110: 0538 c1bf c133 55c0 3db8 05be e700 fb3f
00000120: c880 14bf 75d0 4b40 5858 7bbf a510 d03e
00000130: 9eaf 9abf e687 3ec0 d237 c7c0 b049 c7c0
00000140: d359 03c0 b2aa 47c0 5fe7 6fc0 8402 fec0
00000150: d98e 2e3d 1615 1840 ffc7 a2bf a3b0 403f
00000160: 7bda d7bf 062e b1c0 033a dabf 3d9b 9dc0
00000170: 6ffb 4e3f 2731 bbc0 108d 79c0 d037 03c0
00000180: e76c c43f 9cef ddc0 d65b 5cc0 4c10 84c0
00000190: 7ac0 81c0 ecd1 e03f 62e5 2ac0 e42e f140
000001a0: 2514 74bf eaac 85c0 64ae 28c0 b258 9ebf
000001b0: ce0e 6e40 82bb 4cc0 0110 5dc0
-0.9004136 -3.5264654 -6.6546817 -0.86899227 0.039848816 -3.7083368 -1.740892 -3.6592023
-2.8425314 3.8085697 -3.3203413 -2.682173 -3.192559 3.7641835 5.2809477 6.600523
-5.398172 -1.0573701 0.9514399 2.903764 0.8851739 -3.1743815 -5.744672 3.7486153
0.44459727 -1.3317503 -5.3962646 2.8224528 -2.2794828 -2.1799197 -5.6224546 0.9358689
-1.0465013 -1.9182675 0.30432275 1.8962389 0.10126963 -2.7252355 -5.6370473 -4.9489527
-0.16388462 -5.573945 0.2446508 -3.9812095 -1.5539713 -0.65783185 1.1195227 -2.7334557
-3.9332938 3.695205 -0.8942936 -1.5446942 -2.581509 -3.383125 -3.4044147 -2.8458815
-3.7611215 -2.170416 2.8330636 -0.5345039 -3.2370043 -4.909358 -2.9320104 -4.3750086
-7.881838 -0.64041334 -2.597397 1.8420994 -1.5095221 -3.3312838 -0.13058563 1.960965
-0.58009005 3.1845982 -0.98181677 0.406377 -1.2084844 -2.9770446 -6.225564 -6.227745
-2.0523574 -3.1197934 -3.7484968 -7.937807 0.0426167 2.376287 -1.2717284 0.75269526
-1.686355 -5.536868 -1.7048954 -4.9252 0.8085241 -5.84975 -3.8992348 -2.0502815
1.5345734 -6.935499 -3.4431052 -4.1269894 -4.0547457 1.7564063 -2.6702504 7.536974
-0.9534324 -4.1773577 -2.635644 -1.2370818 3.7196536 -3.1989446 -3.4541018

JKNet_layer_list.5.running_var f4 [111]
00000000: 65b2 7d41 c5e2 ab41 1d8e e241 5213 8741
00000010: 700a 0f41 59ee 4241 9448 5f41 74cb b241
00000020: c206 d941 c5c1 3c41 f350 4e41 6102 be41
00000030: e5e1 1f41 0974 8941 a2f5 3742 9cc7 b441
00000040: 9a3f 6241 e79e c641 258f 9241 1a96 7941
00000050: d351 8941 6866 8041 0f87 c341 96dd bc41
00000060: dcab 3f40 a555 af40 944b b441 db6e 6b41
00000070: b2ad 4941 096d 1d41 a593 2a42 ef23 6d41
00000080: 67be 6441 0ac2 b641 035a 3c41 abb8 4241
00000090: 9bfd 7441 e661 f841 17a6 a741 8249 ab41
000000a0: 2fc6 5441 46e7 b841 37ba 6141 5aeb d241
000000b0: 10ed 0b41 42ed 8241 aa9d 8e41 34ae 8d41
000000c0: b9a8 7341 6c07 df41 156c 4041 f742 7a41
000000d0: 7388 a641 5d83 2041 e7da d641 7121 5441
000000e0: cab5 1f41 19a8 8141 e728 1942 90e6 9f40
000000f0: 66e8 5541 75d5 cc41 713b 1841 4d06 9941
00000100: c6b6 2042 28e5 9341 ecec 7441 e258 7541
00000110: e44a 6541 8d8a 9f41 efa0 c341 c391 5a41
00000120: 19bd 4041 3c03 5e41 3918 3e41 ffbb 7941
00000130: 966b 4e41 643d 8041 faaa 7d41 8c30 cc41
00000140: 336d 8441 18bf 3441 c9e9 8f41 6900 e041
00000150: 27a0 4741 0afb f740 8887 a240 b24c 0041
00000160: 1db0 1442 f531 4d41 49cc 2541 4829 db41
00000170: f93a b841 fe16 df41 639d df41 97a4 1641
00000180: 8cfa 0942 7a98 c241 5a2b 8341 872b 8841
00000190: 45d5 eb41 7b1b f440 032a 2742 024a 2742
000001a0: bd56 a841 151f 8c41 3330 aa41 d015 a941
000001b0: 36de df41 dfdb b641 676e 6f41
15.856053 21.485727 28.319391 16.884434 8.940048 12.18319 13.955219 22.349342
27.1283 11.797307 12.894763 23.751162 9.99265 17.181658 45.989876 22.597466
14.140528 24.827589 18.319895 15.599146 17.164953 16.050003 24.440947 23.608196
2.9948645 5.4792047 22.536903 14.714564 12.604906 9.83912 42.644184 14.821273
14.296485 22.844746 11.7719755 12.170085 15.311915 31.047802 20.956099 21.410892
13.298385 23.112926 14.107963 26.364918 8.745377 16.365849 17.826984 17.71006
15.228692 27.878624 12.026387 15.641349 20.816626 10.032071 26.856886 13.258164
9.981882 16.207079 38.289944 4.996895 13.369238 25.604227 9.514512 19.128077
40.17849 18.486893 15.307842 15.3342 14.330784 19.942652 24.45358 13.660586
12.046166 13.87579 11.880914 15.6083975 12.901266 16.029976 15.854242 25.523705
16.55332 11.296654 17.989153 28.0002 12.4766 7.7493944 5.0790443 8.018724
37.171986 12.824697 10.362374 27.395157 23.028795 27.886227 27.951849 9.415183
34.494675 24.324451 16.396168 17.021254 29.479136 7.6283545 41.791027 41.822273
21.042353 17.515177 21.273535 21.13565 27.983501 22.857359 14.964454

JKNet_layer_list.8.weight f4 [111, 111]
00000000: 5245 9e3e 0852 dfbe 7733 afbe 6d9a 7abe
00000010: fada d13e c0b1 713e ed03 773e 2838 ecbe
00000020: 4f46 3f3e beca 71be fc24 b33e ef6f 5c3e
00000030: bbcf 933e 26a0 843e 57bb a5bd 6746 10bc
00000040: 70b4 cabd da6f 2d3b a6a9 a5be eb22 00bf
00000050: 1490 17bd 7bf9 a9be b734 96be b17f 9fbf
00000060: ba31 35be 4c0f ea3d 9143 6b3e 80ee 2fbf
00000070: f644 3ebe bc98 d9bc 790e 0fbf 6ebd a63e
00000080: ee7f 363e d7fa d0be 4674 98be 6815 e33b
00000090: 40f8 06bf 26fd 3dbf 1a4e ec3e f883 983e
000000a0: 5042 b6be 808e a7bd d954 8f3e c6c5 10bf
000000b0: 2567 4fbe 7846 103e 182f d73c 7107 b03e
000000c0: ecbe 673e dcd1 26bf 12c7 603d 2616 d6bc
000000d0: 41d2 2dbf 0e28 913e 9a9f bfbe 6c11 783e
000000e0: f971 833e 44fe f8be 44f7 f4be 4a85 9fbe
000000f0: f5f5 55bd b128 16bf c13c 293e 7fe4 b83e
00000100: b5ae 90be 92c2 4fbe 6b7f 983e a0a2 9ebf
00000110: c067 713e f181 1d3e 0a9c 6fbe 2dba d2be
00000120: 474d a73e 882b 35be 2ab4 093f 55fc 5cbf
00000130: a9dc 3fbe b808 913e b681 6c3e c69a f03d
00000140: a6fb 2a3e cf3b 163d 6360 20be 9f3e f43b
00000150: d3c0 ddbc 03cf 313e 0b9e 19bc 1eff 9c3e
00000160: d392 1abf 2caa 4bbd ffea f9bd 2df9 10be
00000170: c14b 35be d8fa 1bbe be15 11bf c04a b93c
00000180: 7c1e 1cbf ab26 74be fbe8 6b3e 7a98 b13e
00000190: b3fe 62bf 5dcc d7be f49f 92bd fa37 93be
000001a0: e5b4 19bf 3978 903e 1933 623e 04e0 643c
000001b0: 82f2 d1be a7a2 de3e aa80 ea3d 2e11 b53e
000001c0: f846 2fbd ef11 fb3e 4d45 8e3e ac96 833e
000001d0: 5745 c23e be90 99be 86eb c33e 467b 8c3e
000001e0: 2f94 f2be f498 b93e 986e b1be ac62 cebd
000001f0: b8d1 f7be 8edb 97be 1ab8 70bd 6d02 a03e
00000200: ffcc ebbe ceec bf3e 763e 3fbe 5cf1 8ebe
00000210: 3825 9cbd c07e 2b3f 5db1 bf3e 55b5 983e
00000220: c74e 9d3e 500f a13e 4224 443e a851 383e
00000230: 2a7e 873e 31fd 903e 988b d7bd cb6d c5be
00000240: 2146 8ebe 214d b6be e4d6 64be 173a 973e
00000250: f635 103f 58c7 4cbe 5eb0 d5bc 73a5 363e
00000260: 0b6d a9be 8f3c 9bbe 30b0 a23e 4e1c 0b3f
00000270: 4791 aebe 6a3d 9d3e bdbf 91be 633f 483d
00000280: 18a4 7dbe 6920 54be d2b6 9b3e 1227 0abe
00000290: 8533 a4be d178 b83e 52b0 bcbe 23a1 6f3e
000002a0: 671d ef3d bc13 b13e 5cf4 a9bd 763f 553e
000002b0: a44f ad3e d8dc 8c3e f8c5 8fbd 61dc 273f
000002c0: 217d 3f3e 5bbc df3e bef2 35be 4c2b a2be
000002d0: 4c25 283e f02b 1ebf 865a 933e 919f 06bf
000002e0: 40f2 25be d8ea fd3e d7da bfbe bfb2 78be
000002f0: 2cd8 97bd cca3 b83e 2d91 c93e e9e0 36be
00000300: 8be5 91bc dfa9 a8be c00b d13c 02d7 903e
00000310: fc79 893e 64af 9b3e cc1e a0be e3ba b73e
00000320: 9826 fd3e 9d1a 933e fee6 d23e d77e 9c3e
00000330: b56d b23e 3eae 8f3e b5ab 543d 8554 493e
00000340: cc9c 9f3e bab4 843e 0c64 f43e dd17 fc3e
00000350: 8703 ee3e 8515 d4bd 4922 eabe 05a7 ae3e
00000360: 4f81 a23e 1ac8 3abe 3196 c9be 2f0b 3bbe
00000370: ade1 57be a9ff 69be 5994 aa3e 394e a1be
00000380: c355 f4be ea8c 06be 52af e53b dca2 fe3e
00000390: 748a d63e 2afc 68be 3d86 bf3e 7f05 29be
000003a0: e293 653e e87a e53e 1e7b 8b3e 55b4 a4be
000003b0: 7e1d 493d 3859 8ebe bb83 c23e 185c be3e
000003c0: 96c2 94be 6ba5 78be cf9a c7be bd04 33bf
000003d0: 8871 c3be 623d ecbe 0d5a 71bd 0e3e ec3d
000003e0: 8020 313e 17df 36be 094a f6be dd1c b93e
000003f0: 4b9c 2abf ae92 853e 6baf 28bd a8ac a3bd
0.30912262 -0.43617272 -0.34218952 -0.24472971 0.40987378 0.23602962 0.24122591 -0.46136594
0.18679164 -0.23612496 0.34989154 0.21527074 0.28869423 0.25903434 -0.08092373 -0.008805848
-0.09897697 0.0026464374 -0.32355994 -0.5005328 -0.037002638 -0.3319815 -0.29337093 -1.2460843
-0.1769475 0.11428699 0.22974993 -0.687233 -0.18580994 -0.026562087 -0.5588146 0.32566398
0.17822239 -0.40816376 -0.2977621 0.006930042 -0.5272255 -0.742144 0.46153337 0.29788184
-0.35597467 -0.081814766 0.2799442 -0.5655178 -0.2025419 0.14089382 0.026267573 0.34380677
0.22631425 -0.6516397 0.05487735 -0.026133608 -0.67898947 0.28350872 -0.37426454 0.24225396
0.25672892 -0.4863149 -0.478449 -0.3115638 -0.052236516 -0.5865584 0.16527082 0.3611183
-0.2825829 -0.20289066 0.29784712 -1.2393379 0.23574734 0.153816 -0.23399368 -0.41157666
0.32676145 -0.17692387 0.53790534 -0.8632253 -0.18736519 0.28326964 0.23096356 0.11748271
0.16697559 0.03667813 -0.15661769 0.007453754 -0.027069485 0.17364125 -0.009376059 0.3066339
-0.60380286 -0.049722835 -0.12203025 -0.14157553 -0.17704679 -0.15232408 -0.566738 0.022618651
-0.60984015 -0.23842876 0.23038094 0.34686643 -0.8866989 -0.42148104 -0.07159415 -0.28753644
-0.6004165 0.28216723 0.22089805 0.013969425 -0.4100533 0.4348347 0.11450322 0.3536467
-0.04279229 0.4903712 0.27787247 0.2570089 0.37943527 -0.29993242 0.38265628 0.274378
-0.4737868 0.36249506 -0.3465469 -0.10077414 -0.4840219 -0.29659694 -0.058769323 0.3125185
-0.46054837 0.37485355 -0.1867617 -0.27918518 -0.076242864 0.6699028 0.37440005 0.29825845
0.30724165 0.31456995 0.19154456 0.179999 0.26463443 0.2831817 -0.10524672 -0.38560328
-0.2778788 -0.3560572 -0.223476 0.29536507 0.5633234 -0.19997919 -0.026085075 0.17836551
-0.33091006 -0.3031964 0.31775045 0.54340065 -0.34095213 0.30710918 -0.28466597 0.048888575
-0.24769628 -0.20715488 0.30412918 -0.13491467 -0.32070556 0.36029676 -0.36853272 0.23401313
0.1167553 0.3458537 -0.08298561 0.2082499 0.33849823 0.2751224 -0.070201814 0.65570647
0.18700077 0.4369839 -0.1776838 -0.31673658 0.16420478 -0.61785793 0.2878 -0.5258723
-0.16205692 0.49593234 -0.3747165 -0.24286936 -0.074142784 0.36062467 0.39368573 -0.17859234
-0.01780965 -0.329421 0.025518298 0.28289038 0.2685088 0.3040725 -0.31273496 0.3588477
0.49443507 0.28731242 0.41191858 0.3056552 0.34849325 0.28062624 0.051921565 0.19661148
0.31174314 0.25919133 0.4773258 0.49236956 0.46487066 -0.10355667 -0.45729282 0.341118
0.3173928 -0.18240395 -0.393724 -0.18265985 -0.21082182 -0.22851433 0.33316305 -0.31504992
-0.4772168 -0.13139692 0.007009425 0.49733627 0.41902506 -0.22752443 0.37407103 -0.16506003
0.22419694 0.44820333 0.27242368 -0.32168832 0.04910039 -0.27802444 0.37991127 0.37179637
-0.29054707 -0.24281852 -0.38985297 -0.69929105 -0.38172555 -0.4614058 -0.05892377 0.115352735
0.17297554 -0.1785854 -0.4810336 0.36154833 -0.66644734 0.2608847 -0.041182917 -0.07991916

JKNet_layer_list.8.bias f4 [111]
00000000: 7201 41be 559a 8cbd 0beb 873d 2bfb c6bd
00000010: 80dc 62bd 5d64 8c3e 3eee a43e c61f 80be
00000020: f5ac 483e 7e13 a43d d7ff 4b3d 83a2 2f3e
00000030: 86b5 913e 4eb9 fdbc 164a 983d c019 ce3e
00000040: df70 c1be f7b8 3c3e be43 b13e 1c35 603e
00000050: 8fc8 c83c 7da4 b2be 5823 8ebd 7eaa 953c
00000060: 5364 f6bd b443 713e e73d 01be 4ed7 0f3e
00000070: 9f15 debe e537 7dbe 68bd 5c3e 85db 9fbe
00000080: 45f3 9cbe 8b9b f6bd 64a8 f13d ba19 133e
00000090: 3c97 153e 2c04 183e 6784 0c3f 2ba8 94bc
000000a0: 2903 1e3e ae32 c73e d8ad 6b3e dee9 57bd
000000b0: d154 1e3e 6e09 90bd abb0 393e 61b0 3e3e
000000c0: 5873 823d e08e b73d b994 20be 00aa 913b
000000d0: 0175 08be 41f8 4e3e 765b 353e c8f1 f43d
000000e0: 0740 6a3e 6621 823e 70b0 cdbd 3e26 1cbd
000000f0: 6a72 813c 2de6 5d3e 1592 f53d 8e1c ddbc
00000100: 517a 373e bfa5 5dbe dc99 66be 36eb 043e
00000110: 14b4 943e dd95 64bd 6bae 8ebd 5e3b c7b9
00000120: 7695 ee3d c7ee 04bf d7f5 f33d ede0 53be
00000130: 8d86 5a3e cabd 18bc e898 913e 063a aebe
00000140: c069 d63c 9a52 943e 33a8 b53d 4cc8 94be
00000150: cb98 02bd 34df a8bd 82bd 423e a9a9 82be
00000160: 5829 97be 5060 c43e a65f 6e3e 07f9 da3d
00000170: 31ca a5be 445a 4fbd 474d e83e 3ab0 383e
00000180: fb28 2cbe 5077 313e 094d 863e 9220 65be
00000190: 7a86 4cbe b7f7 d5bd 2eb6 5bbe 2da4 b7be
000001a0: 112c c73e 8ed5 f9bd e24c bc3e 5195 c63e
000001b0: ccf7 b43e b169 7fbe 1c32 f83e
-0.18848208 -0.06865374 0.06636628 -0.09715875 -0.055386066 0.2742032 0.32213014 -0.2502424
0.19597228 0.0801153 0.049804535 0.17151837 0.28458804 -0.03097215 0.07436006 0.4025402
-0.37781426 0.18429933 0.34621996 0.2189526 0.024509696 -0.3489112 -0.06940335 0.018269774
-0.12030854 0.23560983 -0.1262127 0.14046976 -0.4337587 -0.24728353 0.21556628 -0.31222168
-0.3065435 -0.12041386 0.11799696 0.14365283 0.14608473 0.14845341 0.5488953 -0.018146595
0.15430893 0.38905853 0.23015535 -0.052713268 0.15462042 -0.070330486 0.181338 0.1862197
0.06369656 0.08962798 -0.15681733 0.0044453144 -0.13325883 0.20211889 0.17710671 0.119601786
0.22875987 0.25416106 -0.100434184 -0.038122408 0.015801627 0.21669836 0.119907536 -0.026991155
0.17917754 -0.21645258 -0.2251963 0.12980351 0.2904364 -0.055806983 -0.06966861 -0.0003800047
0.11649601 -0.51926845 0.119121246 -0.20691271 0.2134039 -0.009322593 0.2843697 -0.34028643
0.026173472 0.2896927 0.08869972 -0.29059064 -0.031883996 -0.082456976 0.19017604 -0.25520065
-0.2952373 0.3835473 0.23278674 0.106920294 -0.32380822 -0.050623193 0.45371458 0.18035975
-0.16812508 0.1733067 0.26230648 -0.22375706 -0.19973174 -0.104476385 -0.21456215 -0.35867444
0.38900807 -0.121989354 0.36777407 0.38785794 0.35345304 -0.24942662 0.4847573

JKNet_layer_list.9.weight f4 [111]
00000000: d11f 953f 7e9e 803f 282b 883f d018 903f
00000010: b0ac 583f 9c77 903f 00ec dd3f 4842 ba3f
00000020: ee1e 853f b5ef c83f 6a20 683f 51ef 6e3f
00000030: bdbb 913f d92f 9e3f a6a3 6b3f 6a4a 3c3f
00000040: fce6 d43f 1577 393f f6be 1e3f 2fcf 923f
00000050: a381 dc3f 9329 dd3f ce30 fc3f ecc5 aa3f
00000060: 48d1 8c3f f37d da3f 4a6b f83f 409f af3f
00000070: ae50 8f3f 9e20 9b3f d256 5e3f 2318 583f
00000080: 0ba5 a73f 70f5 433f 2bff c23f 4403 ac3f
00000090: 4e0e 8f3f d353 8e3f 2b77 903f 65ae ac3f
000000a0: 828b ae3f ae83 503f 1dd1 963f 1988 923f
000000b0: 3314 de3f 2176 8f3f e07f b13f 7612 103d
000000c0: ac7d fc3f dc9a 863f 4cc5 0a40 cff6 563f
000000d0: 060b e93f e935 993f d305 ab3f f442 ce3f
000000e0: 2f40 903f 32ed a63f bea8 2240 9daf b13f
000000f0: 7f8d 0840 a74d 3c3e 71d3 833f 5fa0 bd3f
00000100: 4856 d73f 5bc5 863f ffee 9c3f 07cc b03f
00000110: 9855 563f b165 8f3f 3720 0040 6af6 643f
00000120: be1a a43f 45c3 0d40 3949 583f 6cd3 253f
00000130: 1f1b 9d3f d4ee 4c3f 2d05 d93f d7b8 a43f
00000140: 74f6 763f 18ca 1240 4804 7e3f 21e1 703f
00000150: 8bad a73f 9dff 613f 0fbe 6f3f 65a2 aa3f
00000160: 6380 b43f 8b2e 833f d90f 733f 7be2 a43f
00000170: e048 1940 bf05 ef3f 0389 5d3f 9a71 bf3f
00000180: 931f 7b3f 521b 0440 eb25 9b3f 2d1d f33f
00000190: b97d c63f 5bd3 053f caa2 1740 d643 7a3f
000001a0: a791 2b3f ef07 a43f e2cc 963f b8d4 9b3f
000001b0: aa90 913f 2b1e af3f 0ebc 903f
1.1650335 1.0048368 1.063817 1.1257572 0.846385 1.1286502 1.7337646 1.4551477
1.0400064 1.5698153 0.9067446 0.9333392 1.1385418 1.2358352 0.9204658 0.73551047
1.6632991 0.7244733 0.62010133 1.1469477 1.7227062 1.7278312 1.9702394 1.3341651
1.1001368 1.7069687 1.9407742 1.3720474 1.1196496 1.2119329 0.8685123 0.8441183
1.3097242 0.7654638 1.5234121 1.3438497 1.117624 1.1119331 1.1286367 1.3490721
1.3636324 0.8145093 1.1782566 1.1447784 1.7349914 1.1207925 1.3867149 0.035173856
1.9725852 1.0516009 2.168292 0.8397035 1.8206489 1.1969577 1.3361152 1.6114182
1.1269587 1.3041136 2.5415492 1.3881718 2.1336362 0.18388997 1.0298902 1.4814566
1.6823206 1.0528978 1.2260436 1.3812264 0.83724356 1.1202909 2.0019662 0.894385
1.2820661 2.2150433 0.8448673 0.6477573 1.2273902 0.8005192 1.6954705 1.2868909
0.9646981 2.2935848 0.9922528 0.9409352 1.3099836 0.8828066 0.9364938 1.3330809
1.410168 1.0248579 0.94946057 1.2881616 2.395073 1.8673629 0.8653719 1.4956543
0.98095053 2.0641675 1.2120947 1.8993279 1.5507118 0.5227563 2.3693109 0.9775976
0.6701912 1.2814921 1.1781275 1.2174292 1.1372273 1.3681082 1.130739
