training/dirckpt/MAP_best_loss_3.ckpt (torch, 213387 bytes, 25 tensors)

JKNet_layer_list.0.weight f4 [111, 18]
000000 16 96 06 bf c6 e4 97 3e ea 95 27 bf 2b f8 37 3e
       -0.5257276 0.29666728 -0.65463126 0.17965762
000010 35 7c 72 3f 62 c1 7d 3e 83 72 bc 3e fd f7 40 3e
       0.94720775 0.24780801 0.36806116 0.188446
000020 ce 08 2a 3f f6 21 96 be d6 8a 73 3f 2a a8 4f 3f
       0.66419685 -0.29322785 0.9513372 0.81115973
000030 39 d0 31 bf 0b 0e c8 be 82 16 1a 3e 3e 15 55 bf
       -0.6945835 -0.39073214 0.15047649 -0.8323554
000040 01 1e b8 3d c1 03 c7 be 0e f0 aa bd db f9 ae bf
       0.08990098 -0.38870052 -0.08346568 -1.367
000050 37 c3 d1 bf 8a 9c 2c be 71 c2 84 c0 64 02 0a c0
       -1.63877 -0.1685659 -4.1487355 -2.156396
000060 d4 4d a2 be 90 c5 8e bf ad 3e e3 3b 9d 1b f1 3f
       -0.31700003 -1.1154041 0.006934962 1.8836552
000070 5c 1b 50 bd 25 41 ff 3e ad 91 08 bf 4c ad b3 bf
       -0.050807342 0.4985439 -0.53347284 -1.4037261
000080 1c 73 a4 be 15 bc 12 3d b0 e6 42 3f 4c 2f 30 3f
       -0.3211907 0.0358239 0.7613325 0.6882217
000090 54 6f f5 be 96 f0 33 3f c2 a9 dd 3e bc 93 ab bf
       -0.479365 0.7028898 0.43293577 -1.340446
0000a0 f7 ee 67 3e 31 e6 3e bf 7c 18 80 3c 99 4a e4 bc
       0.22649752 -0.74569994 0.015636675 -0.027867602
0000b0 f4 0d 35 bf 6e 9b 0f 40 70 05 32 3f 0e 20 41 3e
       -0.70724416 2.2438617 0.69539547 0.18859884
0000c0 27 17 0c c0 48 d9 3e 3f 1e 4a 73 3e 5a 8b 55 bf
       -2.188913 0.74550295 0.23758742 -0.8341576
0000d0 ca 91 eb 3d 77 2a ad 3e 97 cd 1b be aa c3 85 3f
       0.115024164 0.3382146 -0.15215145 1.0450337
0000e0 aa 98 cb 3e fd ce 35 bf 65 05 5d 3e 33 8c a2 3f
       0.3976491 -0.71018964 0.21584089 1.2699035
0000f0 4e cf 3a bf a2 4a ba 3e 82 d6 1e be e7 8a ac be
       -0.7297257 0.36385065 -0.15511516 -0.33699724
000100 bd 66 aa bd 3a 73 2e bf 46 8d 0f 3f 0d fc 5f bf
       -0.08320377 -0.6814457 0.5607494 -0.87493974
000110 33 ad 9c 3e 1c 67 3d 3f 73 8e be 3e 11 17 0a 3e
       0.3060089 0.7398546 0.37218055 0.13485362
000120 62 e2 b4 be 71 5d 3f bf f5 48 64 bf 8c 79 57 bf
       -0.35328966 -0.74751955 -0.89173824 -0.8416984
000130 33 a0 a5 bf 71 36 87 bd 73 6e ac bc 6c 49 62 be
       -1.2939514 -0.06602181 -0.02104876 -0.2209832
000140 4b 87 de be ba 60 47 c0 e1 d7 68 3f 62 ac 28 bc
       -0.43462595 -3.1152787 0.90954405 -0.0102950055
000150 0e cf a0 3f ba 4f 9c bf 0f 42 bb 3f 79 3a 09 be
       1.2563188 -1.2211831 1.4629534 -0.13401212
000160 b6 20 d9 be d9 52 04 40 8e cf 82 be e0 7d 68 3f
       -0.4240777 2.0675566 -0.25548977 0.9081707
000170 6b 67 16 3f 01 ac 95 be ba 15 6e be cd 14 4a 3e
       0.58751553 -0.2923279 -0.23250476 0.19734497
000180 03 c0 8d bd b2 7a 93 bf fc f1 ae be 9c 7e c1 bf
       -0.06921389 -1.1521819 -0.34168994 -1.5116763
000190 f2 ab f0 3d 6f b1 91 3e 15 64 d6 bd ad 6f 47 3e
       0.11751546 0.28455684 -0.10468308 0.19476195
0001a0 2c 34 79 bc 14 82 16 c0 b2 dc d1 3e fc 83 d4 3e
       -0.015210193 -2.3516893 0.4098869 0.41506946
0001b0 00 02 8d 3e a8 d7 43 be d6 c1 5b bd 49 ce 14 bf
       0.27540588 -0.19125235 -0.053651653 -0.58127266
0001c0 07 64 30 bf e5 d4 e6 3c 1c fd 57 bf 2a 38 ec 3d
       -0.6890263 0.028177688 -0.8437059 0.1153415
0001d0 20 14 a1 bf b8 74 16 40 84 cb 03 c0 01 11 e0 3e
       -1.2584267 2.350874 -2.0592966 0.43762973
0001e0 b1 72 93 bf da 3c 00 c0 33 7a 79 bd 5e 03 48 3c
       -1.1519376 -2.003714 -0.060907554 0.012207834
0001f0 93 93 16 3f 79 ea 97 3e 6f 73 c3 be e3 49 f3 3d
       0.5881893 0.29671076 -0.38174006 0.11879327
000200 35 44 4f bf 2f 89 a4 bf 34 27 5a be 26 5c 2e be
       -0.8096345 -1.2854365 -0.21304017 -0.1702734
000210 b7 4b 02 bf 0f c0 f8 3e 43 7c 8f bf dc 50 b7 bf
       -0.5089678 0.4858403 -1.1209797 -1.4321551
000220 c8 13 db bf 90 da a8 3f d9 43 27 c0 3e c1 5b 3e
       -1.7115412 1.31917 -2.613516 0.21460435
000230 26 c9 44 3e 88 ee 33 3f b3 52 37 3f bd 91 44 3e
       0.19217357 0.70285845 0.71610564 0.1919622
000240 c2 6c 4c be d9 92 31 bf dc e9 8b 3f 58 9d 22 3f
       -0.19963363 -0.69364697 1.0930743 0.6352134
000250 08 8f 1f bd 42 ee 2f 3f 6d bb 55 3e 32 5e f1 bf
       -0.038954765 0.6872293 0.20872279 -1.8856871
000260 84 79 cd be 5e 59 58 c0 43 f5 e8 3e c3 50 d4 3e
       -0.40131772 -3.3804545 0.4549962 0.41467866
000270 46 63 d6 be 60 cc 04 40 13 2f 26 bf ba b6 38 c0
       -0.41872615 2.074974 -0.6491558 -2.8861527
000280 2a 03 a3 be c2 bc 8f bd 7a ab 2e bf 71 4f 77 3e
       -0.3183835 -0.070184246 -0.682304 0.24151398
000290 e2 99 49 3f 31 5c 9b 3e ae f0 b8 3e 1e d9 8c 3f
       0.7875043 0.30343774 0.36121124 1.1003759
0002a0 38 e0 bf 3f e4 81 13 c0 2b 07 84 3f 7a 01 23 3f
       1.4990301 -2.304803 1.0314687 0.6367413
0002b0 7b d5 75 3f c6 cf 92 bf bc 20 c2 bf bf aa 98 bf
       0.9602887 -1.1469657 -1.516624 -1.1927108
0002c0 55 d7 20 bf da 45 a7 bf f8 73 2c 3e d7 7c 01 bf
       -0.6282857 -1.3068192 0.16841114 -0.50581115
0002d0 62 35 1b bd e4 ab 07 bf a8 b6 c2 3e 42 01 b5 bf
       -0.037892707 -0.5299666 0.3802998 -1.4141009
0002e0 38 c8 e9 3e 64 09 0a 40 ae 02 69 bf 39 64 4a 3e
       0.45660567 2.1568232 -0.91019714 0.19764794
0002f0 ce 0f 2d c0 44 97 7e 3e f6 99 56 3d c8 45 d6 bc
       -2.7040896 0.24862391 0.052392922 -0.026156321
000300 22 6e 2f 3e e2 62 9a 3f b7 3b 71 bd 6a 5c 68 3f
       0.17131856 1.2061427 -0.05889484 0.9076601
000310 21 c5 bb 3e af 98 f5 be bb d2 64 bf 6e c4 1a c0
       0.36673835 -0.4796805 -0.8938405 -2.418239
000320 eb 9f e1 be a2 3a 15 bf 95 d7 de 3e cf 0b 9d bd
       -0.4406732 -0.5829259 0.4352385 -0.07668268
000330 6b d9 b1 3f fe 79 5f bf 0b 23 05 c0 30 16 58 bf
       1.3894476 -0.8729552 -2.0802639 -0.84408855
000340 41 50 7b 3e 78 ff 8f 3e 72 8d c4 bc 0c c2 10 3f
       0.24542333 0.28124595 -0.023993228 0.5654609
000350 3a 31 62 bf 18 40 72 3e f7 c9 5c bf f3 60 07 bf
       -0.88356364 0.23657262 -0.86245674 -0.5288231
000360 01 7c 64 bf 38 5a f6 b9 bd 95 9c 3e 2a 3c d9 3d
       -0.89251715 -0.00046987995 0.3058299 0.106071785
000370 29 51 36 3d 88 ab d5 3e 78 39 cd bd 17 12 a8 3e
       0.044510994 0.4173243 -0.10020727 0.328263
000380 af f8 40 3e 79 52 75 bd 3d 66 4e 3f 18 d1 be be
       0.18844865 -0.059893105 0.80624753 -0.372689
000390 57 07 e8 be 2d f3 c2 bf 21 fe 3a bf 9d fd da 3e
       -0.453181 -1.5230461 -0.7304402 0.42771617
0003a0 85 84 51 be 66 c8 d0 bd 61 a2 75 bf 12 95 79 bf
       -0.20460708 -0.10194473 -0.95950896 -0.9749309
0003b0 e8 be 5e 3f d5 61 0e bf 89 57 54 3e 34 1b 36 3f
       0.8701005 -0.5561803 0.20736517 0.7113526
0003c0 26 24 d1 3e c4 5e 37 c0 8b 29 b3 3f b9 e1 94 3f
       0.40847892 -2.865159 1.3997053 1.1631385
0003d0 22 26 ea 3e fd 97 5f bf 24 96 c4 bf ad 22 6c be
       0.45732218 -0.8734129 -1.5358319 -0.23060103
0003e0 d0 25 ba 3e c9 17 93 bf 5a d4 3b bf 2c 49 d5 bf
       0.36356974 -1.1491634 -0.733709 -1.6662955
0003f0 58 fe 4b bf 2c f6 92 3d e4 5b 9f be 5e 7e c2 be
       -0.7968497 0.0717586 -0.31124794 -0.37987036

JKNet_layer_list.0.bias f4 [111]
000000 f6 7d a8 3e 26 9c 50 3f f3 31 ee be 8e 9b 84 be
       0.329086 0.81488264 -0.46522483 -0.2589993
000010 d3 60 d0 3e eb bf f9 bd 4b d3 14 3e dd 5a f2 bc
       0.4069887 -0.121948086 0.14533727 -0.029584343
000020 89 47 1d bf d7 26 03 3e 83 0f 99 3f 37 87 13 bf
       -0.6143728 0.12807785 1.1957859 -0.57628196
000030 4c 49 71 be 7f 89 b0 bc a3 ea 9e be fb be 88 3f
       -0.23563117 -0.021549938 -0.3103839 1.0683283
000040 96 45 c1 bd 7e 5a c1 be 7e bf 29 be 8b 03 57 be
       -0.094371006 -0.37764353 -0.16576955 -0.20997445
000050 ab 9e b7 be 47 ee f5 3c 01 eb eb 3d cb 03 15 bf
       -0.35863242 0.030020846 0.11519433 -0.5820891
000060 0e 3e c5 3c 46 72 d3 bd ba 24 1c bf 50 51 f9 bc
       0.024077442 -0.1032453 -0.6099354 -0.03043428
000070 0e 62 06 3e fe 55 99 3d f0 75 dc be e6 c2 33 be
       0.13123342 0.07487105 -0.4305873 -0.17554817
000080 4a 7e e5 bd 24 bf ae 3e 8b 1e a0 be f6 1a d7 be
       -0.11205728 0.34130204 -0.31273302 -0.42012757
000090 9c 2b 02 bf 28 b5 72 3e 55 5a 1a bd f7 b9 82 bf
       -0.5084779 0.23701918 -0.037683804 -1.0213002
0000a0 4c 39 56 3d c7 e9 d7 3f a3 16 e6 be e8 62 77 be
       0.052300736 1.6868218 -0.44939145 -0.24158823
0000b0 e9 5a 00 bf 16 a6 22 3f c4 e3 e1 be 90 36 02 be
       -0.5013872 0.6353468 -0.44119084 -0.12716126
0000c0 97 f8 a8 3e 1e 6b 79 3e 13 8d d3 be d2 20 07 3e
       0.3300216 0.24357268 -0.4131857 0.13196114
0000d0 d8 f1 8b bf 5a e7 8c 3e ee fe 0c 3e 3b 7b 3d bf
       -1.093318 0.27520257 0.13769123 -0.7401616
0000e0 bc d6 82 3e bc 7f f3 3e ac 6a 42 3e 53 5a cc bf
       0.25554454 0.4755839 0.18986005 -1.5965065
0000f0 e2 5a 8b 3e f3 5d 8c be e7 93 b6 be aa 0f 44 be
       0.27217776 -0.27415428 -0.35659716 -0.191466
000100 ef be 25 be 31 03 69 3e 26 f7 88 3f 75 7b b2 3c
       -0.16186117 0.22755124 1.0700424 0.021787385
000110 0b 98 e9 be cb 3d 5b bf d1 49 4e 3e 56 68 7c 3f
       -0.45623812 -0.85641164 0.20145346 0.98596704
000120 6c 7d e2 3d f8 a1 73 3e c9 61 68 3e a2 b9 14 bd
       0.110590786 0.23792255 0.22693552 -0.036309846
000130 be 1e 60 3e 6f 0e 0b be e0 e7 a0 be 06 9d e7 3d
       0.21886727 -0.13579725 -0.31426907 0.11309247
000140 9a f1 bb 3e ec db 03 3f 21 6f 92 be 7b 6f 0c bf
       0.36707765 0.5150745 -0.2860041 -0.54857606
000150 10 b3 a2 3f 3c ba f2 3d 4a db 9e 3e d3 55 24 bf
       1.2710896 0.11851928 0.3102668 -0.6419346
000160 e3 22 b9 3f b0 73 3d be 92 53 38 be d6 e7 c2 be
       1.4463772 -0.18501163 -0.1800063 -0.38067502
000170 45 bb 16 be 82 a0 c1 3e 68 44 b3 3c 04 52 f6 be
       -0.14719875 0.3781777 0.021883205 -0.48109448
000180 df 2a cd 3f 3f 72 84 be 03 c1 a6 be 97 46 f9 bc
       1.6028708 -0.25868413 -0.3256913 -0.030429168
000190 84 d0 bc be 19 b4 9c be 19 90 aa 3d e5 fa 29 3f
       -0.36877835 -0.30606154 0.08328266 0.6639846
0001a0 ed f0 19 be c1 8d 4f bf 48 04 22 bd e8 33 04 be
       -0.15033312 -0.81075674 -0.039554864 -0.12910426
0001b0 98 b1 06 bd 92 28 2e be 2f 24 fd 3c
       -0.03288421 -0.17007664 0.030901043

JKNet_layer_list.1.weight f4 [111]
000000 29 88 4f 3f 8b cc 16 40 b6 24 9c 3f cc b5 9c 3f
       0.8106714 2.3562343 1.2198703 1.224298
000010 d8 1f e9 3f 8c c7 d0 3f df 2f ea 3f dd 70 c0 3f
       1.8212843 1.6310897 1.8295859 1.5034443
000020 52 ce 2b 40 d1 91 23 40 a4 5d bd 3f 40 9c c9 3f
       2.6844678 2.555775 1.4794202 1.5750809
000030 4a cc 2d 3f 55 ae 0f 40 26 fe 47 3f 96 2d 9a 3f
       0.67889845 2.2450154 0.78122175 1.2045162
000040 f0 da d8 3f 8d 23 1e 3d 0e 99 96 3f 34 52 96 3f
       1.6941814 0.038608123 1.1765459 1.1743836
000050 75 15 41 3f e9 f0 b6 3f a7 da ff 3f 8c 90 3d 3f
       0.75423366 1.429227 1.9988602 0.74048686
000060 9e 1a ba bd b5 1b 9f 3f 2b c5 a2 3f 36 e8 94 3f
       -0.09087108 1.243033 1.2716421 1.1633365
000070 ef c2 9d 3f 65 85 99 3f bc 28 92 3f 14 8a d1 3f
       1.2325114 1.1993834 1.1418681 1.6370263
000080 d1 a2 b9 3f 87 73 f5 3e f2 30 8b 3f ce d9 ad 3e
       1.4502813 0.47939703 1.0874312 0.33955234
000090 13 2c cc 3f 05 51 c0 3f f5 8c 83 3f 45 30 fe 3f
       1.595095 1.5024725 1.0277392 1.9858481
0000a0 0a 47 bd 3f bb 1a 23 40 a3 33 7d 3f d2 93 b0 3f
       1.4787304 2.5485065 0.98906916 1.3795111
0000b0 72 01 87 3f 33 8f cd 3f bb c5 d2 3f 0a a8 bd 3f
       1.0547316 1.6059326 1.6466593 1.4816906
0000c0 a3 90 c1 3f 72 68 d8 3f 26 74 b2 3f 50 31 ac 3f
       1.5122265 1.6906874 1.3941696 1.3452549
0000d0 92 3e eb 3f b8 3c 4b 3f 93 64 0f 40 7f 5d d9 3f
       1.837847 0.79389524 2.2405136 1.6981658
0000e0 3f b6 06 bf 75 64 9b 3f f0 bb 8d 3e 63 ea 0f 40
       -0.52621835 1.2140032 0.27682447 2.2486808
0000f0 b9 6b 94 3f 48 f3 1d 40 04 1a 0c 40 00 62 18 3f
       1.1595374 2.4679737 2.1890879 0.59524536
000100 d9 69 c7 3f c6 eb 9b 3f 18 4f d4 3f 95 6a 05 40
       1.5579177 1.2181327 1.6586637 2.0846303
000110 b2 ad a6 3f c5 8f a9 3f ab 07 1b 3f 3b 7a e0 3f
       1.3021758 1.3247 0.60558575 1.7537302
000120 9d 81 80 3f 8f 3e c0 3f b1 13 1d 3f 36 dc 05 40
       1.0039555 1.5019091 0.6135817 2.0915656
000130 1a ca bc 3f b0 25 e6 3f a5 e5 88 3f 2e bc 94 3f
       1.4749177 1.7980251 1.0695082 1.1619928
000140 05 23 b6 3f eb 3f 98 3f 54 8a 8c 3f 7e 2d c2 3f
       1.4229437 1.1894506 1.0979714 1.5170133
000150 9e 51 de 3f 86 62 48 3f bb 41 91 3f 51 d2 6d 3f
       1.7368658 0.78275335 1.1348184 0.9289904
000160 5f 70 a4 3f c0 3e 29 3f 42 f8 5e 3f ac ee 09 40
       1.2846793 0.66111374 0.8709756 2.1551924
000170 8e 6b 71 3f 93 0a f0 3f b5 0d d6 3f 53 a5 5b 3f
       0.9430474 1.8753227 1.6722933 0.8579914
000180 d3 93 e4 3f 96 57 58 3f e3 fe 86 3f 38 fe 70 3f
       1.7857612 0.84508646 1.0546535 0.9413791
000190 17 52 7e 3f 1b 7e 0c 40 fe 96 98 3f 8a 78 e4 3f
       0.9934401 2.1951969 1.1921079 1.7849286
0001a0 d9 5f d9 3f 34 03 6f 3f 00 7f d8 3f 58 74 b0 3f
       1.6982375 0.9336426 1.6913757 1.3785505
0001b0 39 0c 40 3f 77 01 80 3f 0c 83 91 3f
       0.7501865 1.0000447 1.1368117

JKNet_layer_list.1.bias f4 [111]
000000 d7 61 7b bf 28 35 a6 bf e3 65 99 bf 45 3d 9c bf
       -0.98196167 -1.2984972 -1.1984218 -1.2206198
000010 6f 0c 91 bf 21 9f 85 bf ff 75 68 bf 08 d1 69 bf
       -1.133192 -1.0439187 -0.9080505 -0.9133458
000020 a9 16 ea bf b2 70 c0 bf 29 b6 57 bf bf d4 78 bf
       -1.8288165 -1.5034392 -0.8426233 -0.97199625
000030 40 1f aa be 59 6a c6 bf f3 b4 9c 3d f2 01 39 bf
       -0.33226967 -1.5501205 0.07651701 -0.72268593
000040 8f 01 61 bf 55 ca 29 be 6d 1d dc be ed 80 a8 bd
       -0.87893003 -0.1658109 -0.429912 -0.08227716
000050 c2 b7 5c be 32 e7 c8 bf 12 43 96 bf 85 85 4a be
       -0.21554473 -1.5695555 -1.1739218 -0.19777496
000060 b8 ab c0 be 72 c3 d2 be eb 53 b2 bf e8 c6 6e bf
       -0.3763101 -0.41164738 -1.393186 -0.93272257
000070 31 b9 58 bf 5b 3f 43 bf fe 0c 81 bf cb 22 fe be
       -0.8465758 -0.7626855 -1.008209 -0.4963592
000080 37 40 bd bf 92 ac ca 3e b3 1d f4 be fb 80 a6 3e
       -1.4785222 0.39584786 -0.4767891 0.3252028
000090 2c 10 10 c0 f1 36 36 c0 18 0b b3 bf 0b 35 09 c0
       -2.250987 -2.8471034 -1.398776 -2.1438625
0000a0 b0 54 28 c0 3c 96 95 bf 4d 73 b2 be 4b 04 a3 bf
       -2.630169 -1.1686473 -0.34853593 -1.2735685
0000b0 ef 07 78 be ed e7 d9 bf 73 5e 12 c0 ed 5a 63 bf
       -0.24221776 -1.7023903 -2.2870147 -0.88810617
0000c0 32 73 54 bf 4b 1f c6 bf 43 a7 59 bf ed 81 6b bf
       -0.82988274 -1.54783 -0.85020846 -0.91995126
0000d0 c8 7e 6e bf fc e3 43 bf ae a4 b6 bf 91 91 94 bf
       -0.931622 -0.7651975 -1.4269006 -1.1606923
0000e0 c5 5b c5 be bd 84 51 bf 5e d1 2e bf 5d 87 48 bf
       -0.38546577 -0.8184317 -0.6828822 -0.7833155
0000f0 a8 78 86 bf 9c 2a bb bf f3 1b 10 c0 e7 f3 f5 bd
       -1.0505571 -1.4622378 -2.251706 -0.12009411
000100 bf 3f c5 bf 3a b2 54 bf db 6d 65 bf 7e 3b a1 bf
       -1.5410079 -0.8308445 -0.8962075 -1.259628
000110 86 5d a0 bf a2 f6 0f bf d5 28 9c bd de 28 a7 bf
       -1.2528541 -0.56235707 -0.076249756 -1.3059347
000120 7a 62 f4 be 2d a1 78 bf a8 29 9d bf d0 11 8d bf
       -0.47731382 -0.97120935 -1.2278337 -1.1021061
000130 cc 1b 8c bf fd f5 f6 be 6d 18 da 3d b3 1c ba bf
       -1.0945983 -0.4823455 0.1064919 -1.4540008
000140 a8 f9 bc bf b4 59 4c bf 44 1b 29 bf 18 7c 7e bf
       -1.4763689 -0.79824376 -0.6605723 -0.994081
000150 c6 1b 8c bf 84 6e ac be 40 df 7d bf 28 0b 91 be
       -1.0945976 -0.33678067 -0.9916878 -0.28328824
000160 08 44 9b bf 01 8a 69 bf 06 cf 1d be eb 12 c4 bf
       -1.2130136 -0.912262 -0.15411004 -1.5318273
000170 ed 9d 80 bf b4 f0 89 bf 93 ff 98 bf 61 c9 84 bd
       -1.0048195 -1.0776582 -1.1952995 -0.064837225
000180 82 00 61 bf 7f 2e 87 bf 8c 1b fa bd 15 20 18 bf
       -0.878914 -1.0561064 -0.122122854 -0.59423953
000190 8c db 01 bf 46 c5 a5 bf 1e 1b 4b bf 97 4c 86 bf
       -0.50725627 -1.2950828 -0.7933825 -1.0492123
0001a0 d8 cd e9 bd 9e 19 82 bf 3f 41 7d bf d7 3a 32 bf
       -0.11416215 -1.0164068 -0.9892768 -0.6962103
0001b0 97 02 20 bf 82 71 fa be 85 fd ed bd
       -0.6250395 -0.48914725 -0.11620621

JKNet_layer_list.1.running_mean f4 [111]
000000 21 05 ca 3f 9a 13 b0 c0 e9 95 72 bf eb a7 73 3f
       1.5782815 -5.502393 -0.94759995 0.951781
000010 69 a2 5a bf 8a 4a 3a bf 0c b2 d5 bf 7f 27 ad bf
       -0.8540407 -0.7276999 -1.669496 -1.3527678
000020 f0 84 4d bf d2 d4 12 3f 5f 52 58 40 09 19 62 bf
       -0.8028097 0.5735599 3.3800275 -0.8831945
000030 f1 30 25 be b2 aa c1 be 7b d9 96 3e 7e 56 2c c0
       -0.16131951 -0.37825543 0.294628 -2.692779
000040 ee d5 69 c0 49 5a a0 3d c3 0e 0b bf 2f 5d 89 3f
       -3.6536822 0.078297205 -0.543194 1.0731562
000050 20 8a 84 be 9c 23 1d 3f 91 43 d4 bc fd 1d 4b bf
       -0.2588663 0.6138246 -0.025911124 -0.79342633
000060 1b 8b d9 3d 80 42 cc be 0e ce 89 3e 96 26 8b 3f
       0.106222354 -0.39894485 0.2691502 1.087115
000070 7e c7 cb bf bc 7e fe 3f e2 3a 86 3f d4 66 0c c0
       -1.5920255 1.9882426 1.048672 -2.1937761
000080 cb 80 c9 3f aa d1 b1 3e 96 be 29 3f 62 d1 12 c0
       1.574243 0.34730273 0.66306436 -2.2940297
000090 6b 10 a8 be 9c 68 86 3f 7a 00 af 3f 3e 11 27 c0
       -0.32825026 1.0500674 1.367202 -2.6104274
0000a0 ee 80 05 be 11 01 ec 3f 41 44 64 bf 3a a4 66 3f
       -0.13037464 1.8437825 -0.8916665 0.9009434
0000b0 ed 2b 01 c0 67 3e 9c 3f b0 e5 82 c0 2a 67 df 3f
       -2.018306 1.2206544 -4.090538 1.7453358
0000c0 36 cd f5 3f a3 41 b3 3e 4f 5a d3 3d b0 d1 f4 bf
       1.920325 0.35011014 0.10319959 -1.9126492
0000d0 31 6c c1 bf 74 14 14 3f 1b 70 17 3e 8e 52 6a c0
       -1.5111142 0.5784371 0.14788859 -3.6612887
0000e0 44 9d 9c be 56 71 2a 3f fe f7 f1 be a2 64 c8 bf
       -0.30588734 0.66579187 -0.47259516 -1.5655711
0000f0 7f e5 40 3f b2 a3 cf be df 2f 0a 40 12 d6 4f bf
       0.75350183 -0.40554577 2.1591718 -0.8118602
000100 a4 49 9a 3f a5 4c 1d 40 48 7a 34 40 2d 48 ae bf
       1.2053723 2.457803 2.8199635 -1.3615776
000110 c8 1f 69 3f 64 5c 7e bf fa a9 a7 3f bd 2f 3b 3f
       0.9106412 -0.99359727 1.3098748 0.7311972
000120 61 4a aa be c4 34 68 3f dd e3 05 3f 32 14 a8 bf
       -0.33259872 0.90705514 0.52300817 -1.3131163
000130 61 90 e1 3f f6 5f a0 be 5e bb 50 c0 21 83 73 bf
       1.7622186 -0.31323212 -3.261436 -0.9512196
000140 66 15 c1 be 6a fe e5 3f e9 c3 29 3f dd df 18 bf
       -0.37711638 1.7968266 0.6631456 -0.5971659
000150 39 35 d5 3f d4 9f c0 3c 7c 21 83 be fb fb 2c 3f
       1.6656867 0.023513712 -0.25611484 0.6757199
000160 9c 71 0e 40 1e 9c 5c 3f 31 ed b0 bf 66 da a5 c0
       2.2256842 0.86175716 -1.3822385 -5.18291
000170 e9 9a 6d 3f d2 ec c7 3d bb 19 a7 bf 83 69 47 3e
       0.928145 0.09761967 -1.3054727 0.19473843
000180 78 5d 5f 40 96 6c 90 bd e5 e1 20 bf 34 ac f3 be
       3.4900799 -0.07051961 -0.6284469 -0.47592318
000190 47 d4 c1 3e b3 8c 83 3f e9 58 c0 3f 02 ae 4a 3d
       0.37857267 1.0277313 1.5027133 0.049482353
0001a0 d1 40 00 c0 0c d5 a9 bd c6 9e 13 3e 66 f5 5a be
       -2.003956 -0.082925886 0.14416036 -0.21382675
0001b0 60 60 ef be 98 54 35 be 10 70 e6 3e
       -0.46753216 -0.17708051 0.45007372

JKNet_layer_list.1.running_var f4 [111]
000000 b0 94 34 3e e6 17 db 3e 89 97 20 3e 90 3b f2 3d
       0.17634845 0.4279167 0.15682806 0.11827767
000010 0a 04 36 3e ca 50 78 3e 40 1e 25 3f 99 1a b6 3e
       0.17774978 0.24249569 0.6449928 0.35567167
000020 04 98 2c 3e 1a a0 2e 3e 42 9c a1 3d 13 e1 b3 3d
       0.16854864 0.17053261 0.07891132 0.08783164
000030 5c fa 85 3d 1d df a9 3e a2 17 32 3d 6b fb c5 3d
       0.06541893 0.33178034 0.04347957 0.09667095
000040 70 40 14 3e ba 5e 17 3e 56 e3 c1 3d 9d 1b 1f 3e
       0.14477706 0.14782229 0.09467189 0.15537877
000050 28 15 22 3e a0 a3 a0 3d 05 21 eb 3e 30 6f 17 3e
       0.15828383 0.07843709 0.4592363 0.14788508
000060 48 04 c6 3d 43 4e b1 3d 41 de 55 3d c1 44 27 3e
       0.09668785 0.08657505 0.05221391 0.16334821
000070 5e f0 12 3e 4e 1d 90 3d c0 ed c2 3d 57 9d b9 3e
       0.14349505 0.070368394 0.095180035 0.36252853
000080 b0 dd 3d 3e 8d 4f 08 3e 1a a9 18 3e c6 4f 83 3e
       0.18541598 0.13311596 0.14908257 0.256468
000090 01 ce f0 3d 19 c3 bf 3d 53 c0 6d 3d 64 95 10 3e
       0.11758042 0.09363384 0.058044743 0.14119488
0000a0 65 d6 1e 3e 92 af eb 3d 65 16 b8 3d 1c e3 8e 3e
       0.15511473 0.11508097 0.089886464 0.27907646
0000b0 e1 95 19 3e d3 8c bf 3d ec 39 ef 3d 45 40 6c 3e
       0.1499858 0.09353032 0.116809696 0.23071392
0000c0 e9 13 cd 3d 2e 65 c5 3d 54 d6 46 3e 5a 4c 29 3e
       0.10013563 0.09638439 0.19417697 0.16533032
0000d0 a8 6e fa 3e 17 54 be 3d c6 0c 24 3e ed 83 f9 3d
       0.4891255 0.092933826 0.16020498 0.12183366
0000e0 13 b6 00 3e 34 3e 46 3e fd 4f 4d 3e 6a 46 82 3e
       0.12569456 0.19359666 0.20050044 0.25444347
0000f0 89 09 9c 3d 6f 5b 69 3e 38 d4 71 3e 91 6d 4a 3e
       0.07619006 0.22788785 0.23616111 0.19768359
000100 37 79 c7 3d ed 13 6d 3d 94 0a 9d 3d 42 88 92 3e
       0.09739917 0.05788033 0.07668033 0.2861958
000110 cd ef 0c 3e a7 fd 11 3e 0a 32 2f 3e 96 4c 46 3e
       0.13763352 0.14256917 0.17108932 0.19365153
000120 28 19 b5 3d b2 35 dd 3e 39 d9 53 3e 5e 4f 1d 3f
       0.08842689 0.4320503 0.20688333 0.6144923
000130 fb 6b d6 3d 9e d8 54 3e f7 b1 b4 3e 90 f2 d9 3d
       0.104698144 0.20785758 0.35292026 0.10641968
000140 56 35 c9 3d 99 1d 49 3e 56 d3 7c 3e 59 55 9a 3d
       0.09824626 0.19640197 0.24689993 0.0753581
000150 07 b6 f3 3d 2d 89 0f 3e 67 6d 4b 3e d4 01 f5 3d
       0.11899953 0.14017172 0.19865952 0.11963239
000160 ef 37 e6 3d d6 5c d3 3d ed f7 6f 3e 5b d9 61 3e
       0.11241137 0.103204414 0.2343442 0.22055571
000170 ba 0a 88 3d 35 8b c4 3d 0c 63 d4 3d 4b 46 d8 3d
       0.06642671 0.09596864 0.10370454 0.10560282
000180 55 8d 04 3e 08 1b 8f 3d ac 96 f4 3d 7f e8 2b 3e
       0.12944539 0.06987578 0.11942801 0.16787909
000190 b2 04 79 3e 85 34 a4 3d e7 45 2c 3e 9f ef 2e 3e
       0.24318197 0.0801783 0.1682354 0.17083596
0001a0 c6 52 58 3e 91 9e 0b 3e 31 83 ef 3e b9 30 e7 3d
       0.21125326 0.13634707 0.4677978 0.1128859
0001b0 4b 78 fa 3d 8e 39 85 3e 8f bd 17 3e
       0.12229975 0.26020473 0.14818405

JKNet_layer_list.4.weight f4 [111, 111]
000000 dd b4 97 be 49 ee 72 be a0 6d 7a 3b f2 78 e9 be
       -0.29630175 -0.23723711 0.0038212314 -0.45600086
000010 d0 f0 03 3f 36 be 74 bf b4 85 68 be c5 8d 6a bd
       0.51539326 -0.9560274 -0.22707254 -0.05726411
000020 24 34 15 bf 45 73 1e 3d a9 73 0c 3f 72 40 0e bf
       -0.58282685 0.03868415 0.54863983 -0.55567086
000030 4e 37 53 be 1c 45 23 bf 4d 2e 12 3e 68 7b 99 be
       -0.20626566 -0.6377733 0.14275475 -0.29976964
000040 89 bb 1c bf 27 e1 d1 bc 38 b6 6d 3e ad 02 3f 3e
       -0.61223656 -0.025620056 0.23214042 0.18653364
000050 35 e7 9c bc 6f d9 a2 3e fc fc 88 be 8f 33 7e 3e
       -0.019153217 0.31806514 -0.26755512 0.24824356
000060 97 d9 60 3d 92 18 c5 be 8c 30 4c bf 79 d1 cd 3e
       0.05489501 -0.38495308 -0.79761577 0.40198877
000070 8e 27 7a be f4 41 04 be 4f 05 ce 3e e9 42 09 bf
       -0.24429151 -0.12915784 0.40238425 -0.5361772
000080 af 05 f1 3e bf 11 ad be 7e 7a 19 bf bf f4 a3 be
       0.4707465 -0.33802602 -0.59952533 -0.32022664
000090 a8 58 f5 3e 4b 4c 06 3e f5 e4 26 3e 11 b0 27 bf
       0.47919202 0.13115041 0.16298278 -0.6550303
0000a0 47 db 2f bf 51 c2 7b bf 8a 93 0a bf 97 10 5d bf
       -0.68693966 -0.9834338 -0.54131377 -0.8635344
0000b0 06 bb 97 3d 9d 41 75 3e 22 24 f0 be af b4 e1 be
       0.07408719 0.2395081 -0.46902567 -0.44083163
0000c0 76 41 00 bf db 3e 22 bf bc c4 51 be c0 f6 b8 3e
       -0.50099885 -0.6337716 -0.20485204 0.36125755
0000d0 6f e1 c7 be b7 0f aa 3c 89 cd 61 3e a8 51 c4 be
       -0.3903918 0.020759447 0.22051062 -0.3834355
0000e0 bb 37 ab 3e 4a ae 91 be 09 a8 7e 3e a0 78 d4 3d
       0.33440956 -0.28453285 0.24868788 0.1037457
0000f0 88 21 47 3e 47 04 df bf 79 bb 8e 3d fa c7 88 be
       0.19446385 -1.742318 0.06969351 -0.2671507
000100 61 f0 ca 3e 93 ab e4 3e 53 a1 46 bf fa 0d 12 3f
       0.3963652 0.4466215 -0.7758991 0.57052577
000110 eb 06 23 bc 0b 00 69 bf 7c db e8 3e 1b 25 20 be
       -0.00995038 -0.9101569 0.45479953 -0.15639155
000120 fb 56 84 3d e2 ce 1b bf ee a2 30 bf f9 56 2d be
       0.06461903 -0.60862553 -0.6899861 -0.16927709
000130 d0 de 20 be a5 e6 76 3e 57 35 ab bd 5c 89 3d 3e
       -0.15709996 0.24111421 -0.08359783 0.1850943
000140 d2 96 b3 be 83 d8 25 3e 06 0e 0b bf 9f f3 f1 3e
       -0.35076004 0.16195874 -0.54318273 0.4725618
000150 b3 87 fb 3d 13 38 da bc ef e7 c3 bc 51 c7 73 be
       0.12281742 -0.026638066 -0.023914305 -0.23806502
000160 1c 6d bc 3d 74 e9 23 3e ad 9a 6f 3e 92 0f 62 be
       0.092004985 0.16007024 0.23398848 -0.22076252
000170 5e 40 6a be 4d 8b ec 3e 15 01 8b 3e b3 12 4a 3e
       -0.22876117 0.46200028 0.27149263 0.19733696
000180 ce ce 6c bf 33 23 0c 3a 2e b2 06 be 5b 56 13 3e
       -0.9250306 0.0005345821 -0.13153908 0.14388411
000190 a5 24 41 be 0e 78 15 3f ca 1b 3b 3c 1c 17 b2 be
       -0.18861635 0.58386314 0.0114202 -0.34783256
0001a0 5d c1 86 be de be f6 be b6 68 02 be e0 67 00 bf
       -0.263194 -0.48192495 -0.12735257 -0.501585
0001b0 05 d9 9a bd bc 9c 8e 3d 90 85 ba be 2e 37 b5 3e
       -0.075609244 0.069634885 -0.36430025 0.3539366
0001c0 50 80 64 bf c3 f3 80 3e e2 36 ba bd e0 c7 a0 bf
       -0.8925829 0.25185975 -0.09092499 -1.2560997
0001d0 4f 4f e1 bd b4 08 c4 be eb f7 84 be eb 89 79 3f
       -0.11001455 -0.3828789 -0.25970396 0.9747607
0001e0 4d de f8 3e 9c 46 4e 3f 2c e6 8f 3e 00 30 56 3e
       0.48607102 0.8057649 0.28105295 0.20916748
0001f0 c4 37 2c be 36 c3 75 3e 41 74 e4 be 18 0a e7 bd
       -0.16818148 0.24000248 -0.44619945 -0.11281222
000200 d1 37 1a 3f ec 46 8a be 5e 13 e4 3d 07 7e 0d 3f
       0.6024142 -0.27007234 0.111365065 0.5527043
000210 fa 29 32 3e 62 b5 24 be 0e a6 83 3e c1 49 d7 3e
       0.17398825 -0.16084817 0.25712627 0.42048457
000220 49 9d b3 3c c6 2f a5 3e 4b c2 5d 3e ad 8c 66 bd
       0.021925585 0.3226301 0.21656148 -0.056286503
000230 6d 99 c1 3e af 80 85 3e b3 32 b8 be 38 f3 c2 3d
       0.37812367 0.2607474 -0.3597618 0.095190465
000240 73 39 e0 be a8 72 12 3f 60 aa 96 be 9d 00 b3 3e
       -0.4379383 0.572062 -0.2942686 0.34961405
000250 f7 71 9c bd 0d 3b b8 3e 0b 28 1c bf 14 42 4b be
       -0.076389246 0.35982552 -0.609986 -0.19849426
000260 34 74 68 3f 56 27 97 be 78 ab 47 be 2c 64 9a 3e
       0.9080231 -0.29522198 -0.19499004 0.3015455
000270 f4 7b 5e 3e e9 4a a8 be 25 08 ac 3d 8b 6a df 3e
       0.21726972 -0.32869652 0.08399991 0.43635973
000280 91 fb e3 3e df e6 59 3e 7a ab 94 be a8 87 30 3c
       0.44527867 0.21279477 -0.29037076 0.0107745305
000290 65 5f 82 be 74 3b d4 3e 33 46 3c be 77 b7 ce 3e
       -0.25463405 0.4145161 -0.18386154 0.40374348
0002a0 f9 46 20 bd bb 29 86 be 6b 4a a5 3e 80 00 91 3e
       -0.039130185 -0.26203713 0.3228334 0.28320694
0002b0 b0 0d d7 3d 8f 7d 28 3f 00 71 ba be 96 c8 1e 3f
       0.105006576 0.6581659 -0.36414337 0.6202482
0002c0 53 3f 78 3e d7 be d2 3e 30 b3 3a 3e 16 a3 92 be
       0.24242906 0.41161224 0.18232417 -0.2864005
0002d0 ea 73 6e be fd 28 52 3f f3 f6 5e bc 9e 5b 46 3e
       -0.23286405 0.82093793 -0.013608682 0.19370887
0002e0 c3 b3 c5 be ec a1 be 3e cb b9 65 be 5d d9 3b 3e
       -0.3861371 0.37232912 -0.22434156 0.18344636
0002f0 a4 b8 5c 3d 5e 55 87 be f5 b4 5a 3e 65 7c c7 be
       0.053887025 -0.26432317 0.21358092 -0.38962093
000300 54 1d 1a 3f 84 ef e6 3d c7 3e 58 3e 93 8c 75 3d
       0.60201 0.11276153 0.21117698 0.059948515
000310 37 03 60 3e c3 4a 01 bf 46 8e a5 be e5 80 12 bf
       0.21876226 -0.505047 -0.3233511 -0.5722793
000320 a3 aa 1c be f2 db 79 be 2e 62 71 bf db bd 68 3d
       -0.15299468 -0.24400309 -0.94290435 0.056821685
000330 e7 94 d7 3d 2f 61 6b be 27 6a a8 3e 74 ef 5d 3f
       0.10526448 -0.22986291 0.32893488 0.866935
000340 95 33 8f 3e a8 f8 90 3e 1f 4f e8 3d d8 55 6c 3e
       0.2796904 0.2831471 0.11343216 0.23079622
000350 17 20 30 bc 41 0a 59 3f 43 f2 11 3f 6b 6a 92 3d
       -0.010749838 0.8478127 0.5701029 0.07149204
000360 4f 51 d8 3d 3f c0 d9 be 25 b0 91 bd b3 50 58 3d
       0.105623834 -0.42529485 -0.07113675 0.052811336
000370 a6 f1 74 be 09 7d 05 be 9c f8 2d 3d e3 28 42 bf
       -0.23920307 -0.13035978 0.04247342 -0.7584364
000380 ee 5d 0c 3e 57 c2 d0 3e 65 9e 37 3f a8 42 1b 3e
       0.13707706 0.4077327 0.71726066 0.15162146
000390 fe 81 06 3e 5d fc 6b 3e c8 27 1e 3f d9 1b ae bf
       0.13135526 0.23045488 0.6177945 -1.3602248
0003a0 89 bc 46 3e cd 52 d6 3e a4 ee 78 be 77 4e aa be
       0.19407858 0.41860047 -0.24309784 -0.3326299
0003b0 2a 0a 8c be 93 ec 63 3e c8 ed f0 bc 99 d1 15 be
       -0.27351505 0.22258215 -0.029410258 -0.14630736
0003c0 7d e5 52 3f e7 a3 fc be 4d 83 96 be c8 12 da bd
       0.8238142 -0.49343798 -0.2939705 -0.106481135
0003d0 be 59 d1 3e c6 85 8c be 47 39 a0 3e c7 3c e7 bd
       0.4088878 -0.2744581 0.312937 -0.11290889
0003e0 3b 84 26 3f 45 a6 e7 3e 7d af 84 3e 73 74 6c 3e
       0.6504552 0.4524404 0.25915137 0.23091297
0003f0 70 f6 1a be 44 d0 80 bd d8 61 51 3e 87 8b 58 3e
       -0.15133071 -0.062897235 0.2044748 0.21146975

JKNet_layer_list.4.bias f4 [111]
000000 27 f3 c7 bd ea d6 4a bd 88 19 a7 bd ec bb 56 3e
       -0.097631745 -0.049521364 -0.081591666 0.20970124
000010 81 9a 2d bc 17 5a 19 be 8b 7e 38 bd 20 0e c2 3e
       -0.010595919 -0.14975773 -0.045042556 0.37901402
000020 a2 e1 a2 3d 57 57 d8 3c d1 2d 1c 3d e9 c7 e4 3d
       0.07953192 0.026408834 0.03812963 0.11170942
000030 9f 21 5b 3e 56 b3 ba 3d f7 b7 09 3d 47 55 85 3e
       0.21399544 0.09116237 0.03362271 0.26041624
000040 95 af 32 be 85 5c 00 3e fb e3 de 3c 1b 7d 77 be
       -0.17449792 0.12535293 0.027208319 -0.24168818
000050 ab 82 51 3e f6 be ca bd 66 3b 38 3e 1b db 0a 3e
       0.20460002 -0.09899704 0.17991409 0.13560145
000060 8b 48 6c 3e 46 87 78 bd f6 d7 cc 3d 0e 8d 3a 3e
       0.23074548 -0.06067588 0.10002129 0.1821787
000070 7b 63 37 3e 79 52 b9 3d 4b 40 a1 bd 29 c4 d0 3c
       0.17909043 0.090489335 -0.07873591 0.025484161
000080 2e 92 5a 3e 86 04 3e 3e 68 90 ba bb ac 28 95 3e
       0.21344826 0.18556413 -0.005693484 0.29132593
000090 3c bc 9c bd 72 a1 19 3c 5b 8b c3 bd 45 48 3f bd
       -0.0765309 0.0093768705 -0.09548064 -0.04669978
0000a0 5b b9 a7 3d 0e 64 5d bd 75 af 20 bd c3 a7 3d 3e
       0.081896506 -0.054050498 -0.03922983 0.18521027
0000b0 3a b8 5f 3e 9e 93 90 3d 6c 5b d5 3d bb 55 e1 bc
       0.2184762 0.07059406 0.10417828 -0.0275067
0000c0 4d c8 2f 3d c3 4b fc 3d bf 8f 17 be 10 b2 3f bd
       0.04291563 0.12319138 -0.14800929 -0.046800673
0000d0 61 03 b2 3d 07 a4 50 3e 42 cb 54 3c 43 49 21 3e
       0.08692051 0.20375071 0.012987914 0.15750603
0000e0 a7 28 82 be 45 56 12 be e1 36 38 3e 59 8a 87 3e
       -0.2542164 -0.14290722 0.17989685 0.26472738
0000f0 51 59 34 be 2d e9 15 3e 4d 29 6b be bd 26 10 3e
       -0.17612197 0.14639731 -0.22964974 0.14077277
000100 40 51 4e 3e c6 36 ec bc a4 ad 49 bd 0e c8 d3 3d
       0.20148182 -0.028834712 -0.049237862 0.10340892
000110 1e 6c 57 bd a4 49 2e 3e 75 3d 10 3e 72 69 1f be
       -0.052593343 0.17020279 0.14085944 -0.15567568
000120 90 f1 57 3d 72 b1 19 be 2e 13 3d be 6b 12 b5 3e
       0.052720606 -0.15009096 -0.18464348 0.35365614
000130 e4 bb 7a 3e 28 dc 9b 3c 3c 0b bd be 71 5e ef 3d
       0.24485737 0.019025877 -0.36922634 0.11687935
000140 9a 1c 44 be 8e 46 04 3e c7 2f 2d 3c 33 dc b4 bd
       -0.19151536 0.1291754 0.010570473 -0.08831062
000150 2c 88 47 3e 67 fa d2 bc c0 a3 ff bd da 35 27 3e
       0.19485539 -0.025754167 -0.12482405 0.16329136
000160 41 02 9c bd 2e 2d 99 be 47 52 45 3e 68 53 c0 bc
       -0.076176174 -0.29917282 0.19269668 -0.023477271
000170 ba 4d 3c be 6c 77 2d 3e e3 20 1b 3e 13 4f cf 3d
       -0.18389025 0.16940087 0.15149264 0.10122504
000180 25 73 30 bd bf f6 28 3d 13 d1 6e bd e3 d7 3a 3e
       -0.04307856 0.04125094 -0.058304857 0.18246417
000190 6f 01 37 3c f8 0f 0c bd ae a6 87 bb 1f fb 81 3e
       0.011169775 -0.034194916 -0.004139743 0.25386903
0001a0 26 d5 5b 3e 31 d5 bc bd 53 a9 a2 be 26 2a 3e be
       0.21468028 -0.092203505 -0.3176981 -0.18570766
0001b0 17 29 7b bd 44 7f 1f bc 30 ee 4d bd
       -0.061318483 -0.009734932 -0.05027598

JKNet_layer_list.5.weight f4 [111]
000000 e8 10 54 3f 18 5a 93 3f 14 56 96 3f 9f 0b 04 40
       0.82838297 1.151187 1.1745019 2.0632093
000010 82 8e 84 3d 0d c0 d4 3f 6a bd b3 3f de b7 2a 40
       0.06472494 1.6621109 1.404218 2.6674724
000020 39 71 ef 3e a3 b3 92 3f 89 6f a0 3f 79 ae 2d bc
       0.4676607 1.1461071 1.2534038 -0.01060068
000030 4a 7f b0 3f a3 22 81 3f 3d d7 19 3f b4 d1 5d 3f
       1.3788846 1.0088695 0.6009405 0.86648107
000040 fb 8a 89 3f bf 98 c9 3f 6c f9 81 3f 7a 2c ba 3f
       1.0745538 1.574974 1.0154243 1.4544823
000050 9c 40 96 3f 5e 7f dc 3f 7f d2 77 3f 55 57 cd 3f
       1.1738467 1.7226369 0.96805567 1.6042277
000060 03 4c bc 3f 74 ce b9 3f 09 4c b2 3f a2 91 14 40
       1.4710697 1.451613 1.3929454 2.3213887
000070 62 1a ab 3f 9a 35 d4 3f b6 dc 1c 40 cb cd 20 3f
       1.3367426 1.6578858 2.4509711 0.62814015
000080 fb fb fe 3f a2 86 15 40 68 0a 89 3f bf 3d 10 40
       1.9920648 2.3363423 1.0706301 2.2537687
000090 d2 c7 52 40 0a 90 ca 3f 2d 0a b5 3f 1d eb b5 3f
       3.293446 1.5825207 1.414373 1.4212376
0000a0 4d 91 0b 40 1d 76 a0 3f 78 e9 d2 3f 88 1a b8 3f
       2.1807435 1.2536045 1.6477499 1.4383097
0000b0 ac 22 a5 3f f6 93 c3 3f ab 8a 8c 3f d8 fe 1b 3f
       1.2901206 1.5279529 1.0979818 0.60935736
0000c0 9a 42 e2 3e 5c a9 db 3f d3 60 9a 3f cd b6 31 3f
       0.44191438 1.7161059 1.2060798 0.69419557
0000d0 4b 82 a6 3d 2d 2d 0a 3f bd 81 14 40 88 a9 96 3f
       0.0813032 0.5397518 2.3204186 1.1770487
0000e0 b0 d5 9d 3f f1 28 dd 3f a4 fe 89 3f 57 b8 1d 40
       1.2330837 1.7278119 1.0780835 2.4643762
0000f0 fe 48 ce 3f 11 73 81 3f fe 27 07 40 77 54 9e 3f
       1.6116025 1.011324 2.111816 1.2369527
000100 7d 19 0b 40 4e 1c c3 3f 05 cb 95 3f bf 9b 9f 3f
       2.1734307 1.5243013 1.1702582 1.2469405
000110 b7 81 9e 3f 5a 1d c5 3f f4 4c 15 40 2d 9e 85 3f
       1.2383336 1.5399582 2.3328218 1.0438896
000120 92 51 a7 3f e8 4a 1a 3f 63 04 e0 3f 86 79 f6 3f
       1.3071768 0.6027055 1.7501339 1.9255836
000130 f9 c2 42 3f da 61 8f 3f b8 cb ae 3e 79 b9 2c 40
       0.76078755 1.1201737 0.341398 2.6988204
000140 c0 af 4d 3f b9 fb c0 3f 46 c6 00 bd 81 79 60 3f
       0.803463 1.507682 -0.03143909 0.876854
000150 73 a4 71 3f 02 ba 32 3f 80 7d e4 3e 84 32 c5 3f
       0.94391555 0.69815075 0.44627 1.5406041
000160 02 7a 0b 40 e2 bf b1 3f 56 e1 d1 3d 07 29 04 40
       2.1793218 1.3886683 0.102480575 2.065004
000170 f0 94 cc 3f e0 15 51 3f fa 56 fc 3f 7f 31 fe 3f
       1.5982952 0.81674004 1.9714043 1.9858855
000180 90 5b 59 3f bc 5b f3 3f ba 77 42 3f 0f f5 75 3f
       0.8490534 1.901237 0.7596394 0.96077055
000190 bf 37 7f 3f f9 e2 e1 3f 56 96 a2 3f 56 88 8e 3f
       0.99694437 1.7647392 1.2702129 1.1135356
0001a0 44 03 18 40 4d f2 9d 3f 9b 69 d6 3f 67 94 36 40
       2.3751993 1.2339569 1.6750978 2.8528078
0001b0 dc f3 d0 3f 09 d7 9e 3f eb d5 82 3f
       1.632442 1.2409374 1.0221533

JKNet_layer_list.5.bias f4 [111]
000000 e1 93 20 be 05 cd 81 bf 4d 5a 2e 3e 94 1a 60 bf
       -0.15681411 -1.0140692 0.17026635 -0.87540555
000010 e1 18 17 bf 65 d9 84 bf d7 e5 41 bf 30 a7 48 bf
       -0.5902234 -1.0378844 -0.7574133 -0.7838011
000020 6c aa 24 be 6a 46 06 3d 98 d3 de be a2 b8 15 be
       -0.16080636 0.032781996 -0.43520808 -0.14621213
000030 fc 4d ea be ae d3 0a bf 49 f5 87 3e 75 53 36 be
       -0.45762622 -0.5422925 0.26554325 -0.17805274
000040 b9 10 94 bf 95 4d 5a bf 64 d2 6d bf c8 9d 92 3d
       -1.1567603 -0.8527463 -0.92899156 0.07159001
000050 ce 9e 21 bf b8 29 f9 be 87 4d f4 be d0 b0 c1 bf
       -0.6313294 -0.4866464 -0.477154 -1.5132084
000060 e8 f8 1c 3f cc a0 37 bf b5 b1 dd be 6b 31 51 be
       0.613173 -0.7172973 -0.43299642 -0.20429008
000070 c5 1e 49 bf ec 04 2a bf 92 c0 80 be d7 92 c9 bf
       -0.78562576 -0.6641376 -0.2514692 -1.5747937
000080 27 7f e2 bd c4 ad 49 bf 8d 43 0f bf 61 10 91 bf
       -0.11059409 -0.7878077 -0.5596245 -1.1333123
000090 4f c3 1d bf cf ab 3a bf 52 2e b3 bf 79 c6 2c bf
       -0.6162614 -0.7291841 -1.3998511 -0.67490345
0000a0 6f ca 5c be ed 23 04 bf d8 03 3d 3e 35 3d 9f be
       -0.21561597 -0.5161732 0.18458498 -0.31101385
0000b0 75 fb 6b bf 4c d3 9d 3c 81 cf be be df bc 2b be
       -0.9218057 0.019265793 -0.37267688 -0.16771267
0000c0 fd 96 b2 be 29 26 68 bf 1e 51 f3 be b2 f0 c3 be
       -0.3488082 -0.9068323 -0.47522825 -0.38269573
0000d0 4d f6 3e bf db df bb bd 00 1f 31 3e cb 17 1f bf
       -0.74594575 -0.091735564 0.17296982 -0.6214568
0000e0 35 bb 5b bf 88 0f d6 be 78 0c f3 be 9b ec 61 bf
       -0.8583253 -0.41808724 -0.4747045 -0.88251656
0000f0 08 a2 97 bf 10 4b 38 3b 48 c5 16 bf 63 93 7e bf
       -1.1846323 0.0028120913 -0.5889478 -0.99443644
000100 94 22 4f bf 9a 6d 83 bf a4 72 24 bf 99 37 85 be
       -0.8091214 -1.0267823 -0.6423743 -0.2601898
000110 ff ad 0b bf 79 a5 91 3e d1 26 82 bf 57 b0 26 be
       -0.5456237 0.28446558 -1.0168096 -0.16278206
000120 02 d1 0e bf dd e4 85 bf 4f 32 4b 3e ef 20 b1 be
       -0.5578767 -1.0460469 0.1984341 -0.3459544
000130 42 8f 81 be eb a8 a8 be f1 0e fe be 26 24 7f bf
       -0.2530461 -0.32941374 -0.49620774 -0.99664533
000140 c5 39 ce be 6b aa a8 bf 55 c2 04 bf 13 9d 67 be
       -0.4027845 -1.3177007 -0.5185903 -0.22618513
000150 06 c3 c2 3c dc 5f 2f bf db 7c 82 3e 9d 42 0e bf
       0.023774635 -0.68505645 0.25485882 -0.55570394
000160 f7 3c c0 3d c4 f7 c9 be 80 92 23 bf 20 de 26 bf
       0.09386628 -0.39446843 -0.63895416 -0.65182686
000170 08 9c 32 bf a6 b1 2e bd b7 98 87 bc 54 ed a1 bf
       -0.69769335 -0.042649888 -0.016552312 -1.2650552
000180 fe 37 c8 bd 32 9b 95 be 7c fe 88 be 06 10 0c bf
       -0.09776305 -0.29219967 -0.26756656 -0.5471195
000190 6b f6 7b be a4 f2 a9 bf fb 8c f1 bd b6 e7 7d be
       -0.2460572 -1.3277173 -0.11794468 -0.24795422
0001a0 77 a0 d1 bf 0c 48 54 bf 95 07 56 be 1d b9 1e bf
       -1.6377095 -0.82922435 -0.2090133 -0.6200121
0001b0 93 0d be bd a7 43 f6 be 78 2e 23 bf
       -0.09279933 -0.4809849 -0.6374278

JKNet_layer_list.5.running_mean f4 [111]
000000 7d 01 70 c0 02 ec 95 3f c5 29 d5 3f 2e 4f 98 c0
       -3.7500908 1.1712649 1.6653372 -4.7596655
000010 47 b3 e8 3f b8 62 1a c0 98 cf e1 c0 d2 35 3b c0
       1.8179711 -2.4122753 -7.056591 -2.92516
000020 10 3f 8d c0 d1 99 68 c0 5f f3 11 c0 5e 8b b3 bf
       -4.413948 -3.6343882 -2.2804792 -1.4026906
000030 84 19 50 c0 51 2a 1a be 2c dd a4 3f 07 ea af 3e
       -3.2515574 -0.15055205 1.2879996 0.34358236
000040 e6 ac ee bf ae 7d 35 c0 4b 96 ce 3f ce 57 48 bf
       -1.8646514 -2.8357959 1.6139616 -0.7825898
000050 b5 85 5a c0 31 55 1d c0 c7 6f 91 c0 ac 77 5f 40
       -3.4144108 -2.4583247 -4.5448947 3.4916792
000060 25 17 d1 3f cb 78 1b c0 30 22 df bf ae e5 c9 3f
       1.6335188 -2.4292476 -1.7432308 1.5773218
000070 c2 86 34 c0 d1 f6 d1 c0 97 96 2f c0 6f 1f b2 bf
       -2.820725 -6.561379 -2.7435663 -1.3915843
000080 cc a5 ab c0 9b 60 b2 c0 28 63 35 be 9f 7e 8d 3f
       -5.363989 -5.5742927 -0.17713606 1.1054267
000090 00 7d 5a c0 7c cf 98 c0 39 88 03 40 cb e2 86 c0
       -3.4138794 -4.7753277 2.0551894 -4.2151847
0000a0 46 b4 4b c0 8a a8 aa c0 a8 a0 09 c0 54 c4 8f c0
       -3.182878 -5.3330736 -2.1504307 -4.492716
0000b0 36 6a 50 c0 09 e9 5d c0 6a 9d aa 3f 72 78 51 bf
       -3.2564826 -3.4673483 1.3329289 -0.8182441
0000c0 f0 18 01 bf 1a 80 8b c0 13 18 b3 c0 99 6a 03 c0
       -0.50428677 -4.3593874 -5.5966887 -2.0533812
0000d0 eb 88 88 bf 0f 60 9d bf e5 d6 e6 bf 31 19 cf c0
       -1.0666784 -1.229494 -1.8034331 -6.471825
0000e0 15 84 ac c0 3a 71 f3 3c 82 34 5a c0 3d ff 6e c0
       -5.3911233 0.029717077 -3.4094548 -3.7343285
0000f0 a0 83 d6 bf 8c 77 9f be 2e f5 b2 be 4e 9a 7a c0
       -1.6758919 -0.31145895 -0.34952682 -3.915668
000100 ad 99 48 40 93 a3 71 bf 64 33 ac c0 4d 87 ab bf
       3.1343796 -0.9439022 -5.3812733 -1.3400666
000110 2f 3f 9a c0 6b a0 ae bd 78 52 1d c0 06 e8 6d c0
       -4.820213 -0.08526691 -2.4581585 -3.7172866
000120 22 6e fc c0 6c 91 15 3f 70 cd 27 c0 7f 51 ff bf
       -7.888444 0.5842502 -2.621914 -1.9946746
000130 92 1f 62 bf 85 1b 6a c0 d4 32 ca bf b1 40 bf c0
       -0.8832942 -3.6579297 -1.5796762 -5.976647
000140 b3 f3 82 bf a2 63 ab c0 95 ce d6 3f fb 46 4c c0
       -1.0230621 -5.355912 1.6781794 -3.1918323
000150 ec 07 a8 bf 1c 87 a3 3f 90 aa 1b c0 3b 86 8d c0
       -1.3127418 1.2775607 -2.4322853 -4.4226356
000160 f0 08 ba bf 6f 55 5e c0 43 09 3d 3f 14 a0 46 c0
       -1.4533978 -3.4739645 0.7384226 -3.1035204
000170 6d 77 33 3e 40 fe f8 bf 8b 57 35 c0 77 52 c5 c0
       0.17526026 -1.9452591 -2.8334682 -6.1663165
000180 49 75 03 c0 cb 21 9c 40 1a 38 72 c0 f8 ad 0b 40
       -2.0540335 4.879125 -3.7846742 2.1824932
000190 32 0a 43 c0 26 f4 d7 3f de 44 18 c0 00 a1 a2 be
       -3.0474973 1.6871383 -2.3792033 -0.31763458
0001a0 d6 60 b7 c0 21 60 7c bf 3d 7e 0a c0 4d 7c a4 c0
       -5.730571 -0.9858418 -2.163955 -5.1401734
0001b0 01 56 9d 3e d5 35 6d c0 ad 2c c9 3f
       0.30729678 -3.7064106 1.5716759

JKNet_layer_list.5.running_var f4 [111]
000000 c0 c8 cb 41 f7 fb aa 41 04 f3 fc 41 f0 34 b4 41
       25.473022 21.37303 31.61866 22.525848
000010 ab dd 64 41 5f ce c4 41 8a 06 ed 41 87 d0 37 42
       14.304118 24.600767 29.628193 45.95364
000020 0b 3c 91 41 96 80 00 42 cc 76 b7 41 93 a6 1f 41
       18.154318 32.125572 22.933006 9.978168
000030 da 87 c7 41 27 80 49 41 02 c8 81 41 c8 f9 24 41
       24.941334 12.593787 16.22266 10.310982
000040 5f 3c 11 41 2d f0 af 41 a2 6a 20 41 43 d0 a5 41
       9.077239 21.992273 10.026033 20.72669
000050 dc 63 83 41 0a b7 af 41 95 f3 56 41 4e e5 b0 41
       16.42376 21.964375 13.434468 22.111965
000060 97 bc b3 41 77 05 81 41 56 b3 a4 41 72 ab 00 42
       22.467085 16.127668 20.587566 32.167427
000070 22 12 91 41 d2 47 ba 41 1a 64 61 42 51 d6 11 41
       18.133854 23.285069 56.347755 9.114823
000080 2b e1 15 42 d4 9a 41 42 6f eb 80 41 42 a9 0a 42
       37.46989 48.4012 16.114958 34.66529
000090 14 c1 3a 42 10 80 bc 41 50 d3 a7 41 24 7b ad 41
       46.688553 23.56253 20.97818 21.685127
0000a0 f2 36 37 42 30 5b 47 41 d0 e5 06 42 2c 1f ae 41
       45.803658 12.459763 33.724426 21.76522
0000b0 08 00 40 41 9c fb 1e 42 a8 8c 74 41 92 9f 02 41
       12.000008 39.745712 15.28434 8.163958
0000c0 b5 e3 54 41 ce ce 29 42 9c fa d1 41 22 93 8d 41
       13.305593 42.451958 26.247368 17.696842
0000d0 bb 3a 5c 40 ae f7 84 41 99 3b 11 42 55 7f 0f 42
       3.4410846 16.620937 36.3082 35.874348
0000e0 50 c4 f6 41 63 3d 08 42 74 cb 28 41 fb 39 18 42
       30.845856 34.059948 10.549671 38.05662
0000f0 72 93 6d 41 4c bf ac 41 da 74 d5 41 af 3e 45 41
       14.848497 21.593407 26.682056 12.327804
000100 3c c8 d6 41 fc e6 1a 41 c7 cf c9 41 d0 80 16 42
       26.84777 9.681393 25.226454 37.625793
000110 03 94 ae 41 01 cd b8 41 a6 f2 77 42 07 5e 8a 41
       21.822271 23.1001 61.98696 17.295912
000120 74 13 2b 42 d8 d6 94 41 04 7f 1d 42 6c 47 bd 41
       42.768997 18.604904 39.37404 23.659874
000130 70 5f 2c 41 cb 3e 8b 41 61 a2 8d 40 44 2d 38 42
       10.7733 17.40566 4.4260716 46.044205
000140 89 96 38 41 07 20 16 41 6c dc 0a 41 35 79 80 41
       11.536752 9.382819 8.678814 16.059183
000150 5e 6f 01 42 1d 0a 03 41 d9 4b 68 41 1e 27 c4 41
       32.358757 8.189969 14.5185175 24.5191
000160 56 5d 1e 42 fe 3c ae 41 f6 3e 24 41 1d f8 1b 42
       39.59115 21.779781 10.265371 38.9923
000170 fb 15 49 41 c8 79 4f 41 e9 78 4f 42 b9 77 11 42
       12.567866 12.967232 51.868076 36.366917
000180 b5 d0 9d 41 2d 95 84 42 63 69 93 41 86 e8 76 41
       19.726908 66.29136 18.426458 15.431768
000190 c7 29 59 41 2b c7 8d 41 43 15 b7 41 e8 a7 9c 41
       13.5727 17.72225 22.885382 19.581985
0001a0 ec 74 fa 41 62 e1 27 41 c5 dd 8d 41 3e 16 2f 42
       31.30709 10.492525 17.733286 43.77172
0001b0 f5 cc 21 42 a9 bd 14 42 43 31 5b 41
       40.450153 37.185215 13.699527

JKNet_layer_list.8.weight f4 [111, 111]
000000 6c f1 2d 3e 06 f1 aa be 4a 30 cf be 9e 7d da be
       0.16986626 -0.3338701 -0.4046653 -0.42673963
000010 78 9c 38 be b4 aa c8 3e da da bc 3e 23 17 22 bf
       -0.18028438 0.39192736 0.3688572 -0.63316554
000020 cc 48 9a 3e 44 04 73 bd 0b 40 cb 3e 01 e7 0f bf
       0.30133665 -0.05933024 0.39697298 -0.5621186
000030 6b 70 7e 3e 05 dd 92 3e 35 5e 61 be ad 5c a3 bd
       0.24847572 0.2868425 -0.22008593 -0.07976661
000040 e4 29 af 3e 2d 67 05 bd 44 11 81 be a2 e2 6b be
       0.34211648 -0.0325691 -0.25208485 -0.23035672
000050 cd 96 33 3e 5e cf f5 be 0b e0 21 3e cb 0f 85 be
       0.17537995 -0.4800977 0.15808122 -0.25988612
000060 d3 7f 04 bf 01 66 f3 3d 47 89 18 bc 80 54 67 bf
       -0.51757544 0.1188469 -0.009310073 -0.9036331
000070 80 d9 17 be 56 70 12 bf fb 5a 3b bf 31 4e 74 3d
       -0.14829063 -0.5720266 -0.731857 0.05964488
000080 b3 01 d0 3c ca 01 55 be 20 a7 43 3e 66 61 3f 3e
       0.025391435 -0.20801464 0.19106722 0.18689498
000090 11 8e ce be 1c 76 45 3c f0 e9 96 be 78 43 fa 3e
       -0.40342763 0.012052085 -0.29475355 0.488796
0000a0 28 eb 67 bf a9 3a 10 3f 35 f2 29 3e 2c 3f 01 bf
       -0.90593195 0.5633951 0.16596301 -0.5048702
0000b0 46 d5 36 3d d4 0e fb bd 80 07 50 3e 80 f3 66 3e
       0.044636987 -0.122586876 0.20315361 0.22553825
0000c0 c1 b1 8e 3e 66 7c b0 be 46 36 07 be 33 e2 b8 be
       0.2786999 -0.34469908 -0.13204297 -0.36110076
0000d0 43 68 00 3e 6c b4 9f 3e 42 d6 28 bf b3 5f 9e 3e
       0.12539773 0.31192338 -0.6595193 0.30932388
0000e0 60 0b a7 3e fb 57 09 bf 0a 56 63 3d 77 cf 7c be
       0.32625866 -0.5364987 0.055501975 -0.24688517
0000f0 05 06 b3 bd eb f7 4e be 26 37 8d 3e de 74 b4 3e
       -0.087413825 -0.2021176 0.27581137 0.35245413
000100 f3 6e a2 be 4f d1 cd be 60 96 bf 3e a3 13 0c be
       -0.31725273 -0.40198752 0.37419415 -0.13679366
000110 d2 12 20 be 72 c2 47 3d 56 0d 45 bd 3c 6b 94 be
       -0.1563218 0.048769422 -0.04810842 -0.28988063
000120 30 df bb 3e 7a ad 0a 3e 94 b7 8c 3e c8 05 79 be
       0.36693716 0.13542739 0.2748381 -0.24318612
000130 68 48 1b be c7 45 c2 3e 75 58 86 3e d9 39 1d bf
       -0.1516434 0.3794386 0.26239362 -0.61416394
000140 4d 00 4d 3c 22 9b 90 3e ac c5 3e 3e cd 64 a0 3e
       0.012512279 0.28243357 0.18630093 0.31326905
000150 f5 1b f1 3c 97 f9 61 3e d4 e6 95 bd e8 4b ce 3e
       0.029432276 0.22067867 -0.073194176 0.40292287
000160 48 c3 4d bf 55 70 57 be d0 f8 f4 bd 48 34 e9 be
       -0.803761 -0.21038945 -0.1196152 -0.455477
000170 b5 21 b5 be 2a 7d b9 3e db 16 f4 be 30 b9 97 be
       -0.3537728 0.36228305 -0.47673687 -0.29633474
000180 27 2d 78 be 14 52 f2 be 5e be 3a 3d f5 20 c8 3e
       -0.24235974 -0.47328246 0.045591705 0.39087644
000190 53 24 45 3d dc db 21 bf 3a ff cd be a7 6a 72 3e
       0.048130345 -0.63226104 -0.40233785 0.23673497
0001a0 dd df 8e be 29 c1 17 3b 82 15 92 3e 61 b3 44 3e
       -0.2790517 0.0023155904 0.28532034 0.19209053
0001b0 c8 17 3e bf 9f e1 be 3e 3b 31 92 bc 8d f8 e3 be
       -0.7425504 0.3728151 -0.01784574 -0.44525567
0001c0 b8 43 b0 3d d1 e1 9f be 5d 5c 41 3f 64 d1 dc 3d
       0.08606666 -0.31226972 0.7553156 0.107821256
0001d0 01 ec 26 bf 27 cf e2 bc 7c af 9e 3e 9b 19 ae be
       -0.65203863 -0.027686669 0.3099326 -0.3400391
0001e0 dd 81 03 3f b6 e3 ca bc e0 66 8f be af f7 7f bf
       0.5137003 -0.024766784 -0.28008175 -0.9998731
0001f0 84 a8 59 3e 83 46 ea be be 7a df 3d be dd 7f be
       0.2125569 -0.4575692 0.10912083 -0.24986932
000200 24 77 cb 3f b8 ee 8f 3e 39 f0 08 3f ab 27 79 bf
       1.5895734 0.28111815 0.5349155 -0.97326154
000210 9b d4 55 bf ec 98 89 3d 63 93 e7 3a 3e f5 23 3e
       -0.83527535 0.06718621 0.0017667826 0.16011521
000220 f5 96 92 3e 11 49 fb be bb 6c ec 3d fd 32 9f bd
       0.28630796 -0.49079183 0.11544176 -0.07773397
000230 65 d5 bf 3f b6 b0 22 3f 70 fe 71 bd e7 ed e1 3b
       1.4986998 0.6355089 -0.05908054 0.0068948152
000240 21 09 3d 3e 25 61 48 bf 1d 8d a3 be 31 60 68 3c
       0.18460514 -0.7827323 -0.31943598 0.01418309
000250 98 64 83 3c 63 78 e3 bd 16 4e 11 bd 7e 98 88 3e
       0.016039178 -0.11106946 -0.03547486 0.26678842
000260 86 9c 15 3e 43 d3 1f 3e 3c 5c d2 3e 68 8c f5 be
       0.1461049 0.15607934 0.41085994 -0.47958684
000270 03 50 6e bd f6 2b 31 3c 03 29 dd be 42 67 0b bf
       -0.058181774 0.010813704 -0.43195352 -0.54454434
000280 ae b5 9c bf f2 94 9e 3f b8 18 d3 3e 04 a4 76 bd
       -1.2242944 1.2389205 0.41229796 -0.06021501
000290 c8 d2 04 bf 1d dc 1d 3f 90 c9 26 3d 7a 79 ec be
       -0.51884127 0.6166399 0.04071957 -0.4618643
0002a0 eb 2e 3f bf 5f 15 8e be 9b 7a 2e 3f bd 46 c1 3d
       -0.74680966 -0.2775068 0.6815583 0.094373204
0002b0 91 dd 80 3d e9 ad 03 bf 19 8b 91 be b4 9c 92 be
       0.062922604 -0.5143724 -0.28426436 -0.2863518
0002c0 21 f3 2c bc f2 ab dc 3d 3b 0f 5d be 93 9a 3f 3f
       -0.010556013 0.107749835 -0.21587841 0.74845237
0002d0 da ec da 3e 7c 4e 5a bf c3 f3 e7 3e b4 98 c1 bc
       0.42758828 -0.8527601 0.45303163 -0.023632385
0002e0 f9 4f 85 be 4b c5 2f be 3e 12 5c 3e 79 cf 9f be
       -0.26037577 -0.17165105 0.21491334 -0.31212977
0002f0 95 87 ac bd be db a4 3e 98 80 87 3f cb 25 d0 be
       -0.08424298 0.321989 1.0586119 -0.40653834
000300 34 ed 42 be 9a 69 df be 6e 2c 15 bf 5b 4d 75 bf
       -0.19035798 -0.43635255 -0.5827092 -0.9582116
000310 c7 df 1a bf 66 ab 00 3f ef 3a 8d bd b4 f6 00 bd
       -0.6049771 0.50261533 -0.06896006 -0.031485274
000320 28 0f cd be 75 45 63 be 1b e1 93 bf 41 53 0c 3e
       -0.40050626 -0.22194465 -1.1553072 0.13703634
000330 9c ca ad 3d 0c a9 f5 3e a2 5e 16 bf 1d de 95 bf
       0.0848591 0.47980535 -0.5873815 -1.1708409
000340 2f cf 21 be 4d 5c f0 bd ad e8 85 3d ff 30 64 bf
       -0.1580169 -0.11736355 0.0653852 -0.8913726
000350 2c 06 39 3c 94 24 e5 3e 00 f3 ce be 3f 01 d0 3d
       0.011292975 0.4475447 -0.4041977 0.10156488
000360 ac 7e 1f bd c1 78 80 be 36 e9 9c 3f e8 1c 81 be
       -0.038939163 -0.25092128 1.225867 -0.25217366
000370 32 95 e0 be c2 0c b0 bf b5 88 af 3d 64 fd 91 be
       -0.43863827 -1.3753893 0.08570997 -0.28513634
000380 d8 b7 4e 3d fe 27 d9 be d9 87 d1 3d 28 06 4a be
       0.050468296 -0.42413324 0.10230989 -0.19728911
000390 ee fa 1d 3e 26 d5 2d bf da ca a1 3d db 58 fe be
       0.15427753 -0.67903364 0.07900019 -0.49677166
0003a0 09 34 71 3e 5d d3 a5 3d d6 aa a0 3e 7d 9f 4d be
       0.23555006 0.08096955 0.31380337 -0.20080371
0003b0 d2 4a 8f be d3 c8 39 be 07 87 80 3e c4 28 d6 be
       -0.2798677 -0.18143015 0.25103018 -0.41827977
0003c0 21 af 63 3e a4 4f 8e bd 91 b8 ef 3e 7f de 97 3e
       0.22234775 -0.06948784 0.468205 0.2966194
0003d0 f9 2e cb 3e 7f a9 12 3d a0 2a f4 be 89 5e a0 3d
       0.39684275 0.035806175 -0.4768877 0.07830531
0003e0 ef e7 ea 3c 5c 20 de be f4 e0 a0 be 0e 34 e0 be
       0.028675048 -0.43384063 -0.31421626 -0.43789715
0003f0 bd 07 e4 be db 5f 56 3d da 40 38 bc 02 e2 0e bf
       -0.44537154 0.05233751 -0.011245931 -0.5581361
