training/dirckpt/MAP_best_loss_2.ckpt (torch, 213387 bytes, 25 tensors)

JKNet_layer_list.0.weight f4 [111, 18]
0	0xbfa0373f	-1.251686
1	0x3ec555e4	0.38542092
2	0xc014609f	-2.3183973
3	0xbf1df7f2	-0.6170646
4	0x3eb665dc	0.35624588
5	0x3f590ca1	0.84784895
6	0x3c7a3f05	0.015273814
7	0xbf9e00e6	-1.2344024
8	0x3fbf7a4a	1.4959195
9	0x3fa0f804	1.2575688
10	0xbf5d75f9	-0.86508137
11	0x3ff11f2f	1.8837641
12	0x3e4e3464	0.20137173
13	0x3efb8f63	0.49132833
14	0xbce647f6	-0.028110486
15	0x3f39f70a	0.72642577
16	0x3fcd644f	1.6046237
17	0xbff08ea4	-1.879353
18	0xbf1cc376	-0.6123575
19	0x3f39ab7c	0.7252729
20	0xbf1e5c0c	-0.618592
21	0xbeaa2cde	-0.33237356
22	0xbdf63101	-0.120210655
23	0xbf400d3b	-0.7502019
24	0xbd7fa678	-0.062414616
25	0xc0264b7b	-2.598357
26	0xbdcbf44e	-0.09958707
27	0x3ea5f1c4	0.32411015
28	0x3cfab91e	0.030605849
29	0xbdf355f1	-0.118816264
30	0xbf386451	-0.7202807
31	0x3f0dc254	0.55374646
32	0x3e92496e	0.28571647
33	0x3e80a2b4	0.25124133
34	0xbed23375	-0.41054884
35	0x3f104a42	0.5636331
36	0xbe839780	-0.25701523
37	0x3f0f98af	0.5609235
38	0xbc8b9882	-0.017040495
39	0xbf16681d	-0.58752614
40	0x3f9c96a7	1.2233475
41	0xbfa64509	-1.2989818
42	0xbe4db578	-0.20088756
43	0x3f331cb8	0.69965696
44	0x3f012e6f	0.5046148
45	0xbef37de9	-0.47557
46	0xbea08f06	-0.31359118
47	0xbe4094a1	-0.18806697
48	0x3f8ebd68	1.1151552
49	0xbf052a41	-0.520176
50	0x3e21fcd2	0.158191
51	0xbd937087	-0.07199197
52	0x3eea871b	0.45806202
53	0x3f78b712	0.97154343
54	0x3ee2e27a	0.44313413
55	0xbd664f8c	-0.056228206
56	0xbf094c48	-0.5363202
57	0x3e585eed	0.21129961
58	0xbf23b0aa	-0.6394144
59	0xbf88d1c1	-1.0689012
60	0xbe9695ef	-0.29411265
61	0x3d37cbc6	0.044872068
62	0xbfcaeb98	-1.5853148
63	0x3ed3f90b	0.41400942
64	0x3f8b9602	1.0905154
65	0xbf58c543	-0.84676
66	0x3f3d3e7b	0.7392346
67	0xbf465d32	-0.77485955
68	0xbf9fb641	-1.2477494
69	0x3ea999b4	0.3312508
70	0x3fac09bd	1.3440472
71	0x3f359380	0.7092819
72	0xbe5a62e1	-0.21326782
73	0xbfacef33	-1.3510498
74	0x3f211e8f	0.62937254
75	0xbf0bc8f0	-0.5460348
76	0xbff7c2ed	-1.9356362
77	0x3f80fa13	1.0076317
78	0x3f6bfbae	0.9218091
79	0xbf839bf8	-1.0281973
80	0xc0190cb3	-2.3914
81	0xbfaebf5d	-1.365215
82	0x3f94efd1	1.1635686
83	0xbf950ca5	-1.1644484
84	0xbdf18a8c	-0.11794004
85	0x3fb15105	1.385285
86	0xbd9a001e	-0.075195536
87	0xbef24bab	-0.47323355
88	0xbe3be9ce	-0.18350908
89	0x3ce3c585	0.027804146
90	0x3e77b4b0	0.2419002
91	0xbe9e57a8	-0.3092625
92	0x400680f9	2.1016219
93	0x3f5c938d	0.86162645
94	0xbf11bb56	-0.56926477
95	0xbecd1a05	-0.40058914
96	0x3f1c538f	0.61065
97	0x3f81ae9e	1.0131414
98	0xbfd43a73	-1.6580337
99	0xbfe0c6f2	-1.7560713
100	0x3f2891ae	0.6584729
101	0xbe86ee27	-0.2635357
102	0xbd7506ea	-0.059821047
103	0x3c4a0cae	0.012332125
104	0xbe93bdcb	-0.28855738
105	0xbf19131f	-0.597948
106	0xbf4e3060	-0.80542564
107	0xbf27fbe0	-0.65618706
108	0xbfcbae9d	-1.5912663
109	0xbe645cc7	-0.22301017
110	0xbe74a867	-0.23892365
111	0xbf57ce0d	-0.84298784
112	0xbbeb3c9f	-0.0071788575
113	0x3d9763a7	0.07392054
114	0x3cccdbba	0.025007118
115	0x3f8796ff	1.0592955
116	0xbdd31eaa	-0.10308583
117	0xbe95d19d	-0.29261485
118	0xbfd53eef	-1.6659831
119	0xbd2d9f40	-0.0423882
120	0xbf9ff494	-1.2496514
121	0x3f846b1a	1.0345185
122	0x3f980405	1.1876227
123	0x3f0f6084	0.56006646
124	0xbf3f0303	-0.7461397
125	0xbeecf2bd	-0.46278945
126	0xbf5feb4a	-0.874684
127	0x3ed213a4	0.4103061
128	0xbedc3a0e	-0.43013042
129	0x3f075e50	0.52878284
130	0xbebecabe	-0.37264055
131	0x3f990558	1.1954756
132	0xbf83b310	-1.028902
133	0xbee68828	-0.45025754
134	0xbf7b2a56	-0.98111475
135	0xc086ff95	-4.218699
136	0xbeb65e21	-0.3561869
137	0x3eda1dcd	0.4260086
138	0xbf47bba2	-0.7802068
139	0xbfc63dda	-1.5487626
140	0x3ecaa03d	0.39575377
141	0x3fc45a9f	1.5340155
142	0x3f8ed832	1.1159728
143	0xbe8e7575	-0.27823988
144	0x3e2193ef	0.15779088
145	0x3f14a8ff	0.5807037
146	0x3e9b6c34	0.3035599
147	0x3da05a4f	0.07829725
148	0x3ebf47fc	0.37359607
149	0xbe0f527a	-0.13996306
150	0xbfc5f32b	-1.5464834
151	0xbf82f0cb	-1.0229734
152	0x3f8d598b	1.1042951
153	0xbffc5f6d	-1.9716622
154	0x3fe045c0	1.7521286
155	0xbf00aab6	-0.50260484
156	0xbf5553d5	-0.8333104
157	0xbefad78c	-0.48992574
158	0xbf85e7b6	-1.0461338
159	0x3edcee8f	0.43150756
160	0x3fd1c7a2	1.6389048
161	0x3ea7f303	0.3280259
162	0x3d25adf5	0.0404491
163	0x3eed9ef9	0.4641035
164	0x3f67e7c9	0.9058805
165	0x3da6fac3	0.08153298
166	0x3d8c04e3	0.068368696
167	0xbeb4082d	-0.35162488
168	0x3dd0deed	0.1019877
169	0x3eda46f9	0.42632273
170	0xbf4bd191	-0.7961665
171	0xbf1e9cb9	-0.6195789
172	0x3f9ab39e	1.2086065
173	0xbe805c2b	-0.2507032
174	0xbf627ba3	-0.88469905
175	0xbeee4d67	-0.46543428
176	0xbf0043eb	-0.50103635
177	0x3ea7f55f	0.3280439
178	0x3e05e494	0.13075477
179	0xbf0737c9	-0.52819496
180	0xbe973206	-0.29530352
181	0xbeb4436d	-0.35207692
182	0x3f84599c	1.0339847
183	0xbe69693b	-0.22794048
184	0x3eee8de3	0.46592626
185	0x3f09605b	0.5366265
186	0xbe8cfb84	-0.2753564
187	0x3f040d51	0.5158282
188	0xbf8f60af	-1.120138
189	0x3ede2f9d	0.433957
190	0x3e987890	0.29779482
191	0xbd155983	-0.03646232
192	0x3efc6fec	0.4930414
193	0x3ef0da28	0.4704144
194	0xbe8c319d	-0.27381602
195	0xbc4b1e38	-0.012397341
196	0xbf363a00	-0.7118225
197	0xbf4b3d83	-0.79390734
198	0xbeaeed9a	-0.3416565
199	0xbf44c077	-0.7685618
200	0x3f2ce502	0.6753694
201	0x3f0d197b	0.55117005
202	0x3fb9efbd	1.4526287
203	0x3f989dd8	1.192317
204	0xbf090859	-0.5352836
205	0xbe999c2f	-0.3000197
206	0xbea4d195	-0.32191148
207	0xbe87f5ec	-0.2655481
208	0x3b8f5583	0.0043742075
209	0x3ec5ca07	0.38630697
210	0x3fb59360	1.41856
211	0x3e86242c	0.26199472
212	0xbf499101	-0.78736883
213	0x3e6d6eeb	0.23186843
214	0xbecb0463	-0.39651784
215	0xbed60337	-0.41799328
216	0xbf07636c	-0.5288608
217	0x3ed801ac	0.42188776
218	0x3dc47fe4	0.09594706
219	0xbe913b2b	-0.28365454
220	0x3f7d55c6	0.98959005
221	0x3f9051e5	1.1274992
222	0x3dc9bdb0	0.09850633
223	0x3dc47cc8	0.09594113
224	0x3e32a6f5	0.17446502
225	0x4027aa4d	2.6197693
226	0x3e7a4fae	0.24444458
227	0xbd1f8d2b	-0.038952988
228	0xbfadb460	-1.3570671
229	0xc00407b1	-2.0629694
230	0xbf92d0bd	-1.1469952
231	0x3faed57d	1.3658901
232	0xbead16bf	-0.33806416
233	0xbe6bfb87	-0.23045169
234	0xbf694865	-0.9112609
235	0x3f2bf1d2	0.67165864
236	0xbdf4fd05	-0.11962322
237	0xbeac6a73	-0.33674964
238	0xbebb25c4	-0.3655225
239	0x3e45ff58	0.19335687
240	0x3eca311f	0.394906
241	0x3cdf499c	0.02725678
242	0x3e1f5e55	0.15563329
243	0xbe261018	-0.16217077
244	0xbf9ebaff	-1.2400817
245	0xbf53913e	-0.82643497
246	0xbf276638	-0.6539035
247	0x3cc89630	0.024485677
248	0x3e80a3d4	0.2512499
249	0x3e67247a	0.22572508
250	0x3df22ba7	0.11824732
251	0x3e82689e	0.25470442
252	0x3df1c060	0.11804271
253	0x3f9d021b	1.2266268
254	0x3cdaef15	0.026725331
255	0x3e760351	0.24024703

JKNet_layer_list.0.bias f4 [111]
0	0x3ec3c1ed	0.3823389
1	0xbf17623c	-0.5913427
2	0xbe94d1d0	-0.29066324
3	0xbf0ddd55	-0.5541585
4	0xbf38dede	-0.7221507
5	0xbddd2702	-0.10798456
6	0xbf2f207b	-0.68408936
7	0xbecf30d7	-0.4046695
8	0xbf460c46	-0.7736248
9	0xbeed420d	-0.46339455
10	0xbdad3d5d	-0.0845897
11	0xbf929af1	-1.1453534
12	0x3f574053	0.84082526
13	0xbdfd1f0e	-0.12359439
14	0x3e5de1fd	0.21668239
15	0x3e4313f5	0.19050582
16	0xbdf2fc2b	-0.118645035
17	0xbe34b812	-0.17648342
18	0xbed04b0d	-0.4068226
19	0x3e909eba	0.282461
20	0xbf0dc34e	-0.55376136
21	0xbeb2488b	-0.3482097
22	0xbeb2df9f	-0.34936234
23	0xbf4c05b1	-0.79696184
24	0x3defd6ac	0.11710867
25	0x3e5e4e24	0.21709496
26	0x3f327201	0.69705206
27	0xbe2f734e	-0.17133829
28	0xbe2b82b7	-0.16749083
29	0xbe10a1fe	-0.14124295
30	0x3edbe005	0.4294435
31	0x3e82a0e3	0.25513372
32	0xbeaa912f	-0.3331389
33	0xbe053fa7	-0.13012563
34	0xbef33155	-0.47498575
35	0xbc4213bb	-0.011845524
36	0x3dcfc3c5	0.10144762
37	0xbfc0b725	-1.5055891
38	0xbf314488	-0.69245195
39	0x3f5de398	0.86675406
40	0x3ee56e66	0.4481079
41	0x3d81c640	0.06336641
42	0x3f3631ad	0.7116955
43	0x3f1ecdf0	0.62032986
44	0xbf576c57	-0.8414969
45	0x3e3077a0	0.17233133
46	0x3e0c80f2	0.13721064
47	0x3ef572d5	0.47939172
48	0x3e50c760	0.20388556
49	0xbe88d25e	-0.26722997
50	0x3eab7fee	0.3349604
51	0x3fa4e2ee	1.2881753
52	0x3f6bbc69	0.92084366
53	0x3ef8084d	0.48443833
54	0x3e88f1ea	0.26747066
55	0xbe183018	-0.14862096
56	0xbf1c3476	-0.6101755
57	0x3f0bc643	0.545994
58	0x3e03997f	0.12851523
59	0x3d81f103	0.063447975
60	0xbf09acfc	-0.5377958
61	0x3e28a681	0.16469766
62	0x3e0fb2f8	0.14033115
63	0xbe90fb74	-0.28316844
64	0xbdc317cc	-0.09526023
65	0xbf2cb781	-0.67467505
66	0x3f7e7aec	0.99406314
67	0x3e2534ff	0.16133498
68	0xbe78d33c	-0.2429933
69	0xbf0813f1	-0.5315543
70	0x3d6b97c3	0.057517778
71	0xbda55dc6	-0.080745265
72	0xbe2dc6e3	-0.169704
73	0x3f16d383	0.5891649
74	0xbeb10b63	-0.34579
75	0x3e68d4b9	0.22737397
76	0xbf30c95d	-0.69057256
77	0xbf42bf2b	-0.7607295
78	0xbead5ed6	-0.33861417
79	0x3fbd4932	1.4787962
80	0x3eba2dc5	0.36363044
81	0xbeb3fb14	-0.35152495
82	0x3e2a25fa	0.1661605
83	0x3ee6d764	0.45086205
84	0xba193774	-0.000584475
85	0x3f32a3f5	0.6978143
86	0xbf4e2966	-0.8053192
87	0x3f7dea46	0.991856
88	0x3fc9991c	1.574985
89	0x3eb22271	0.34791902
90	0x3e47f8b1	0.19528462
91	0x3eb68820	0.3565073
92	0xbf4a3321	-0.78984267
93	0xbf20ee74	-0.6286385
94	0x3f1e9af3	0.61955184
95	0xbf33f7bf	-0.70299906
96	0x3ea18b85	0.31551757
97	0xbe1c9407	-0.15290843
98	0xbe2930fb	-0.16522591
99	0x3db8f6a3	0.09031417
100	0xbcf544d5	-0.029940048
101	0x3ea80131	0.3281341
102	0x3e95eb6d	0.29281178
103	0x3e3312e4	0.17487675
104	0xbec0429c	-0.3755082
105	0xbe539212	-0.2066119
106	0xbe7cf069	-0.24701084
107	0x3edb7d1a	0.42868882
108	0x3e019eac	0.12658185
109	0x3e822115	0.25415865
110	0x3e7b242d	0.24525519

JKNet_layer_list.1.weight f4 [111]
0	0x3fc546dd	1.5412251
1	0x3f853694	1.0407281
2	0x3f71c614	0.9444287
3	0x3fe5062d	1.789251
4	0x3ff4a8b0	1.9113979
5	0x3fbfa95e	1.4973562
6	0x3fb3ca3b	1.4046091
7	0x3fa67379	1.300399
8	0x401d753d	2.4602807
9	0x3f2313aa	0.6370188
10	0x3f6f6c41	0.9352456
11	0x3f980d85	1.1879126
12	0x3fd7a416	1.684695
13	0x3f4afa14	0.7928784
14	0x3f9a1062	1.203625
15	0x3fa99372	1.3248122
16	0x3faff561	1.3746759
17	0x3f856412	1.0421164
18	0x3fa02e69	1.2514163
19	0x3ff6ed6a	1.9291203
20	0x4015a2bf	2.3380582
21	0x3e95341f	0.29141328
22	0x3f6a25ca	0.9146391
23	0x3fc4f6b9	1.5387794
24	0x3f818aef	1.0120524
25	0x3f978cfa	1.1839898
26	0x400485c4	2.0706644
27	0x3f3022c6	0.6880306
28	0x3fc47c66	1.5350463
29	0x3f9962e2	1.1983302
30	0x3fb5be08	1.4198618
31	0x3f8baa3f	1.091133
32	0x40064547	2.0979784
33	0x3f9e368b	1.2360395
34	0x3fb6bce5	1.4276396
35	0x3f942cdb	1.1576189
36	0x3fa0460a	1.2521374
37	0x40073b3a	2.11299
38	0x3fabc159	1.341838
39	0x3ff0826a	1.8789799
40	0x3fa3808c	1.2773604
41	0x3fa59462	1.2935908
42	0x3fc0f027	1.5073289
43	0x3fdbc7a4	1.71703
44	0x3ff927e9	1.9465305
45	0x3f4bcf8b	0.7961356
46	0x3e5221f5	0.20520766
47	0x3fcaab24	1.5833478
48	0x3fc8cade	1.568691
49	0x3fbe5770	1.4870434
50	0x3fc7ff17	1.5624722
51	0x4012aa02	2.2916265
52	0x3fd4f393	1.6636833
53	0x3fe70760	1.8049126
54	0x3fd5ecd9	1.6712905
55	0x3fbbf7f1	1.4685041
56	0x3ff3130f	1.8990191
57	0x3fd1d23b	1.6392282
58	0x3fb76b11	1.4329549
59	0x3f9f66c6	1.2453239
60	0x3f333de0	0.7001629
61	0x3f7c2f8a	0.9851004
62	0xbd29e589	-0.041478667
63	0x3f5de0a2	0.8667089
64	0x3f96baed	1.1775795
65	0x3fd5b0f4	1.6694627
66	0x3fcf212b	1.6181997
67	0x3f5a1570	0.8518896
68	0x3f97dbca	1.1863949
69	0x3fafad1b	1.3724703
70	0x3f9b9b7c	1.2156825
71	0x3fbf47fd	1.4943844
72	0x3fc77a02	1.5584109
73	0x3fb53e66	1.4159667
74	0x3f9d006c	1.2265754
75	0x3fe89b3f	1.8172377
76	0x3fc70757	1.5549115
77	0x4011988a	2.2749352
78	0x3fb746a8	1.4318438
79	0x3fbd7ead	1.4804283
80	0x40006b3d	2.0065453
81	0x3f84b9c5	1.0369192
82	0x3fccae2e	1.5990655
83	0x3f2a876f	0.66612905
84	0x3f503f06	0.81346166
85	0x3fc7ce9f	1.5609931
86	0x3f9e5255	1.2368876
87	0x3fa76535	1.3077761
88	0x3fd85305	1.6900336
89	0x3ff25eae	1.8935144
90	0x3fa44b7e	1.2835538
91	0x3fb2bd19	1.3963958
92	0x3fc35297	1.525958
93	0x3fcc9202	1.5982058
94	0x3fc31853	1.5241798
95	0x3fa56e4d	1.2924286
96	0x3feb9397	1.8404416
97	0x3fa9257e	1.3214567
98	0x3ee1452b	0.43998083
99	0x3fa0596e	1.2527292
100	0x3fa6a31f	1.3018531
101	0x3fe2d97d	1.7722622
102	0x3f3a1389	0.7268606
103	0x400e3dc3	2.2225196
104	0x3fa530bd	1.2905499
105	0x3fac56e2	1.3464015
106	0x3fadef7a	1.3588707
107	0x3fbd56e1	1.4792138
108	0x3fdc5821	1.7214395
109	0x3f91c69b	1.1388735
110	0x3f92d08e	1.1469896

JKNet_layer_list.1.bias f4 [111]
0	0xbfa78b0f	-1.3089312
1	0xbf6b3cfa	-0.9188992
2	0xbf159bf9	-0.5844112
3	0xbf9c354b	-1.2203764
4	0xbf9944e2	-1.1974146
5	0xbfa0046f	-1.2501353
6	0xbea77c1e	-0.3271188
7	0xbf0c7fe1	-0.5488263
8	0xbfea28dc	-1.8293719
9	0xbd4cca18	-0.04999742
10	0xbf94865a	-1.1603501
11	0xbf9a9237	-1.2075871
12	0xbf48861e	-0.78329647
13	0x3dd8279f	0.10554432
14	0xbf7f1b38	-0.9965091
15	0xbfa3d7ba	-1.280021
16	0xbf14e232	-0.58157647
17	0xbf94f222	-1.1636393
18	0xbf9f98e5	-1.2468535
19	0xbfa32cb1	-1.2748014
20	0xbf9ac9e4	-1.2092862
21	0xbf213ac2	-0.6298028
22	0xbe854928	-0.26032376
23	0xbf0a71ac	-0.540797
24	0xbf3805d8	-0.71883917
25	0xbeda22ea	-0.42604762
26	0xbfede034	-1.8584046
27	0xbe50c68d	-0.20388241
28	0xbf4eba7e	-0.80753314
29	0xbfb567c3	-1.417229
30	0xbf6da0aa	-0.9282328
31	0xbfc279bb	-1.5193399
32	0xc0038401	-2.0549319
33	0xbfc1b030	-1.5131893
34	0xbf909c13	-1.129763
35	0xbf251dc8	-0.6449857
36	0xbf8a7137	-1.08158
37	0xbfe0baf0	-1.7557049
38	0xbfede5f4	-1.8585801
39	0xc016893e	-2.3521266
40	0xbf1464e9	-0.57966477
41	0xbf731c28	-0.9496484
42	0xbf7652c2	-0.9622003
43	0xbfa8fe52	-1.3202612
44	0xbfa43402	-1.2828372
45	0xbf921720	-1.1413307
46	0xbf47608c	-0.77881694
47	0xbfe28e1b	-1.7699617
48	0xbf406cba	-0.75165904
49	0xbfc1ad30	-1.5130978
50	0xbf7bac7f	-0.98310083
51	0xbfcd4779	-1.6037437
52	0xbf735ecb	-0.9506652
53	0xc010806c	-2.2578382
54	0xbf901a77	-1.1258076
55	0xbfcc7d41	-1.5975724
56	0xbfe04a3d	-1.7522656
57	0xbf92d20a	-1.1470349
58	0xbf8bdb2c	-1.0926261
59	0xbf278d5d	-0.6545008
60	0x3dac9e7e	0.084286675
61	0xbffe156c	-1.9850287
62	0xbf0d4c61	-0.5519467
63	0xbe6e4779	-0.23269452
64	0xbf9da6f5	-1.2316576
65	0xbfa0e091	-1.2568532
66	0xbeb20c43	-0.3477498
67	0xbed24575	-0.41068617
68	0xbf63fdbd	-0.8905905
69	0xbf85eed6	-1.0463512
70	0xbf920141	-1.1406633
71	0xbf8eddcd	-1.1161438
72	0xbf75a164	-0.9594939
73	0xbfbd0514	-1.4767175
74	0xbf873bf7	-1.0565175
75	0xbf043d07	-0.5165562
76	0xbf7857e6	-0.9700912
77	0xbf9c6e76	-1.222121
78	0xbf1da835	-0.6158479
79	0xbf8d10b9	-1.1020728
80	0xbf9ebab9	-1.2400733
81	0xbf579ece	-0.8422669
82	0xbfab52c2	-1.3384631
83	0x3de3402c	0.11096224
84	0xbe972b1b	-0.29525074
85	0xbee0cb61	-0.43905166
86	0xbf893171	-1.0718213
87	0xbfbe82f0	-1.4883709
88	0xbf65e1a6	-0.8979744
89	0xbf57aa83	-0.84244555
90	0xbf2b1646	-0.6683086
91	0xbf5bafd9	-0.858152
92	0xbf1f3b64	-0.622
93	0xbfa31354	-1.2740273
94	0xbf700432	-0.937564
95	0xbe22f39a	-0.15913239
96	0xbf643072	-0.8913642
97	0xbfd24611	-1.6427633
98	0x3cd6ae78	0.02620624
99	0xbf83a2e3	-1.0284084
100	0xbf6eae61	-0.9323483
101	0xbf704e52	-0.9386951
102	0xbe1adff9	-0.15124501
103	0xbf908ea3	-1.1293529
104	0xbf95a9cb	-1.1692442
105	0xbec14670	-0.37749052
106	0xbf680571	-0.906333
107	0xbf718ebe	-0.9435843
108	0xbf8af31c	-1.0855441
109	0xbe4c635b	-0.19959776
110	0xbfac4448	-1.3458338

JKNet_layer_list.1.running_mean f4 [111]
0	0x3fa9e6c2	1.3273547
1	0xbff4e19c	-1.913135
2	0xbe97c886	-0.29645175
3	0xc011e676	-2.2796912
4	0xbffaec41	-1.9603349
5	0xbf177d63	-0.591757
6	0xbf737eb4	-0.9511521
7	0xbee0eedb	-0.43932232
8	0xbf8813d5	-1.0631052
9	0xbf106647	-0.5640606
10	0x3f79dd81	0.97603613
11	0x3fa77b30	1.3084469
12	0x400dd204	2.2159433
13	0xbf6e5b4d	-0.93108064
14	0x400d2c86	2.2058425
15	0x3f942235	1.1572939
16	0xbf467381	-0.77519995
17	0x3fcb1f83	1.5868992
18	0xbe2af324	-0.16694313
19	0x3f6684f0	0.90046597
20	0xbe17da19	-0.14829291
21	0xbe681a5b	-0.22666304
22	0xbf3aebc9	-0.7301603
23	0xc005425e	-2.0821757
24	0x3f17a135	0.5923036
25	0xbc76265e	-0.015023796
26	0x3e8cd3fc	0.2750548
27	0x3f5dfe53	0.8671619
28	0xbf81e61c	-1.0148349
29	0x3d046d67	0.032330897
30	0x3ef60e86	0.48057956
31	0x3fbb6f68	1.4643373
32	0x3ff85d32	1.9403441
33	0x3f4c5106	0.7981113
34	0xbdc7a1ee	-0.097476825
35	0xbeb1d840	-0.34735298
36	0x3e17bd6b	0.14818351
37	0x3f89005d	1.0703236
38	0x3fe85557	1.8151044
39	0xbf18f739	-0.5975223
40	0x3efb6e9b	0.49107823
41	0x3f6c1261	0.92215544
42	0x3e7d4af9	0.24735631
43	0xc0074500	-2.1135864
44	0xc05f0f63	-3.4853141
45	0x3f5584db	0.83405846
46	0xbaa05808	-0.0012233267
47	0x3fd67077	1.6753072
48	0x3f4a9503	0.79133624
49	0xbf24709b	-0.6423432
50	0x3f708e9d	0.9396761
51	0xbf3ea4aa	-0.7447001
52	0x400a506e	2.161159
53	0x3dbb7372	0.09152879
54	0xbc1e34cb	-0.0096561415
55	0x3fa50be1	1.289425
56	0x3e3e04bf	0.18556498
57	0x3ff173bd	1.8863446
58	0xbf571a69	-0.84024674
59	0x3eafd468	0.3434174
60	0xbfcd059b	-1.6017336
61	0x3f200655	0.6250966
62	0x3efeacab	0.4974111
63	0xbfdf1bc0	-1.7430344
64	0x3ddf4517	0.1090185
65	0xbf8c9653	-1.0983375
66	0x3fcf0921	1.6174661
67	0x3faeb9f2	1.3650496
68	0x3e8e85a7	0.27836344
69	0xbdb68352	-0.08911766
70	0x3f4f48d2	0.8097049
71	0xbeaed26e	-0.3414492
72	0xbf3699d8	-0.71328497
73	0x400f8166	2.2422729
74	0xbfb8ce2d	-1.443792
75	0x3f6e678e	0.9312676
76	0xbfb2a831	-1.3957578
77	0xbeafd90b	-0.34345278
78	0xbec5563a	-0.38542348
79	0x40134c52	2.3015332
80	0x3f5b04b4	0.8555405
81	0xbfdbd850	-1.7175388
82	0xbec53713	-0.3851858
83	0x3f8ed5dd	1.1159016
84	0xbcda8613	-0.02667526
85	0x3ed0f830	0.40814352
86	0x3f765c4a	0.9623457
87	0x406e2203	3.720826
88	0x406cf3ba	3.702376
89	0xbfcc90bd	-1.5981671
90	0xbf0c1bcc	-0.54729915
91	0x3d6d87ea	0.057990946
92	0xc018ad66	-2.3855834
93	0xbf200114	-0.62501645
94	0x3ed97a95	0.42476335
95	0x3f94974a	1.160867
96	0xbedcc482	-0.43118674
97	0xbe29abb0	-0.165694
98	0xbd8b9d14	-0.0681707
99	0xbfbd837f	-1.4805754
100	0xbfc02dd7	-1.5013989
101	0x3e87d32b	0.26528296
102	0x3e259284	0.16169173
103	0xbecba987	-0.39777777
104	0x3f9e8528	1.2384386
105	0xbd8a5584	-0.06754592
106	0xbe9a0c10	-0.30087328
107	0x400ba842	2.1821446
108	0x3e8f9466	0.28042907
109	0xbe6bf629	-0.23043121
110	0x3f822d24	1.0170026

JKNet_layer_list.1.running_var f4 [111]
0	0x3e0aaf1e	0.13543364
1	0x3deb1395	0.11478344
2	0x3e249558	0.16072595
3	0x3d8efd49	0.06981904
4	0x3e148f3f	0.14507769
5	0x3dc6f8af	0.097154014
6	0x3e8864e3	0.2663947
7	0x3e8dc5fb	0.2769011
8	0x3e020aaa	0.1269938
9	0x3dd663b4	0.104682356
10	0x3d8675c5	0.065654315
11	0x3de5ff8b	0.112303816
12	0x3e1a4e56	0.15068945
13	0x3e8d751f	0.2762842
14	0x3db1f840	0.08689928
15	0x3e7d0eda	0.24712697
16	0x3e75db37	0.24009405
17	0x3d8e4658	0.06947011
18	0x3d811a0b	0.063037954
19	0x3e1ec1d2	0.15503624
20	0x3e751158	0.23932397
21	0x3e1c19a8	0.15244162
22	0x3e092b5b	0.13395445
23	0x3e1841da	0.1486887
24	0x3e2e43a6	0.17017993
25	0x3daf9187	0.08572679
26	0x3e0daf03	0.13836293
27	0x3dea3b24	0.114370614
28	0x3e10ab44	0.14127833
29	0x3e07fdb1	0.1328037
30	0x3d76f3b6	0.060291015
31	0x3f0dbfd7	0.5537085
32	0x3de61bb1	0.112357505
33	0x3db8a865	0.09016494
34	0x3db13372	0.086523905
35	0x3db3d922	0.08781649
36	0x3da5ad01	0.080896385
37	0x3e0b8ba8	0.13627493
38	0x3e09a40b	0.13441484
39	0x3da38426	0.0798419
40	0x3e0ac3a4	0.13551193
41	0x3dadd6df	0.08488249
42	0x3d84296a	0.064532116
43	0x3e3819d7	0.17978607
44	0x3dfb81ef	0.12280642
45	0x3da9ebb9	0.08296914
46	0x3dd509b9	0.10402245
47	0x3e353c52	0.17698792
48	0x3e05eee6	0.13079414
49	0x3d62268f	0.055212554
50	0x3de68d8f	0.11257469
51	0x3e0d7fb5	0.13818248
52	0x3ea03b40	0.31295204
53	0x3dcc6af2	0.09981336
54	0x3deaf7f1	0.11473072
55	0x3e79ee05	0.24407203
56	0x3e48d830	0.19613719
57	0x3d654462	0.055973418
58	0x3e86969e	0.26286787
59	0x3de70176	0.112795755
60	0x3df73d9f	0.120723
61	0x3d96b708	0.07359129
62	0x3d8994a0	0.06717801
63	0x3e6414c4	0.22273546
64	0x3e40b516	0.18819079
65	0x3e8a4aaa	0.2701009
66	0x3de1e863	0.110306524
67	0x3e1c6e93	0.15276556
68	0x3e225ab0	0.15854907
69	0x3d2f1b4d	0.042750645
70	0x3e2e5719	0.17025413
71	0x3dd8cb26	0.105856225
72	0x3e0366f7	0.12832247
73	0x3e567384	0.20942503
74	0x3e00d985	0.12582977
75	0x3e988cca	0.29794914
76	0x3e21fb94	0.15818626
77	0x3e1dbea5	0.15404756
78	0x3e42e9dd	0.19034524
79	0x3dda34e1	0.10654617
80	0x3e8741f0	0.26417494
81	0x3e9708c4	0.29498875
82	0x3e00e70d	0.12588139
83	0x3d8f20aa	0.06988652
84	0x3dc49dac	0.09600386
85	0x3e0b9674	0.13631612
86	0x3e35fbd6	0.17771849
87	0x3d945d11	0.072443135
88	0x3d8a425c	0.06750938
89	0x3e5d9525	0.21638925
90	0x3e91977c	0.28435886
91	0x3e392820	0.18081713
92	0x3e21f96e	0.15817806
93	0x3dce4451	0.10071624
94	0x3df99668	0.12186891
95	0x3dd0181b	0.10160848
96	0x3e0ccbe5	0.13749655
97	0x3e26e458	0.16298044
98	0x3e4de1ac	0.20105618
99	0x3e8819a0	0.2658205
100	0x3e0b4da4	0.13603836
101	0x3e2efdcb	0.17089002
102	0x3df361eb	0.11883911
103	0x3e93d423	0.28872785
104	0x3dae905b	0.08523627
105	0x3e31f1e2	0.17377427
106	0x3ebdd5b6	0.3707711
107	0x3db02db7	0.086024694
108	0x3e954be5	0.29159465
109	0x3ec59eaf	0.38597628
110	0x3e2a653c	0.1664018

JKNet_layer_list.4.weight f4 [111, 111]
0	0xbe841e67	-0.25804445
1	0xbe179ee4	-0.14806706
2	0xbdfac38b	-0.12244328
3	0xbe8c0a4f	-0.27351615
4	0xbf314717	-0.692491
5	0xbe32560e	-0.1741564
6	0xbe84301b	-0.25817952
7	0xbee40b2e	-0.4453978
8	0xbf543a58	-0.82901525
9	0x3ea1732a	0.31533176
10	0x3df7b4c7	0.120950274
11	0xbe2d356e	-0.16914913
12	0x3f44b010	0.7683115
13	0xbf33a075	-0.70166713
14	0x3e95d50e	0.2926411
15	0xbee5ba0e	-0.4486851
16	0xbf2bb53a	-0.67073405
17	0x3d9e5e78	0.07732862
18	0x3ea3e912	0.32013756
19	0x3f157f05	0.5839694
20	0x3edc6567	0.43046114
21	0x3ef2beb7	0.4741113
22	0xbf5f886f	-0.87317556
23	0xbd0e2379	-0.034701798
24	0x3d4e56c8	0.05037573
25	0x3dfa5a5f	0.12224268
26	0xbdb43e2e	-0.08800922
27	0x3eac395d	0.33637515
28	0xbebaf238	-0.36512923
29	0xbe13f3dc	-0.14448494
30	0x3e08d0d7	0.13360916
31	0xbf1d447d	-0.6143263
32	0x3ec76172	0.38941532
33	0xbe2ac281	-0.1667576
34	0xbd783420	-0.060596585
35	0xbdd1dc22	-0.10247065
36	0x3f0f1453	0.5589039
37	0xbfbfeb9f	-1.4993781
38	0x3ed00c51	0.40634397
39	0xbfcd6b37	-1.6048344
40	0x3eabd559	0.3356121
41	0xbed118d9	-0.4083927
42	0xbdb03a47	-0.086048655
43	0x3e5fba3c	0.21848387
44	0x3e0742ec	0.13209122
45	0x3ef84a89	0.48494366
46	0xbda4e09c	-0.08050653
47	0xbc03157e	-0.00800073
48	0xbf229157	-0.6350302
49	0x3dfd04aa	0.12354405
50	0x3f82ace5	1.0209013
51	0xbf459b29	-0.7718988
52	0xbf8e8a7d	-1.1136013
53	0x3e913662	0.28361803
54	0x3eb8a110	0.3606038
55	0x3d95b45d	0.07309792
56	0x3f0aacba	0.5416981
57	0xbe3c0931	-0.18362881
58	0xbe7ba18b	-0.24573343
59	0x3eb750a8	0.35803723
60	0x3e3bf78c	0.1835615
61	0xbe467388	-0.19380009
62	0xbd3d3751	-0.046195332
63	0xbf3ad741	-0.729847
64	0x3ed6ee9b	0.41978917
65	0xbea4f79e	-0.32220167
66	0x3e075c4c	0.13218802
67	0x3f4db5b4	0.8035538
68	0x3ec7165a	0.3888424
69	0x3e9d8a39	0.30769518
70	0x3d13707e	0.035995953
71	0x3f936c21	1.1517373
72	0x3e9c1b3a	0.30489522
73	0xbfc7285d	-1.5559193
74	0x3ee334c4	0.44376194
75	0xbdd5cd19	-0.1043951
76	0x38de4400	0.00010598451
77	0x3e9eb4ef	0.30997416
78	0xbf446c1e	-0.76727474
79	0xbec07cee	-0.37595314
80	0xbe97ca96	-0.29646748
81	0x3e8ba3e9	0.2727349
82	0x3e17c97f	0.14822958
83	0x3eab495d	0.3345441
84	0x3e4257ea	0.18978849
85	0x3e8b9076	0.27258652
86	0xbf1925b5	-0.5982316
87	0xbf1bf7af	-0.6092481
88	0xbe2e9dfa	-0.17052451
89	0xbeb30efb	-0.34972367
90	0xbf0037d3	-0.5008518
91	0xbee632e3	-0.44960698
92	0xbe516ee1	-0.20452453
93	0x3e768f0e	0.24078009
94	0x3e9b998a	0.30390579
95	0xbd3fcc90	-0.046825945
96	0xbe1011fb	-0.14069359
97	0x3c87332b	0.016503891
98	0x3caa2235	0.020768264
99	0xbf09b985	-0.53798705
100	0xbed2d87b	-0.41180786
101	0xbf0e8531	-0.55671984
102	0x3e14b196	0.14520869
103	0xbed4078b	-0.41412005
104	0xbdf24e91	-0.118313916
105	0xbf8df873	-1.1091446
106	0xbf214f38	-0.63011503
107	0xbe8053c7	-0.25063917
108	0xbf2ad233	-0.6672699
109	0xbfbc1b12	-1.4695761
110	0x3de81de0	0.11333823
111	0x3e94fd38	0.2909944
112	0x3d902b96	0.07039563
113	0xbe6df7f3	-0.23239116
114	0xbe3d5f83	-0.18493466
115	0xbd1aed96	-0.037824236
116	0xbe5a4d01	-0.21318437
117	0xbdb918a7	-0.09037905
118	0x3f918c08	1.1370859
119	0x3fc3e184	1.5303197
120	0x3e89704a	0.26843482
121	0x3f2616cb	0.6487853
122	0x3f4a9fe7	0.7915024
123	0xbf44bb6c	-0.76848483
124	0xbe4d9507	-0.2007638
125	0xbeb78d88	-0.35850167
126	0x3f2ef483	0.68341845
127	0x3f18f0a4	0.5974219
128	0x3f057e45	0.52145797
129	0x3baa8f79	0.0052050916
130	0x3e0e09da	0.13870946
131	0x3eaa7ec6	0.33299845
132	0x3eae5a52	0.34053284
133	0x3ee758ac	0.4518484
134	0xbf158b8a	-0.58416045
135	0x3e82dd54	0.25559485
136	0xbeee565d	-0.46550265
137	0x3ee969aa	0.45588428
138	0x3e869a2f	0.26289508
139	0xbed5ddeb	-0.41770872
140	0x3ec330b4	0.38123095
141	0xbff854c8	-1.9400873
142	0x3efe820e	0.497086
143	0xbee54329	-0.44777802
144	0xbe824f3a	-0.2545107
145	0x3f08f811	0.5350352
146	0x3e182cb3	0.14860801
147	0x3ee6de71	0.45091584
148	0xbd8a6d02	-0.06759073
149	0x3f2a001e	0.6640643
150	0xbd50a226	-0.050935887
151	0x3ed1950f	0.40934035
152	0x3ee5b604	0.4486543
153	0x3e579761	0.2105384
154	0xbea876c1	-0.32903102
155	0x3d0d4cf6	0.034497224
156	0xbebd617e	-0.36988443
157	0xbe1702f3	-0.14747219
158	0x3e21b910	0.15793252
159	0x3f091e0c	0.5356147
160	0x3eb814b3	0.35953292
161	0x3ecb02b1	0.3965049
162	0xbe0d9a2f	-0.13828348
163	0x3f29cd2c	0.6632869
164	0x3e20ba38	0.15696037
165	0x3eb70a6d	0.35750142
166	0x3e791341	0.24323751
167	0xbca77cbe	-0.020445224
168	0xbe97527e	-0.29555124
169	0x3ec12ae0	0.37728024
170	0x3e668cac	0.225146
171	0xbea8fbc3	-0.3300458
172	0x3ed1d8cd	0.40985718
173	0x3ec72d44	0.38901722
174	0x3e3337d5	0.17501767
175	0x3db39190	0.08767998
176	0x3df55ee5	0.1198099
177	0x3f8e3e2d	1.1112725
178	0xbe2f8f6b	-0.17144553
179	0x3ede9011	0.4346929
180	0x3f0d74c6	0.5525631
181	0x3ebb79e3	0.3661643
182	0xbd112b3a	-0.035441615
183	0xbe2cf32a	-0.16889635
184	0xbcc5ed55	-0.02416102
185	0x3eaae746	0.33379573
186	0xbf00923b	-0.5022313
187	0x3e7c289a	0.24624863
188	0xbf87cb42	-1.0608904
189	0x3f1debf4	0.6168816
190	0x3e199dda	0.15001622
191	0xbf7ee512	-0.99568284
192	0x3ecde086	0.4021036
193	0xbea7021a	-0.3261879
194	0x3e199ba9	0.15000786
195	0x3dacacd7	0.08431404
196	0x3eaa6187	0.33277532
197	0xbe8b47de	-0.27203268
198	0x3f15c460	0.5850277
199	0x3f9e2b3b	1.2356943
200	0xbebc228e	-0.36745113
201	0x3f89fc1c	1.0780063
202	0xbe649201	-0.22321321
203	0xbf0d4698	-0.5518584
204	0xbebbefd1	-0.36706403
205	0x3f484941	0.78236777
206	0x3ecad1dc	0.39613235
207	0x3e5ac51c	0.21364254
208	0x3ebfe971	0.3748279
209	0xbd5ae87e	-0.053444378
210	0xbe5bd561	-0.21468116
211	0x3e463789	0.19357122
212	0xbeba015d	-0.36329165
213	0x3f3a5427	0.72784656
214	0xbf23a7a4	-0.63927674
215	0x3f41793a	0.755756
216	0x3eb7a3b0	0.3586707
217	0x3e4672a5	0.19379671
218	0x3e981c92	0.29709297
219	0x3bc470da	0.0059948983
220	0x3d9f669d	0.07783244
221	0x3ec8fbda	0.39254647
222	0x3e32a9d0	0.17447591
223	0x3ee90561	0.45511916
224	0x3f4f5540	0.80989456
225	0x3decc745	0.11561445
226	0x3f393923	0.7235281
227	0x3ec9502f	0.39318988
228	0x3e8afeba	0.27147466
229	0x3eee8183	0.46583185
230	0x3f0d1572	0.5511085
231	0x3f135591	0.5755244
232	0x3eae5921	0.34052375
233	0x3e8833f5	0.2660214
234	0xbf2dbed4	-0.67869306
235	0x3e861dd5	0.26194635
236	0xbf004772	-0.50109017
237	0x3f063833	0.52429503
238	0x3bb0fadc	0.0054009985
239	0xbc27160a	-0.010198126
240	0xbdd85c5c	-0.10564491
241	0xbed2fef1	-0.4121013
242	0xbf52b994	-0.8231442
243	0x3c80c6ca	0.01571979
244	0x3e4c7748	0.19967377
245	0xbeaa9b3d	-0.33321562
246	0x3ec3879e	0.38189405
247	0xbed2e367	-0.4118912
248	0x3edc5c2e	0.43039078
249	0x3e522bae	0.20524475
250	0xbdb67778	-0.089095056
251	0x3f076088	0.5288167
252	0xbf3e962c	-0.74447894
253	0x3e8c1e75	0.27366987
254	0xbf1f74a4	-0.62287354
255	0xbe5cab17	-0.2154964

JKNet_layer_list.4.bias f4 [111]
0	0xbde37a48	-0.11107308
1	0xbccd214b	-0.02504029
2	0x3e246dcd	0.1605751
3	0x3d80d90a	0.06291397
4	0x3e806e7d	0.25084296
5	0xbd7b940a	-0.061420478
6	0x3cff090b	0.031132242
7	0x3e6d64b3	0.23182945
8	0xbe3710ec	-0.17877549
9	0x3df93e32	0.12170066
10	0xbcb6d7a4	-0.022319622
11	0xbe1d9b43	-0.15391259
12	0xbc114247	-0.008865899
13	0xbdef637a	-0.116888955
14	0x3df0f279	0.11764998
15	0x3ddf85b4	0.10914174
16	0xbe31a740	-0.17348957
17	0xbc60ed5c	-0.013728466
18	0x3dc4bb51	0.0960604
19	0xbd82b47c	-0.06382081
20	0x3d1fbd0e	0.038998656
21	0x3e90c662	0.28276354
22	0xbcaebc92	-0.021330152
23	0x3c9c17ab	0.019054255
24	0x3dc6fc15	0.097160496
25	0xbe259337	-0.1616944
26	0x3c7568a3	0.014978561
27	0xbb56d0f3	-0.0032778352
28	0xbd228f86	-0.039687656
29	0x3e3edcec	0.18638963
30	0x3cbb7cb3	0.02288661
31	0x3c059f5a	0.008155668
32	0x3d462032	0.048370548
33	0x3ecc072e	0.39849228
34	0xbc80b7ac	-0.015712582
35	0xbe8c954c	-0.27457654
36	0x3cb677ff	0.022274015
37	0xbe4e06f6	-0.20119843
38	0xbd1100be	-0.0354011
39	0xbe621b8c	-0.22080821
40	0xbe3f25c2	-0.18666747
41	0x3e4571f1	0.19281746
42	0x3e84b954	0.25922644
43	0xbe88f9be	-0.26753038
44	0x3de7bbd6	0.11315124
45	0x3dfe009b	0.12402459
46	0xbe5d66c5	-0.21621235
47	0xbe4972c3	-0.19672684
48	0x3e0a2d1e	0.13493773
49	0xbbf0ecaa	-0.0073524313
50	0x3e3c93d0	0.18415761
51	0xbe1072a5	-0.14106233
52	0x3e8c6f19	0.2742851
53	0x3dd99715	0.1062452
54	0xbd3d4801	-0.046211246
55	0x3df09fd8	0.11749238
56	0xbe49e72b	-0.1971709
57	0xbc949bb1	-0.018140646
58	0x3e331410	0.17488122
59	0xbe39d763	-0.1814857
60	0x3d33ebe9	0.043926153
61	0xbe5b725b	-0.21430342
62	0xbd9ce98f	-0.07661735
63	0x3ea60fef	0.3243403
64	0x3cce1317	0.025155587
65	0x3d39534f	0.045245465
66	0x3e730e11	0.23735835
67	0xbd97e921	-0.07417513
68	0x3e6beaab	0.23038737
69	0x3dad273b	0.08454748
70	0x3e5deace	0.21671602
71	0x3e85789a	0.26068574
72	0xbebd4289	-0.36964825
73	0xbe33eb23	-0.17570166
74	0x3e41b09c	0.18915027
75	0x3e565298	0.20929945
76	0xbe04c58a	-0.1296598
77	0xbd85c211	-0.06531156
78	0x3d938b65	0.07204322
79	0xbe134b8d	-0.14384289
80	0x3bb67d9d	0.0055691735
81	0xbd9368b9	-0.07197709
82	0xbe04660c	-0.12929553
83	0x3e73beb8	0.23803222
84	0xbc6f5c32	-0.014609383
85	0x3e51a484	0.20472914
86	0x3d8f2190	0.069888234
87	0x3e81e4cf	0.2536988
88	0xbd2adf9f	-0.041717168
89	0x3d9dfdac	0.077144
90	0xbc1d76aa	-0.009610811
91	0x3e23271c	0.15932888
92	0x3e71ba2c	0.23606175
93	0xbebf5db4	-0.37376177
94	0xbcb957cd	-0.022624874
95	0xbdf31fcc	-0.11871299
96	0x3c954cbb	0.018225065
97	0xbe4bf4db	-0.19917624
98	0x3cfe0bc3	0.031011468
99	0xbd4ee64f	-0.05051261
100	0x3cbb6946	0.022877347
101	0x3cb69f3a	0.022292722
102	0xbdcddb50	-0.10051596
103	0xbdf38454	-0.11890474
104	0x3e0e2ca7	0.13884221
105	0xbe4a3f61	-0.1975074
106	0x3d5a8a3b	0.053354483
107	0xbe8aacb7	-0.27084896
108	0xbe1b41ba	-0.15161791
109	0xbc7ab66d	-0.015302283
110	0xbec323bc	-0.381132

JKNet_layer_list.5.weight f4 [111]
0	0x3fa32692	1.2746146
1	0x3fb9eaba	1.4524758
2	0x3f7ab8a8	0.97938013
3	0x3fc948ed	1.572538
4	0x3f594fd4	0.84887433
5	0x40097877	2.1479776
6	0x3fa3b8fb	1.2790827
7	0x3fb063d2	1.3780463
8	0x3fe86673	1.8156265
9	0x3f884b95	1.0648066
10	0x3fb69d3a	1.4266732
11	0x3f02de84	0.5112078
12	0x3f7caa30	0.98697186
13	0x3fa32e51	1.274851
14	0x3f29b515	0.66291934
15	0x3ebb33c5	0.36562935
16	0x3e624cb9	0.2209958
17	0x3cf32f02	0.029685501
18	0x3fa925ef	1.3214701
19	0x3fbbd0e9	1.4673129
20	0x3fa62005	1.2978522
21	0x40032af5	2.049497
22	0x3feed4d3	1.8658699
23	0x3fb58a19	1.4182769
24	0x3f89300b	1.0717787
25	0x400fd988	2.247652
26	0x3fb9c96d	1.4514595
27	0x4011058a	2.265963
28	0x3f6242ef	0.8838338
29	0x401400d5	2.3125508
30	0x3fa51fe4	1.2900357
31	0x3fb4699d	1.4094731
32	0x3f637e77	0.88864845
33	0x3fa343c9	1.2755061
34	0x3f90664d	1.128122
35	0x3f83a1c8	1.0283747
36	0x3fa68453	1.3009132
37	0x3fa9dac7	1.326989
38	0x3f9e6ab5	1.2376314
39	0x3f90bad6	1.1307018
40	0x3fb54e7c	1.4164577
41	0x3f80b657	1.0055646
42	0x3f2a0fdc	0.6643045
43	0x3f9b458f	1.2130603
44	0x3fc336b4	1.5251069
45	0x3fb42854	1.4074807
46	0x401d57be	2.4584804
47	0x3f97fb1c	1.1873507
48	0x3fb12e0c	1.3842177
49	0x40075b07	2.1149309
50	0x3fbf8d04	1.496491
51	0x3fba9836	1.4577701
52	0x3fb907ec	1.4455543
53	0x3f8d6bca	1.104852
54	0x3fac599f	1.346485
55	0x3f54fc6f	0.83197683
56	0x3f9ee60d	1.2413956
57	0x401c24a6	2.4397368
58	0x3eae9325	0.34096637
59	0x3fed3984	1.8533177
60	0x3d330300	0.043704033
61	0x3fd509bc	1.6643596
62	0x3fdaf275	1.7105242
63	0x3fab8c52	1.3402197
64	0x4027a410	2.6193886
65	0x3fca18e1	1.5788842
66	0x3fcf3228	1.6187181
67	0x4017d63d	2.372451
68	0x3fd0734a	1.6285183
69	0x3eb352ee	0.35024208
70	0x3fd93fe3	1.6972622
71	0x3e7ce946	0.24698362
72	0x3fb44e8e	1.4086473
73	0x3fececba	1.8509743
74	0x3fbb7667	1.4645509
75	0x3fe39973	1.7781204
76	0x3f8fbc92	1.1229422
77	0x3f735da8	0.95064783
78	0x3f8dc0d1	1.1074468
79	0x40263946	2.5972457
80	0x3f9eb429	1.239873
81	0x3faad095	1.3344904
82	0x3ffad632	1.9596617
83	0x3fa57ec4	1.2929311
84	0x3f9f19f8	1.24298
85	0x3faa8374	1.3321366
86	0x3fbcf0ad	1.4760948
87	0x3fdd3257	1.7280988
88	0x3fb2f972	1.3982375
89	0x3fa2d42d	1.2721001
90	0x3f1c52cf	0.61063856
91	0x3fd9962d	1.6998955
92	0x3f6fd98b	0.9369132
93	0x3fd9eacb	1.7024778
94	0x3fcb6f78	1.5893393
95	0x3fbeb3e7	1.4898652
96	0x400d6966	2.209558
97	0x3fc16afd	1.5110775
98	0x3f45478d	0.770623
99	0x3fb1a71b	1.3879122
100	0x3faa34b6	1.3297336
101	0x4011ce9f	2.2782362
102	0x3f53c060	0.82715416
103	0x3fa0be06	1.255799
104	0x3ffe05a1	1.9845468
105	0x3fa1aa12	1.2630026
106	0x3e920f5e	0.2852735
107	0x3f910f07	1.1332711
108	0x3f8da903	1.1067203
109	0x3fc1b62c	1.513372
110	0x3f92ab88	1.1458597

JKNet_layer_list.5.bias f4 [111]
0	0xbecd3066	-0.40075988
1	0xbef89225	-0.48549
2	0xbf29440b	-0.6611945
3	0xbf6e4aaa	-0.9308268
4	0xbebaa10a	-0.36450988
5	0xbf7d7b94	-0.9901669
6	0xbf2ffd3a	-0.6874577
7	0xbf1c4b46	-0.6105236
8	0xbf82db4a	-1.0223172
9	0xbe093967	-0.13400804
10	0xbf2c2864	-0.6724913
11	0xbf45b434	-0.77228093
12	0xbf38e06d	-0.72217447
13	0xbd1c74a6	-0.038197182
14	0xbebe21ca	-0.37135154
15	0xbf383a81	-0.7196427
16	0xbf5fdaeb	-0.8744342
17	0xbeb076e5	-0.3446571
18	0xbd856eaf	-0.06515252
19	0xbf2f4b1b	-0.68473977
20	0xbe9df3e9	-0.3085015
21	0x3d7673f8	0.06016919
22	0xbf9029fb	-1.1262811
23	0xbf2d2947	-0.6764111
24	0xbed5197b	-0.41621003
25	0xbf0d814b	-0.5527541
26	0xbf2a3840	-0.6649208
27	0x3dbd2b06	0.09236722
28	0xbe3f3745	-0.18673427
29	0xbda2f72f	-0.07957303
30	0x3eb9e1c0	0.36305046
31	0xbf6e88b9	-0.9317737
32	0xbd47f280	-0.04881525
33	0xbea68d96	-0.32529896
34	0xbbeb1b3c	-0.0071748774
35	0xbf1a81e0	-0.60354424
36	0xbf4426e6	-0.76621854
37	0xbe679863	-0.22616725
38	0xbea50355	-0.32229105
39	0xbf046b77	-0.5172648
40	0x3eb51e1e	0.3537454
41	0xbea7213d	-0.32642546
42	0xbefc1570	-0.49235106
43	0x3df5806e	0.11987387
44	0xbece3608	-0.40275598
45	0xbfe9a9a8	-1.82549
46	0xbfe33602	-1.7750857
47	0xbf15d98d	-0.5853508
48	0xbfe5b617	-1.7946194
49	0xbf3fe3ab	-0.7495677
50	0xbf6719cd	-0.90273744
51	0xbeda6e06	-0.42662066
52	0x3e7a62d5	0.24451764
53	0xbe8ef0f6	-0.27918214
54	0xbf52b823	-0.8231222
55	0xbef24c81	-0.47323993
56	0xbf08dab9	-0.53458744
57	0xbf4f4da5	-0.8097785
58	0xbf159f47	-0.5844616
59	0xbf03669c	-0.51328444
60	0xbef6d62e	-0.4821028
61	0xbecbd74e	-0.39812702
62	0xbfeb1a92	-1.8367484
63	0xbed51b24	-0.4162227
64	0xbecd7b01	-0.40132907
65	0xbf5ae484	-0.8550494
66	0xbf44eeea	-0.76927054
67	0xbf7d165a	-0.9886223
68	0xbe21f197	-0.15814815
69	0xbf3db74a	-0.741078
70	0xbf116b4a	-0.56804335
71	0xbf10ca4f	-0.565587
72	0xbf5324a5	-0.8247779
73	0xbf405697	-0.75132126
74	0xbe0a98d2	-0.13534859
75	0x3b124f38	0.002232505
76	0xbfaeb883	-1.3650059
77	0xbeb2e4a9	-0.3494008
78	0xbeaf3470	-0.34219694
79	0xbf2c96c0	-0.67417526
80	0xbf238c04	-0.6388552
81	0x3e248420	0.16066027
82	0xbf22c1b4	-0.6357682
83	0xbf4bfe64	-0.79685044
84	0xbfa8faf8	-1.320159
85	0xbeec8dd0	-0.46201944
86	0xbee793a2	-0.45229822
87	0xbf91b760	-1.1384087
88	0xbeff9db2	-0.49925
89	0xbda0c5f8	-0.078502595
90	0xbf21265b	-0.6294915
91	0xbfcf80d8	-1.6211195
92	0x3e212425	0.15736444
93	0xbf36d3bf	-0.7141685
94	0xbf8a3adb	-1.0799211
95	0xbf225d5b	-0.634237
96	0xbfd992f8	-1.6997976
97	0xbf493a4b	-0.78604573
98	0xbf54910d	-0.8303383
99	0xbeea2edc	-0.45738876
100	0xbf8ea957	-1.1145428
101	0xbe13f5bf	-0.14449213
102	0xbf2735ed	-0.6531666
103	0xbf03010a	-0.5117346
104	0xbf5638eb	-0.836806
105	0xbe568644	-0.20949656
106	0xbf8ca254	-1.0987039
107	0xbe8952eb	-0.26821074
108	0xbe4254a3	-0.18977599
109	0xbea27770	-0.3173175
110	0xbea75ac7	-0.32686445

JKNet_layer_list.5.running_mean f4 [111]
0	0xc0212168	-2.517664
1	0x3fda1d56	1.7040203
2	0x3f8aa946	1.0832908
3	0xbf9fe02a	-1.2490284
4	0xbfade267	-1.3584718
5	0xc0655d4c	-3.5838194
6	0xc0a12234	-5.035425
7	0xc037aa56	-2.8697715
8	0xc0c272eb	-6.076528
9	0xbe06e5b8	-0.13173568
10	0xc0611c4c	-3.517352
11	0xc05e61ef	-3.4747274
12	0xc081053a	-4.031888
13	0xc05a3ee4	-3.4100885
14	0x3f2df14c	0.67946315
15	0x3f01d58a	0.5071646
16	0xbfd652f2	-1.6744063
17	0x4010502b	2.254893
18	0x407b2885	3.924348
19	0xc01d5535	-2.4583256
20	0xbfd1c228	-1.6387377
21	0xbf400958	-0.7501426
22	0x3fc1da12	1.5144675
23	0x4016643e	2.3498683
24	0x3f2e5821	0.68103224
25	0xc075eee6	-3.8427062
26	0xc0504f05	-3.254823
27	0xc011a020	-2.2753983
28	0x3f35edee	0.71066177
29	0xc08f6350	-4.480873
30	0xc014a556	-2.3225913
31	0xbf2afe5c	-0.6679437
32	0xc016411d	-2.3477242
33	0xbfeca821	-1.8488809
34	0xbd9292c2	-0.07156898
35	0xc0734cca	-3.8015618
36	0x3fa1eb45	1.2649924
37	0xc02a75eb	-2.6634471
38	0xbfd01788	-1.6257181
39	0xc0a9a19c	-5.3009777
40	0xbf98a435	-1.1925112
41	0xbfe61211	-1.7974263
42	0xbb41c398	-0.0029566046
43	0xc04ca926	-3.197824
44	0xbfcf0492	-1.617327
45	0x405f070e	3.4848056
46	0xc10945ba	-8.579523
47	0xc0944fe8	-4.634754
48	0x3f7d80f9	0.9902492
49	0xc0a013cd	-5.002417
50	0x4002ad8f	2.0418432
51	0xc0a81122	-5.2520914
52	0xc0238247	-2.5548265
53	0xbff8e2fd	-1.9444271
54	0xc0a0e81a	-5.0283327
55	0xc05aa4cf	-3.416309
56	0xc041f72a	-3.0307107
57	0xc0a180be	-5.0469656
58	0xc03a5a1d	-2.91175
59	0xc0857c2a	-4.1714067
60	0x3f270cae	0.6525372
61	0xbeb068f7	-0.34455082
62	0x408ed3ea	4.4633684
63	0xc05a4362	-3.4103627
64	0xc019da13	-2.4039352
65	0xc0100a4e	-2.250629
66	0xc0d39ce3	-6.612901
67	0xc0cb1d22	-6.3473063
68	0xc08f9146	-4.4864836
69	0xbf39ff5b	-0.72655267
70	0xc00bf5e1	-2.1868823
71	0xbfd9ad4d	-1.7006012
72	0xc05af32b	-3.4210918
73	0xc059b3da	-3.4016023
74	0x3e84dd2f	0.2595
75	0xbfaa041f	-1.3282508
76	0x3f8f9c0d	1.1219498
77	0xc040e46f	-3.0139425
78	0xbf3cf5f8	-0.7381282
79	0xc07b84ae	-3.9299731
80	0xc0473d2c	-3.1131086
81	0xc0046b47	-2.0690477
82	0xc086eea8	-4.216633
83	0xc0801e14	-4.0036716
84	0x40181173	2.376065
85	0xbe982fa1	-0.29723838
86	0xbf7554a8	-0.958323
87	0x400a83a5	2.164285
88	0xbf2f54f4	-0.68489003
89	0xc0390ab8	-2.8912792
90	0xbf8aad2d	-1.0834099
91	0x40b6cc49	5.712437
92	0x3f7cbad2	0.98722565
93	0xbe24fbb6	-0.16111645
94	0xbf1033fd	-0.5632933
95	0xbf855521	-1.0416604
96	0xc1012ac8	-8.072945
97	0xbfc0123c	-1.5005565
98	0x3f5c0255	0.8594106
99	0x3fe30766	1.7736633
100	0x40551220	3.3292313
101	0xc081ac1b	-4.052259
102	0xbfb69abe	-1.4265974
103	0x3ff4def0	1.9130535
104	0xc03499b1	-2.8218806
105	0xc024d1fb	-2.5753162
106	0x4005dd09	2.091616
107	0xbf8d349c	-1.103168
108	0x4019d572	2.4036527
109	0xc056c219	-3.3555968
110	0xc05ae8f5	-3.4204686

JKNet_layer_list.5.running_var f4 [111]
0	0x418c2bb2	17.521336
1	0x41fdab58	31.708664
2	0x4199b092	19.211216
3	0x41a134ee	20.150845
4	0x417b3c30	15.702194
5	0x41a6ecb9	20.865587
6	0x41ab1b62	21.38837
7	0x417b7a16	15.717306
8	0x41b3137a	22.38451
9	0x418382b3	16.438818
10	0x414fe419	12.993188
11	0x4135474b	11.3299055
12	0x41904998	18.035934
13	0x415d438c	13.828991
14	0x40e67622	7.2019205
15	0x41346029	11.273477
16	0x40b1f9ef	5.5617595
17	0x40d83e78	6.7576256
18	0x42115d4c	36.34111
19	0x41f3ee17	30.491255
20	0x41ce1607	25.760756
21	0x4200c0fe	32.18847
22	0x419c4064	19.53144
23	0x41ad63b3	21.673681
24	0x414080c0	12.031433
25	0x423586df	45.38171
26	0x411fcf7d	9.988156
27	0x4227ea8b	41.979046
28	0x42061da2	33.52894
29	0x4234e3fa	45.222633
30	0x41f2ddae	30.358242
31	0x4179af94	15.605366
32	0x410a59be	8.64691
33	0x418c89a3	17.567205
34	0x4142d620	12.177277
35	0x40fd4e0a	7.9157763
36	0x4165eb4b	14.369945
37	0x41c69a92	24.825474
38	0x4158794a	13.529612
39	0x418978ca	17.183979
40	0x41ca170e	25.261257
41	0x41816489	16.17409
42	0x410e64ab	8.899577
43	0x417da7db	15.85348
44	0x41c2396c	24.278038
45	0x4194a277	18.579329
46	0x4283061d	65.51194
47	0x41907511	18.057161
48	0x41240bbc	10.252865
49	0x41feb877	31.84007
50	0x41b00db0	22.006683
51	0x41c5d4fe	24.729
52	0x41eafa4e	29.37222
53	0x416f5497	14.958152
54	0x41875de0	16.920837
55	0x41787204	15.527836
56	0x41a32878	20.39476
57	0x41fa5601	31.291994
58	0x41800334	16.001564
59	0x41c50a12	24.629917
60	0x40a86af5	5.2630563
61	0x41d850f0	27.03952
62	0x41c6fe8b	24.874289
63	0x416f6d52	14.96419
64	0x41cb7b6a	25.43526
65	0x4190bb2d	18.091394
66	0x41f31bf9	30.388659
67	0x4229be69	42.435947
68	0x418482f3	16.56394
69	0x4101cfc2	8.113222
70	0x4187f785	16.99586
71	0x413552c3	11.3327055
72	0x4199622a	19.172932
73	0x4181044b	16.127096
74	0x412ae752	10.681475
75	0x4203f434	32.98848
76	0x416a2a1c	14.635281
77	0x413ffcd8	11.999229
78	0x41005bab	8.02238
79	0x422f2038	43.781464
80	0x4137f75b	11.4978895
81	0x41411c1f	12.0693655
82	0x41b139c0	22.153198
83	0x41b5e7ab	22.73812
84	0x4186c104	16.844246
85	0x414e42a0	12.891266
86	0x41492e38	12.573784
87	0x41d4f4e9	26.619585
88	0x41cdb2f6	25.712383
89	0x4199d305	19.228037
90	0x40a6d7c2	5.2138376
91	0x41fd071d	31.628473
92	0x41962162	18.7663
93	0x41614ecf	14.08174
94	0x41957492	18.68192
95	0x41ba8fe0	23.320251
96	0x4247dc15	49.964924
97	0x41e48815	28.566446
98	0x410fa09a	8.976709
99	0x416db4b0	14.856613
100	0x41ab91d5	21.446207
101	0x41fe537b	31.790762
102	0x4131fabb	11.1237135
103	0x41803674	16.026588
104	0x41e71ac7	28.888075
105	0x412eff35	10.937306
106	0x40e814c5	7.2525353
107	0x4182a18f	16.328886
108	0x41b784be	22.939816
109	0x41b70fe9	22.882769
110	0x41548f7c	13.28503

JKNet_layer_list.8.weight f4 [111, 111]
0	0xbe150931	-0.14554287
1	0xbeae8cda	-0.34091836
2	0xbe4b2da5	-0.19841631
3	0xbe78c4d1	-0.2429383
4	0xbec6eeba	-0.3885401
5	0xbf00633c	-0.5015142
6	0x3d4a31a2	0.04936374
7	0xbf1e6ba6	-0.6188301
8	0xbda1be3b	-0.07897612
9	0xbea2e063	-0.31811818
10	0xbeb3ffbf	-0.35156056
11	0xbed95271	-0.4244571
12	0xbe0d6e6b	-0.13811652
13	0xbecf406c	-0.40478837
14	0x3e72614d	0.2366993
15	0x3e7c3a11	0.24631526
16	0xbda83f7a	-0.08215232
17	0x3eb5a0b4	0.3547417
18	0xbec49c81	-0.38400653
19	0xbd42d5a0	-0.04756701
20	0x3dcce4bb	0.100045644
21	0xbf38fec7	-0.7226376
22	0xbf3d00a0	-0.7382908
23	0xbdbae61e	-0.091259226
24	0xbed9e2df	-0.425559
25	0xbdca1ee6	-0.09869175
26	0xbe03f37c	-0.1288585
27	0x3e5952d5	0.21223004
28	0xbf4b04f6	-0.79304445
29	0xbeaa9609	-0.33317593
30	0xbe3b4651	-0.18288542
31	0x3ebb72c8	0.3661101
32	0x3ee1aeeb	0.44078764
33	0xbe72b24a	-0.23700824
34	0x3e842f4b	0.25817332
35	0x3ef5423a	0.4790209
36	0xbef38d1f	-0.47568604
37	0xbf150c6f	-0.582221
38	0x3f0cd0eb	0.55006284
39	0xbcf450a3	-0.029823607
40	0x3d0253e1	0.031818274
41	0x3e772492	0.24135044
42	0x3ec55b83	0.3854638
43	0xbe93e604	-0.28886425
44	0x3f0b34e6	0.5437759
45	0xbf4b776d	-0.79479104
46	0xbeeabcdd	-0.45847216
47	0x3d1f9c76	0.038967572
48	0x3e6ee5de	0.23329875
49	0x3cceca83	0.02524305
50	0xbe1b96c5	-0.15194233
51	0xbe9262d7	-0.28591034
52	0xbec30cdb	-0.38095745
53	0x3b63e093	0.0034771308
54	0xbf463527	-0.77424854
55	0xbe140699	-0.14455642
56	0xbd828752	-0.063734666
57	0xbe275341	-0.16340353
58	0xbe9c9329	-0.30581024
59	0xbeb8256e	-0.35966057
60	0xbcde6145	-0.027145991
61	0xbf1787df	-0.591917
62	0xbef1d153	-0.47230014
63	0x3db36e22	0.087612405
64	0x3da2c6fd	0.0794811
65	0xbedc76aa	-0.43059283
66	0xbd7b6735	-0.061377723
67	0xbeacb804	-0.33734143
68	0x3d05068b	0.032476943
69	0x3efb0535	0.4902741
70	0xbe0e6ae8	-0.13907969
71	0xbea961a3	-0.33082303
72	0x3ea9f9a5	0.33198276
73	0xbe905aea	-0.28194362
74	0x3d9d486f	0.07679831
75	0x3e50c6b0	0.20388293
76	0xbf0bbaf9	-0.5458217
77	0xbeb12ed5	-0.34606043
78	0xbeae55da	-0.34049875
79	0xbd4bac08	-0.04972461
80	0x3e4a001e	0.19726607
81	0xbd9864b5	-0.07441083
82	0x3e6da60d	0.23207875
83	0xbeccaf29	-0.39977387
84	0xbf01885f	-0.5059871
85	0x3e376e81	0.17913248
86	0xbe29d99e	-0.1658692
87	0x3d592383	0.053012382
88	0xbee3a64f	-0.4446282
89	0xbf21e832	-0.63244927
90	0xbde93fa6	-0.11389093
91	0xbfacaadc	-1.3489642
92	0x3e64ef54	0.22356921
93	0xbb9c64f3	-0.0047727763
94	0xbe39858f	-0.18117355
95	0xbf01186a	-0.5042788
96	0xbef3aec6	-0.4759428
97	0xbf121137	-0.5705752
98	0xbf1ec9a1	-0.6202641
99	0x3edc91b5	0.43079916
100	0xbfcbee33	-1.5932068
101	0xbee94031	-0.45556787
102	0xbede898c	-0.43464315
103	0xbd2c655d	-0.042088855
104	0xbf3d220b	-0.7388007
105	0xbeb5df50	-0.35521936
106	0x3e85dcad	0.26144925
107	0x3dfaab30	0.12239683
108	0xbe73ca2f	-0.23807596
109	0x3d318cf4	0.043347314
110	0x3e33ca73	0.17557697
111	0xbe831fc4	-0.25610173
112	0xbea61a1b	-0.32441792
113	0x3de64300	0.11243248
114	0xbe6d205f	-0.2315688
115	0x3d245b81	0.040126327
116	0xbe95dfc7	-0.2927229
117	0xbeecdb70	-0.46261168
118	0x3d22adea	0.03971664
119	0xbbf49334	-0.007463837
120	0xbe1481e4	-0.14502674
121	0xbd546cbd	-0.051861513
122	0xbccd6ce7	-0.025076343
123	0xbefab9dc	-0.48969924
124	0xbeca8130	-0.39551687
125	0xbe9a9deb	-0.30198607
126	0x3b81f43b	0.003965882
127	0x3e428bf2	0.18998697
128	0x3e44c5a5	0.1921602
129	0x3ed70944	0.41999257
130	0xbed8591f	-0.42255494
131	0xbee7f60d	-0.4530491
132	0xbe3c742c	-0.18403691
133	0x3d728639	0.059210036
134	0x3e958336	0.29201669
135	0x3ee49669	0.44646004
136	0x3eea023b	0.45704827
137	0xbe8517d6	-0.25994748
138	0x3e8557cb	0.26043543
139	0xbe42b344	-0.19013697
140	0x3d98c2ff	0.074590676
141	0x3ea24226	0.31691092
142	0xbe07ed02	-0.13274005
143	0xbed5201a	-0.41626054
144	0xbef7c9f8	-0.48396277
145	0xbded6238	-0.11590999
146	0xbeb05315	-0.34438387
147	0xbf20a433	-0.6275055
148	0x3db595c3	0.088664554
149	0x3f8fdda8	1.1239519
150	0xbcb0030e	-0.021485832
151	0x3ea382b9	0.3193567
152	0xbeb643c3	-0.35598573
153	0xbf2501ef	-0.64456075
154	0x3f09539e	0.53643215
155	0xbe901831	-0.28143457
156	0xbe7ca4bf	-0.2467222
157	0xbe2b637c	-0.16737169
158	0xbee8e915	-0.45490327
159	0xbee87a3c	-0.45405757
160	0xbef145b6	-0.47123498
161	0xbec671bf	-0.38758656
162	0x3ecae091	0.39624456
163	0x3ea523f1	0.32253984
164	0xbedd9112	-0.43274742
165	0x3dcd73af	0.100318305
166	0xbe7b16fc	-0.24520487
167	0xbeab58f4	-0.33466303
168	0x3eef80e7	0.46778032
169	0x3ec86cb7	0.39145443
170	0x3f0dd7a4	0.55407166
171	0xbcdd2eba	-0.02699982
172	0xbe9ed8bb	-0.31024727
173	0xbe3c9805	-0.18417366
174	0xbef8ca6b	-0.48591933
175	0x3deb5252	0.11490311
176	0xbe50450e	-0.20338842
177	0xbe8c3658	-0.2738521
178	0x3e0ff9aa	0.14060083
179	0xbd99ebae	-0.075156555
180	0xbe77bd00	-0.24193192
181	0xbee2a41e	-0.44265836
182	0x3ee88273	0.45412025
183	0xbf047746	-0.51744497
184	0xbe901916	-0.2814414
185	0xbe082174	-0.13294011
186	0x3e9c12d5	0.30483118
187	0xbea38a01	-0.31941226
188	0xbe803834	-0.2504288
189	0x3efcd9b0	0.49384832
190	0x3e51ea57	0.2049955
191	0xbec22cc6	-0.37924784
192	0x3e482553	0.19545488
193	0xbeb0ba36	-0.34517068
194	0x3dc460ca	0.095887735
195	0xbdb8da37	-0.09025996
196	0xbeb2fe09	-0.34959438
197	0x3e053c1b	0.1301121
198	0xbed738b8	-0.4203546
199	0xbe82e4c9	-0.25565174
200	0x3ef8c720	0.4858942
201	0xbd9e8b67	-0.07741433
202	0xbf07fd0a	-0.5312048
203	0x3e942003	0.28930673
204	0xbeeb3ccd	-0.45944825
205	0x3e509e8b	0.2037298
206	0xbee20ca2	-0.44150263
207	0xbd6b0dd3	-0.05738623
208	0x3d8cd7bd	0.06877086
209	0xbe40e6ed	-0.18838091
210	0x3e4ed7bc	0.20199484
211	0x3e6de192	0.2323058
212	0x3eff9d31	0.49924615
213	0xbebededa	-0.37279397
214	0x3c79b1e4	0.015240166
215	0x3cbfc8b4	0.023411132
216	0x3ec8e912	0.3924032
217	0xbeb03743	-0.3441716
218	0x3ed34bce	0.41268772
219	0xbe7678fd	-0.24069591
220	0xbf0fe08c	-0.56202006
221	0xbee96a19	-0.4558876
222	0xbec7ede0	-0.39048672
223	0xbdc5d842	-0.096603885
224	0x3c9b6309	0.018968122
225	0xbe823640	-0.25432014
226	0xbec3ed37	-0.38266918
227	0x3cd39f67	0.025832845
228	0xbe6e68b7	-0.23282133
229	0xbe9a45d3	-0.30131397
230	0x3e4857a1	0.19564678
231	0xbe5baf0d	-0.21453495
232	0x3ccf9ba0	0.025342762
233	0x3e593b4b	0.21214025
234	0x3ea103a7	0.314481
235	0xbf326bdf	-0.6969585
236	0x3e4fe5e9	0.20302548
237	0x3e9d1968	0.30683446
238	0xbe89fdce	-0.2695145
239	0xbeb23ccd	-0.34812012
240	0xbf468a93	-0.775552
241	0xbee0e265	-0.43922725
242	0x3c9d4acc	0.019200705
243	0x3ecd052d	0.4004301
244	0xbe6bd2ef	-0.23029684
245	0xbf8f395b	-1.1189378
246	0x3e108c4a	0.14116016
247	0xbe0085a5	-0.12550981
248	0xbea5cd25	-0.32383075
249	0xbee0c42c	-0.43899667
250	0xbde005f1	-0.10938633
251	0xbf0be0dc	-0.54639983
252	0xbc5018b0	-0.012701198
253	0xbedb951a	-0.42887193
254	0x3eb8f566	0.36124724
255	0xbe3a318f	-0.18182968
