training/dirckpt/MAP_best_loss_0.ckpt (torch, 213387 bytes, 25 tensors)

JKNet_layer_list.0.weight f4 [111, 18]
0	0x3ed4c67b	0.4155768
1	0x3ff295e7	1.8951997
2	0xbe3d536f	-0.18488859
3	0x3e2c95a4	0.16853958
4	0xbf168c3a	-0.5880772
5	0xbf533f9d	-0.8251894
6	0xbf4d19a3	-0.80117244
7	0x3e50cc42	0.20390418
8	0x3f566fed	0.83764535
9	0xbd8df67e	-0.0693178
10	0x3d0eb24a	0.034838
11	0x3edbb76f	0.42913386
12	0xbf0a21ca	-0.5395781
13	0x3ecc3148	0.3988135
14	0xbe20254f	-0.15639232
15	0x3f29709c	0.66187453
16	0x3fb7343b	1.4312814
17	0x3f505e98	0.8139434
18	0xbf3034bb	-0.6883046
19	0x3ecea155	0.40357462
20	0xbed4928f	-0.41518065
21	0x3e188d88	0.1489774
22	0x3e25f3e0	0.16206312
23	0x3fa6232e	1.2979486
24	0xbf81d1fa	-1.0142205
25	0xbf49f8e5	-0.7889541
26	0xbf8d9532	-1.1061156
27	0xbef95631	-0.4869857
28	0xbf239b90	-0.63909245
29	0x3b02cc30	0.001995813
30	0xbf2d081a	-0.67590487
31	0xbf93b40e	-1.1539323
32	0x3c389d0f	0.011267914
33	0x3f770123	0.9648611
34	0x3e4a3c9b	0.19749682
35	0xbe3db9ec	-0.18527955
36	0x3e2a505c	0.16632217
37	0x3ec7fade	0.39058584
38	0x3f2331ed	0.63748056
39	0xbf85d8fb	-1.0456842
40	0x3e669ed9	0.22521533
41	0xbf013a91	-0.5047999
42	0xbed68a0d	-0.419022
43	0x3f7f2636	0.9966768
44	0x3ea7b60e	0.32756084
45	0x3fd9c560	1.7013359
46	0xbe8aa66e	-0.270801
47	0x3f5fd6a6	0.874369
48	0xbe4b3c05	-0.19847114
49	0xbeb9a9f0	-0.36262465
50	0x3eb2f4e1	0.34952453
51	0xbe3acd17	-0.18242298
52	0xc0273ef2	-2.6132169
53	0xc0060857	-2.094259
54	0xbe1cbadc	-0.15305656
55	0xbe70faea	-0.23533216
56	0xbd9a202c	-0.075256675
57	0xbd62b948	-0.05535248
58	0xbd494ddc	-0.049146518
59	0xbf1444d7	-0.5791754
60	0xbd663998	-0.05620727
61	0xbf075b49	-0.52873665
62	0x3e6350c7	0.22198783
63	0xbebe82b4	-0.37209094
64	0xbe8094df	-0.2511358
65	0xbf038530	-0.51375103
66	0xbeb51568	-0.35367894
67	0xbe73b77b	-0.23800461
68	0xbe3c78e4	-0.18405491
69	0xbe6e2569	-0.23256458
70	0x3f27399b	0.65322274
71	0x3e8ca670	0.27470732
72	0x3f36b1d3	0.7136509
73	0x3f30a21b	0.68997353
74	0x3e5a9136	0.21344456
75	0xbf6a5080	-0.91529083
76	0xbe7655eb	-0.24056213
77	0x3f8b6fa9	1.0893451
78	0x3ee90a08	0.45515466
79	0xbd29c9e7	-0.041452315
80	0x3e176985	0.14786346
81	0xbe35eba0	-0.17765665
82	0xbe25909b	-0.16168444
83	0x3eaee5c9	0.34159687
84	0x3f628d99	0.8849731
85	0x3ed166e5	0.40898815
86	0x3eba4cb1	0.36386636
87	0x3d3a9e76	0.045561276
88	0xbf2edd3b	-0.6830632
89	0x3d3fb177	0.046800103
90	0x3f0d0d69	0.5509859
91	0xbd1b4560	-0.037907958
92	0xbe1a0544	-0.15041071
93	0x3f2a5ef2	0.66551125
94	0x3f0ae409	0.54254204
95	0xbd918ac1	-0.07106543
96	0x3ce8b6f6	0.028407555
97	0xbe46b999	-0.19406737
98	0xbced6a5c	-0.02898138
99	0xbf21a403	-0.6314089
100	0xbead8e7e	-0.33897775
101	0xbdbe49c6	-0.09291415
102	0x3d840c51	0.06447662
103	0x3ce8ad8f	0.028403072
104	0x3dcc4cae	0.09975563
105	0xbee94201	-0.4555817
106	0xbf1d9df9	-0.6156917
107	0xbeec72ef	-0.46181437
108	0x3dba037b	0.09082695
109	0xbf233701	-0.63755804
110	0xbd510914	-0.05103405
111	0x3e2a30ff	0.16620253
112	0xbd89eab8	-0.06734222
113	0xbf225ecd	-0.63425905
114	0xbeb2d50c	-0.34928167
115	0x3e0fe283	0.14051251
116	0xbeeecc9d	-0.46640483
117	0xbe068c59	-0.13139476
118	0xbf4855bf	-0.7825584
119	0xbf23c64d	-0.6397446
120	0xbee6a7ec	-0.4504999
121	0x3ee75e70	0.45189238
122	0xbe2c4359	-0.16822566
123	0xbf1ede20	-0.62057686
124	0xbe99546c	-0.2994722
125	0xbf041226	-0.5159019
126	0xbe300436	-0.17189106
127	0x3f9d6fcb	1.2299742
128	0xbd96bfe9	-0.07360823
129	0x3e0ed682	0.13949016
130	0xbd823ac9	-0.06358869
131	0x3fd46942	1.6594622
132	0xbf64baf4	-0.8934777
133	0xbf0fc684	-0.56162286
134	0xbfa6679e	-1.3000371
135	0x3fef19d8	1.8679762
136	0xbf0fea99	-0.5621734
137	0xbcb69fb2	-0.022292946
138	0x3d74ee5e	0.059797637
139	0xbf6ff30f	-0.93730253
140	0x3e4557ad	0.19271727
141	0x3f00e72d	0.50352746
142	0xbe86d3db	-0.26333508
143	0xbf02b683	-0.5105974
144	0xbf0f3a84	-0.5594866
145	0xbfafbe30	-1.3729916
146	0x3e800a13	0.25007686
147	0xbe6a5360	-0.22883368
148	0xbf3aa9f2	-0.72915566
149	0xbf788c35	-0.9708894
150	0xbeb21c10	-0.34787035
151	0x3dcb3595	0.09922329
152	0xbf125c68	-0.5717225
153	0xbfa1fda1	-1.2655526
154	0x3f60d035	0.878177
155	0xbf6191be	-0.8811301
156	0x3e68d79a	0.22738495
157	0x3f867076	1.050307
158	0xbf4e0854	-0.8048146
159	0xbf1a6275	-0.60306484
160	0x3fb07944	1.3787007
161	0x3f525ffd	0.82177716
162	0xbee6ac90	-0.4505353
163	0x3eb7a27a	0.35866147
164	0x3eba157e	0.36344522
165	0xbef11920	-0.4708948
166	0xbf18745b	-0.59552544
167	0x3f0148cd	0.5050171
168	0xbf1ea0cc	-0.61964107
169	0xbe397c8c	-0.18113917
170	0xbe9ab33a	-0.30214864
171	0x3ee3f351	0.44521573
172	0xbf8dc4d1	-1.1075689
173	0xbe68702e	-0.22699043
174	0xbde573c1	-0.11203719
175	0xbf4bda98	-0.7963042
176	0x3d7e0471	0.062015954
177	0xbdd4b2f8	-0.10385698
178	0xbe9f778c	-0.31145895
179	0xbf23e78a	-0.64025176
180	0xbe52c499	-0.20582809
181	0xbf16a5a2	-0.58846486
182	0xbe7a9d20	-0.24474001
183	0xbec67f76	-0.3876912
184	0xbedcaefc	-0.43102252
185	0xbe85f956	-0.2616679
186	0xbdd7641f	-0.105171435
187	0xbf3ad308	-0.7297826
188	0xbee78aef	-0.45223185
189	0xbddd4504	-0.10804179
190	0x3f81fb9c	1.015491
191	0xbf3ab953	-0.7293903
192	0x3dd9f0d7	0.1064164
193	0x3ec54510	0.38529253
194	0xbf02224c	-0.5083358
195	0x3e0e1b49	0.13877596
196	0x3f265990	0.6498041
197	0x3f2e8ed2	0.68186677
198	0x3caf6c2d	0.021413887
199	0x3ee482c6	0.44631022
200	0xbe843156	-0.2581889
201	0xbe50e530	-0.20399928
202	0x3e640446	0.22267255
203	0x3f13f6f4	0.57798696
204	0xbd965d00	-0.07341957
205	0xc00adb49	-2.169634
206	0xbeca5c63	-0.3952361
207	0xc056202d	-3.3457139
208	0x3ea35206	0.31898516
209	0x3f4248f2	0.75892556
210	0xbd87d609	-0.06632621
211	0x3f9622bc	1.172935
212	0xbeec2277	-0.46120045
213	0xbd6c2dfe	-0.05766105
214	0xbf630650	-0.8868151
215	0xbf02d9de	-0.5111369
216	0x3e998dfe	0.29991144
217	0x3f090fa9	0.5353952
218	0x3e650ffa	0.22369376
219	0xbc8f6702	-0.017505173
220	0x3e8f827d	0.28029242
221	0x3ef72848	0.4827292
222	0xbeb7fc77	-0.35934803
223	0x3ed54b6e	0.4165911
224	0x3eebcf92	0.460568
225	0x3fb04d25	1.3773543
226	0x3e596bae	0.21232483
227	0x3d3a3a06	0.04546549
228	0xbf97de7c	-1.1864772
229	0xbfdfbe44	-1.747994
230	0xbf995a0c	-1.1980605
231	0x3f1adbf3	0.60491866
232	0x3e34df07	0.17663203
233	0x3ed286fd	0.41118613
234	0xbe4ab6fc	-0.19796365
235	0x3ea41edd	0.32054797
236	0x3ce1dfce	0.027572539
237	0xbe0e864f	-0.13918422
238	0xbf2bf6ba	-0.6717335
239	0xbfa9083f	-1.3205642
240	0x3f180c3e	0.5939368
241	0xbd81869b	-0.06324502
242	0xbd12368f	-0.035696562
243	0xbdea33b6	-0.11435644
244	0xbf0b0d6a	-0.54317343
245	0xbe2ca0ab	-0.16858165
246	0xbe17102f	-0.14752267
247	0xbddd6c61	-0.10811687
248	0xbb5b741c	-0.0033485955
249	0xbd237cdd	-0.039914
250	0xbed399b8	-0.41328216
251	0xbea07760	-0.31341076
252	0xbdb3f9df	-0.087878935
253	0xbcac0e6d	-0.021002972
254	0x3e4a723c	0.1977014
255	0xbebe8bf3	-0.37216148

JKNet_layer_list.0.bias f4 [111]
0	0xbe90ce3c	-0.28282344
1	0xbefc9ce0	-0.49338436
2	0x3de6276e	0.11237989
3	0x3da699ff	0.08134841
4	0x3f016eba	0.5055958
5	0xbf0f57d9	-0.5599342
6	0x3ea126e9	0.31475
7	0xbe0dd653	-0.1385129
8	0xbf833cdb	-1.0252947
9	0x3f352d82	0.70772564
10	0x3ef20197	0.47266838
11	0xbf18e592	-0.59725296
12	0x3e083536	0.13301548
13	0xbebe90d0	-0.37219858
14	0x3cd4e139	0.0259863
15	0xbf26a2aa	-0.65091956
16	0x3e048dad	0.1294467
17	0xbe80840f	-0.25100753
18	0x3df65baf	0.12029206
19	0xbefa8fbe	-0.48937792
20	0xbc6a5271	-0.014301882
21	0xbe9800a9	-0.29688004
22	0x3eab43ba	0.3345011
23	0xbed09614	-0.407395
24	0x3f53afa4	0.8268988
25	0x3f36acd0	0.7135744
26	0xbf761448	-0.96124697
27	0x3e73cd64	0.23808819
28	0xbea1a06f	-0.31567714
29	0xbf15cf6d	-0.5851963
30	0xbe839962	-0.2570296
31	0x3ec37a26	0.3817913
32	0x3e795f14	0.24352676
33	0x3c88aa7c	0.016682856
34	0xbe131df9	-0.14366902
35	0x3e98bd38	0.29831862
36	0xbc65188b	-0.013982902
37	0xbf5ded28	-0.86689997
38	0x3f6721f8	0.9028621
39	0xbe11ed87	-0.14250766
40	0xbf02b71f	-0.5106067
41	0x3f8425f7	1.0324086
42	0x3f6b6f5d	0.919668
43	0xbf0dc0b4	-0.55372167
44	0xbed353d9	-0.41274908
45	0xbe0ac45c	-0.13551468
46	0xbf328ef9	-0.6974941
47	0xbf110575	-0.5664895
48	0xbdeefaea	-0.11668952
49	0xbda5e67d	-0.08100603
50	0xbd2834e6	-0.041066073
51	0x3f0c1ce7	0.547316
52	0xbf043d59	-0.5165611
53	0x3f0164b2	0.50544274
54	0x3f0088c5	0.50208694
55	0x3e778720	0.2417264
56	0x3e5d4191	0.21607043
57	0xbddc09fa	-0.107440904
58	0x3e989292	0.29799324
59	0x3ed24be4	0.41073525
60	0xbf23eb72	-0.64031136
61	0xbd1909fc	-0.037363037
62	0xbf3d304f	-0.7390184
63	0x3dbcf6cd	0.09226761
64	0xbe8d320d	-0.27577248
65	0xbec621d6	-0.3869769
66	0xbec65f99	-0.3874481
67	0xbe2df143	-0.16986565
68	0x3f14d18e	0.58132255
69	0x3d92a4af	0.07160317
70	0xbe085e48	-0.13317215
71	0x3f0dd76b	0.55406827
72	0x3db92e24	0.09042004
73	0xbe8c1424	-0.27359116
74	0xbf19840f	-0.5996713
75	0x3eb9fb1e	0.363244
76	0x3e579a40	0.21054935
77	0x3ae72cd0	0.0017637257
78	0x3ee5b212	0.4486242
79	0xbe805dfa	-0.25071698
80	0x3d4761c8	0.048677236
81	0x3f244e15	0.64181644
82	0x3d55535d	0.052081455
83	0xbe31b538	-0.17354286
84	0x3ef3f0d9	0.4764469
85	0x3e93c323	0.28859815
86	0xbd4ca1ec	-0.04995911
87	0x403edfe4	2.9824152
88	0xbe809196	-0.25111073
89	0x3e332f1a	0.17498437
90	0xbd88d018	-0.06680316
91	0x3f3ec6e0	0.7452221
92	0x3efa1578	0.48844504
93	0x3e467c7d	0.19383426
94	0x3ea86e38	0.3289659
95	0x3ea1f8b2	0.31635052
96	0xbe20ec7a	-0.15715209
97	0xbf1d83f8	-0.61529493
98	0x3e270219	0.16309394
99	0x3f543262	0.8288938
100	0xbe8fc8be	-0.28082842
101	0xbe2e6066	-0.1702896
102	0x3da66e55	0.08126513
103	0x3edaffeb	0.42773375
104	0x3e8256ac	0.2545675
105	0xbea63676	-0.32463425
106	0x3e83c15c	0.2573346
107	0x3e3335ea	0.17501035
108	0xbec97978	-0.39350486
109	0x3f11a729	0.5689569
110	0xbf4a080c	-0.7891853

JKNet_layer_list.1.weight f4 [111]
0	0x3f999c91	1.2000905
1	0x3fb79656	1.4342754
2	0x3fbd2c43	1.4779133
3	0x3f0f19cf	0.55898756
4	0x3f84c80f	1.0373553
5	0x3f9e54b9	1.2369605
6	0x3f17629f	0.5913486
7	0x3f9b547b	1.2135156
8	0x40107ce3	2.2576225
9	0x3fd433a6	1.6578262
10	0x3f8ab791	1.083727
11	0x40008d5d	2.0086281
12	0x3fbca8a1	1.4738961
13	0x3f617510	0.8806925
14	0x3f370450	0.71490955
15	0x3f520a32	0.82046807
16	0x3f4a10b5	0.7893174
17	0x3f5bee95	0.8591092
18	0x3f4cbd1e	0.7997607
19	0x3fbbe49a	1.4679139
20	0x3fe656cf	1.7995242
21	0x3f576b0d	0.8414772
22	0x3e4ef872	0.20211962
23	0x3f2d48f1	0.67689425
24	0x3f943eb2	1.1581633
25	0x3f871ab2	1.0555022
26	0x3fbfc9ea	1.4983494
27	0x3ff0f698	1.8825254
28	0x3f88cc57	1.068736
29	0x3f512ad5	0.8170598
30	0x3f7d2ab3	0.9889328
31	0x3f9ad6f2	1.2096846
32	0x3f8859a9	1.0652362
33	0x3f94923a	1.1607125
34	0x3f612e29	0.8796106
35	0x3efd7b21	0.49508002
36	0x3faee84a	1.3664639
37	0x3f9ade63	1.2099117
38	0x3fb68265	1.4258543
39	0x3f2c9f62	0.674307
40	0x3fd2e51c	1.6476169
41	0x3fadd63b	1.3581003
42	0x3fdf7e12	1.7460349
43	0x3f4f707e	0.81031024
44	0x3fa1a5eb	1.2628759
45	0x3fac04da	1.343898
46	0x3f93701f	1.1518592
47	0x3fa069dc	1.2532306
48	0x3f99ee0e	1.2025774
49	0x4001e841	2.0298007
50	0x3f3130db	0.6921517
51	0x3fc526da	1.5402482
52	0x3fd3b12b	1.6538442
53	0x3f8535d8	1.0407057
54	0x3fccfbbe	1.6014326
55	0x3f947d64	1.1600766
56	0x3f954d5e	1.1664236
57	0x3f8e287e	1.1106107
58	0x3fa2f64d	1.2731415
59	0x3fb91da1	1.4462167
60	0x3f27f8e0	0.6561413
61	0x3fb104f2	1.3829634
62	0x3f9e96fd	1.2389828
63	0x3f4fcd37	0.8117251
64	0x3fbc72af	1.4722499
65	0x3f5933d4	0.8484471
66	0x3fb19c9e	1.3875921
67	0x3fee364b	1.8610319
68	0x4022a3af	2.5412405
69	0x3f1e3e84	0.6181414
70	0x3f9fe6da	1.2492325
71	0x3f7e312c	0.9929378
72	0x3f778ef7	0.9670252
73	0x3f4d7437	0.80255455
74	0x3fbf029f	1.4922675
75	0x3fe34a30	1.7757015
76	0x3f9dd44f	1.2330416
77	0x3f93b509	1.1539623
78	0x3fa38bbe	1.2777021
79	0x3ead7b8d	0.33883324
80	0x3f65e300	0.897995
81	0x3f76776d	0.9627598
82	0x3fa0a1ee	1.2549417
83	0x3f95eef1	1.1713544
84	0x3fb73731	1.4313718
85	0x3f3be9b9	0.7340351
86	0x3fa49f8e	1.2861192
87	0x3f6cd3ce	0.9251069
88	0x3fa7ff9a	1.3124878
89	0x3f88f988	1.0701151
90	0x3f1119f6	0.5668024
91	0x3fda2667	1.704297
92	0x3ff8fdb0	1.9452419
93	0x3faf324e	1.3687227
94	0x3fa226b4	1.2668061
95	0x3f91995c	1.1374927
96	0x3fb7c24e	1.4356172
97	0x3f86057a	1.0470421
98	0x4017e8ef	2.3735921
99	0x400cfdac	2.202983
100	0x3f691c57	0.9105887
101	0x3fa28192	1.2695792
102	0x3e9beeb8	0.30455565
103	0x3f6f8904	0.93568444
104	0x3e290260	0.16504812
105	0x3fcb4994	1.5881829
106	0x3f5ea31e	0.8696765
107	0x3fbc5843	1.4714435
108	0x3fe0479f	1.7521857
109	0x3f5dd4ba	0.8665272
110	0x3fa95715	1.32297

JKNet_layer_list.1.bias f4 [111]
0	0xbf006afe	-0.5016326
1	0xbec52fae	-0.3851294
2	0xbfd216bd	-1.6413189
3	0xbf0faf4d	-0.5612686
4	0xbf67afc9	-0.905026
5	0xbf47fcb7	-0.7811999
6	0x3ea75c2d	0.32687512
7	0xbf83cbe9	-1.0296603
8	0xbf30fd55	-0.69136554
9	0xbf1ffad0	-0.62492085
10	0xbefcb414	-0.4935614
11	0xbed195dc	-0.40934646
12	0xbf387050	-0.72046375
13	0xbf13e471	-0.5777045
14	0xbee7a45b	-0.4524258
15	0x3dea173e	0.11430214
16	0xbedc70a3	-0.43054685
17	0xbd724224	-0.059145108
18	0xbee557b3	-0.44793472
19	0xbea34c77	-0.31894276
20	0xbee735e2	-0.45158297
21	0xbf813c93	-1.0096611
22	0xbebed137	-0.37268993
23	0xbeeaeb76	-0.45882767
24	0xbf4e1feb	-0.8051745
25	0xbf393c84	-0.72357965
26	0xbfd10b2a	-1.6331532
27	0xbf681c88	-0.90668535
28	0xbed1f563	-0.41007528
29	0xbf3b27d0	-0.73107624
30	0xbe8c44f5	-0.2739636
31	0xbdaf9d35	-0.08574907
32	0xbf253cf6	-0.64546144
33	0x3d74e9b8	0.059793204
34	0xbd9b3047	-0.075775675
35	0x3d98fa42	0.07469608
36	0xbfda8f49	-1.7074977
37	0xbed7fc8f	-0.42184874
38	0xbf30f62b	-0.6912562
39	0xbe9f6192	-0.31129128
40	0xbf86dcab	-1.0536093
41	0xbf1ab84f	-0.6043748
42	0xbeee0a02	-0.4649201
43	0xbe76402c	-0.24047917
44	0xbf286938	-0.6578555
45	0xbf2ec7b4	-0.6827347
46	0xbd893537	-0.06699603
47	0xbf874090	-1.0566578
48	0xc0165d1a	-2.3494325
49	0xbfd857f5	-1.6901842
50	0xbea173e2	-0.31533724
51	0xbf2ddbe4	-0.6791365
52	0xbf0af13d	-0.5427435
53	0xbf808157	-1.0039471
54	0xbf183863	-0.5946104
55	0xbde2f51c	-0.11081907
56	0xbee07eb0	-0.43846655
57	0xbf4c47d0	-0.7979708
58	0xbf95e956	-1.1711833
59	0xbf7dd106	-0.9914707
60	0xbe31b3bf	-0.17353724
61	0xbf1226d7	-0.57090515
62	0xbf91df7b	-1.1396326
63	0xbf4b3d59	-0.79390484
64	0xbe712079	-0.23547544
65	0xbf8e624c	-1.1123748
66	0xbf9a1e35	-1.2040468
67	0xbf860880	-1.0471344
68	0xbf6f2949	-0.9342237
69	0x3e4aeac8	0.19816124
70	0xbf1beaf2	-0.60905373
71	0xbea7d437	-0.32779095
72	0xbe18871e	-0.14895293
73	0xbf0a5384	-0.54033685
74	0xbfa8c53d	-1.3185192
75	0xbf5bf551	-0.859212
76	0xbefc3997	-0.49262688
77	0xbf6d9c34	-0.9281647
78	0xbef2610f	-0.47339675
79	0xbe01c1be	-0.12671563
80	0xbf0012c9	-0.50028664
81	0xbf2cc4b0	-0.6748762
82	0xbf701408	-0.93780565
83	0x3be52304	0.0069926996
84	0xbef27f61	-0.47362807
85	0xbeedc63d	-0.46440306
86	0xbf52316a	-0.8210665
87	0xbe1ee29f	-0.15516137
88	0xbebe17d4	-0.37127554
89	0xbf3e6985	-0.7437976
90	0xbeacffdd	-0.33788958
91	0xbf13bf15	-0.57713443
92	0xbfecb50f	-1.8492755
93	0xbf413358	-0.7546897
94	0xbf59c2b0	-0.85062695
95	0xbe71fd6d	-0.2363183
96	0xbefe00a8	-0.49609876
97	0xbf29f083	-0.66382617
98	0xbf8faabb	-1.1223978
99	0xbf5242f6	-0.82133424
100	0xbf41171a	-0.75425875
101	0xbfaa090a	-1.3284009
102	0xbf292104	-0.66066
103	0xbf3b5770	-0.73180294
104	0xbf10f36f	-0.5662145
105	0xbf2b0fb1	-0.6682082
106	0xbee5a5e8	-0.4485314
107	0xbf394890	-0.72376347
108	0xbf297acb	-0.6620299
109	0xbefccfcf	-0.49377295
110	0xbf6a1bbb	-0.91448563

JKNet_layer_list.1.running_mean f4 [111]
0	0xbf8dfadd	-1.1092182
1	0xbe25bea2	-0.16186002
2	0x3e44763c	0.19185728
3	0xbf8861ba	-1.0654824
4	0x3fe336e2	1.7751124
5	0xbe83f81f	-0.2577524
6	0xbf85ca01	-1.0452272
7	0x3f80054a	1.0001614
8	0xc03a97db	-2.9155185
9	0xbe3a4b8a	-0.18192878
10	0xbeb2356d	-0.34806386
11	0xbec56c60	-0.38559246
12	0x3ef2a1e9	0.47389153
13	0xc016ae2d	-2.3543808
14	0x3ea26361	0.31716445
15	0xbfa92010	-1.321291
16	0xbf179ccd	-0.59223634
17	0x3f002574	0.5005715
18	0xbf182206	-0.59426916
19	0xbf061907	-0.5238194
20	0xbf32356e	-0.6961278
21	0xbe1c5c3c	-0.1526956
22	0xbf013548	-0.50471926
23	0xbf5ae4b2	-0.8550521
24	0x3e64ca1e	0.22342727
25	0x3fbca104	1.4736638
26	0xbefe674b	-0.4968818
27	0xbf99edd1	-1.2025701
28	0xbff7a744	-1.934792
29	0xbe85396b	-0.2602037
30	0x3cd6de0a	0.026228923
31	0xbf827df7	-1.0194691
32	0xbf378f56	-0.7170309
33	0xbfcdd9b5	-1.6082064
34	0xbfc588db	-1.543239
35	0xbf69f30a	-0.91386473
36	0xbe01ffe5	-0.12695272
37	0xbeff4392	-0.4985624
38	0xbf823cad	-1.0174767
39	0xbf5c43ff	-0.86041254
40	0xbf9ffaf9	-1.2498466
41	0x3fce9ea1	1.614216
42	0x3fc7f886	1.5622718
43	0xc0002853	-2.0024612
44	0xbf597e81	-0.84958655
45	0xbec16e08	-0.3777926
46	0xc019cda8	-2.4031773
47	0x3f8b1d07	1.0868233
48	0x3fc29b78	1.5203695
49	0xbc5db28c	-0.013531338
50	0xbf7b7543	-0.982258
51	0xbeb7eb42	-0.35921675
52	0xbfa0018a	-1.250047
53	0x4024e781	2.5766299
54	0x3e7f368c	0.24923152
55	0xbf0689eb	-0.52554196
56	0xbf2c17e5	-0.6722396
57	0xbee51323	-0.44741163
58	0x3f40ad97	0.7526488
59	0xbe876f3e	-0.2645206
60	0xbdd6f425	-0.104957856
61	0x3cba4386	0.022737276
62	0xbeab644c	-0.33474958
63	0xc00a1276	-2.1573768
64	0xbefdb462	-0.49551684
65	0x3e8b6dbd	0.2723216
66	0x3e5531f0	0.20819831
67	0xbf306faa	-0.68920386
68	0x3f0e0f48	0.5549207
69	0xbf829ab3	-1.020346
70	0x3df046bb	0.11732241
71	0x3eabea40	0.33577156
72	0xbdc564eb	-0.09638389
73	0xbfb8ac0e	-1.4427507
74	0x3e660510	0.22462869
75	0xbd0bcfd3	-0.034133743
76	0xbea564af	-0.32303378
77	0x3f70e324	0.9409659
78	0xbfcf1057	-1.6176862
79	0xbe21d16a	-0.15802541
80	0xbfb3e94a	-1.4055569
81	0x3edbe70d	0.42949715
82	0x3f372147	0.7153515
83	0xbf1f5f42	-0.62254727
84	0x3f6a7b9e	0.91594875
85	0xbf3b6dad	-0.73214227
86	0x3d838abf	0.06422948
87	0x405262cd	3.2872803
88	0x3ef6bdd4	0.48191702
89	0xbfe6d22d	-1.803289
90	0xbe416b76	-0.1888865
91	0xbddd4f83	-0.10806181
92	0x3ed80312	0.42189842
93	0xbf1e1fea	-0.61767447
94	0xbf4322d5	-0.76225024
95	0x3f989563	1.1920589
96	0x3d958d43	0.07302334
97	0xbf99dbc2	-1.202019
98	0xbf646c35	-0.8922761
99	0x40002e64	2.0028315
100	0xbe8799bb	-0.26484475
101	0xbe9de2e1	-0.30837157
102	0xbf93cb79	-1.154647
103	0x3f45fb36	0.7733644
104	0x3e95351b	0.2914208
105	0x3f521711	0.82066447
106	0xbf46285d	-0.7740534
107	0xbf1feaf6	-0.62467897
108	0xbf9aa75c	-1.2082324
109	0x3ec5c1af	0.3862433
110	0xbf3cf0f8	-0.7380519

JKNet_layer_list.1.running_var f4 [111]
0	0x3d882a52	0.06648697
1	0x3e7847cb	0.24246137
2	0x3e1689f0	0.14701056
3	0x3db5c230	0.08874929
4	0x3db5da70	0.08879554
5	0x3d5b322a	0.053514637
6	0x3e6c3b71	0.2306955
7	0x3dfcdad1	0.123464234
8	0x3d6c0f69	0.057631884
9	0x3e870397	0.26369926
10	0x3d16309b	0.036667448
11	0x3dbc944c	0.09207973
12	0x3d7eee6d	0.0622391
13	0x3d4f3ec7	0.05059698
14	0x3d4574b9	0.04820702
15	0x3e462450	0.1934979
16	0x3e1f95a5	0.15584429
17	0x3d9b52ad	0.075841285
18	0x3e19296a	0.14957204
19	0x3dbc71f5	0.09201423
20	0x3daa6108	0.083192885
21	0x3e0b934c	0.13630408
22	0x3e2daaaa	0.16959634
23	0x3e207211	0.15668513
24	0x3d40fe39	0.047117446
25	0x3d8e7a12	0.06956877
26	0x3d8d8bbd	0.069114186
27	0x3e1a4b83	0.15067868
28	0x3ec0b189	0.3763545
29	0x3db3b023	0.0877383
30	0x3d939541	0.07206202
31	0x3e4a5dca	0.1976234
32	0x3dd465eb	0.10371002
33	0x3e22915e	0.15875766
34	0x3e899f5c	0.26879394
35	0x3e3604b9	0.17775239
36	0x3db322a1	0.08746839
37	0x3e0b661f	0.13613175
38	0x3e224127	0.15845166
39	0x3e46d511	0.19417216
40	0x3d941093	0.07229724
41	0x3d78dd8a	0.06075815
42	0x3df8b40e	0.12143718
43	0x3e30e8c3	0.17276292
44	0x3d5f5420	0.054523587
45	0x3d37f87e	0.044914715
46	0x3e0d91a6	0.13825092
47	0x3e8eace1	0.2786627
48	0x3d9a9de0	0.075496435
49	0x3daa8c7c	0.083275765
50	0x3e0cae30	0.13738322
51	0x3da7b1f7	0.08188241
52	0x3e414d22	0.1887708
53	0x3e91a5bc	0.28446758
54	0x3dcda3e3	0.100410245
55	0x3d369a17	0.044580545
56	0x3d1ee36e	0.038791113
57	0x3d35c69b	0.044378858
58	0x3dad95e8	0.08475858
59	0x3d97dac2	0.074147716
60	0x3dab01c6	0.08349948
61	0x3e683b28	0.22678816
62	0x3e2f0d04	0.17094809
63	0x3e2b4a4c	0.16727561
64	0x3d66fa27	0.056390908
65	0x3d89849b	0.067147456
66	0x3dbd0d99	0.09231109
67	0x3dda7abc	0.10667941
68	0x3dd120c3	0.10211327
69	0x3e1c1a53	0.15244417
70	0x3dd70619	0.1049921
71	0x3dc942fb	0.09827229
72	0x3d9d7669	0.076886006
73	0x3e511cd3	0.20421152
74	0x3e10e35e	0.14149234
75	0x3dc0adf4	0.09408179
76	0x3db853cd	0.09000359
77	0x3d896da8	0.067103684
78	0x3db8a05e	0.090149626
79	0x3e04c469	0.1296555
80	0x3dd09c4f	0.101860635
81	0x3d9d8e6c	0.076931804
82	0x3de1e00b	0.11029061
83	0x3da89c9f	0.08232998
84	0x3d94715f	0.07248186
85	0x3df533e7	0.1197279
86	0x3e26bf73	0.1628397
87	0x3da59405	0.08084873
88	0x3d9d45e6	0.07679348
89	0x3d78b508	0.06071952
90	0x3dff638c	0.12470159
91	0x3e32ddc9	0.17467417
92	0x3e708e8d	0.23491879
93	0x3d8df088	0.06930643
94	0x3dfb6b4e	0.12276326
95	0x3d1c67d7	0.038184967
96	0x3d320ec1	0.0434711
97	0x3dd5b957	0.104357414
98	0x3e0f4537	0.13991247
99	0x3e207650	0.15670133
100	0x3d75794e	0.05993014
101	0x3d0f9ad7	0.035059776
102	0x3e636ae8	0.2220875
103	0x3de15cea	0.1100405
104	0x3dcb540d	0.09928141
105	0x3d83fb92	0.064444676
106	0x3e1256eb	0.14290969
107	0x3d6f61ad	0.05844276
108	0x3ebe831b	0.372094
109	0x3d9dfd91	0.077143796
110	0x3cc9da79	0.024640309

JKNet_layer_list.4.weight f4 [111, 111]
0	0xbe187c56	-0.1489118
1	0x3f3fea79	0.7496715
2	0x3ecadbfb	0.39620957
3	0xbedc69f9	-0.430496
4	0xbd3edd5e	-0.04659783
5	0xbe1c7081	-0.15277292
6	0xbe0622eb	-0.13099258
7	0xbd8c036f	-0.068365924
8	0xbfa53521	-1.2906839
9	0xbae29c60	-0.0017289035
10	0xbf1e473f	-0.6182746
11	0xbe2af35b	-0.16694395
12	0xbea19bf3	-0.31564292
13	0xbdbafaf2	-0.09129895
14	0x3f28b273	0.6589729
15	0x3d3d96cf	0.0462864
16	0xbe18c0cf	-0.149173
17	0xbe68f048	-0.2274791
18	0x3e2ebc0f	0.17063926
19	0xbab9a5b8	-0.0014163768
20	0xbdebf4ab	-0.11521276
21	0x3ec91832	0.39276272
22	0xbeacc761	-0.33745864
23	0x3ed9d331	0.4254394
24	0x3eb691f6	0.35658234
25	0xbd03e1cf	-0.03219777
26	0xbf26f55a	-0.65218127
27	0x3d68f333	0.056872558
28	0x3e218117	0.157719
29	0xbe30823d	-0.17237182
30	0x3e74a8d6	0.23892531
31	0xbee4b31d	-0.44667903
32	0x3ddf6915	0.10908715
33	0xbe310c71	-0.17289902
34	0xbda08d60	-0.07839465
35	0xbea5c66a	-0.3237794
36	0x3eab9d40	0.3351841
37	0x3effe044	0.4997579
38	0x3de0aa42	0.10969974
39	0x3e8a4ce0	0.27011776
40	0xbf66d5a5	-0.90169746
41	0xbed5556a	-0.41666728
42	0x3e8dd653	0.2770258
43	0xbe1ed1af	-0.15509675
44	0x3ce6f160	0.028191268
45	0x3e3e0e76	0.18560204
46	0x3e355a48	0.17710221
47	0xbec15306	-0.37758654
48	0x3eb62b33	0.35579833
49	0xbefb8473	-0.49124488
50	0xbedefbcc	-0.4355148
51	0xbc7421d8	-0.014900647
52	0xbedf976c	-0.43670213
53	0xbe40aa17	-0.18814884
54	0x3ecc2f55	0.3987986
55	0xbef1d968	-0.4723618
56	0x3dd97a3b	0.10619017
57	0x3dda5da5	0.106623925
58	0xbf94991c	-1.1609225
59	0x3e7badba	0.2457799
60	0x3e913e3a	0.28367788
61	0x3f72587a	0.94666255
62	0xbf2f1a8a	-0.6839987
63	0xbe6ee327	-0.23328839
64	0xbd418941	-0.047250036
65	0x3f3b51fc	0.73171973
66	0xbefdd921	-0.4957972
67	0xbe8938ef	-0.2680125
68	0x3dfd6c97	0.123742275
69	0x3e0179c5	0.12644108
70	0x3db7f2c4	0.08981851
71	0xbc9c66b4	-0.019091941
72	0x3e87ca43	0.265215
73	0xbed49080	-0.41516495
74	0xbb612f1b	-0.0034360352
75	0x3d300618	0.04297456
76	0x3dd1f749	0.10252244
77	0x3e02292b	0.12711017
78	0xbefa3130	-0.48865652
79	0x3d15119f	0.036393758
80	0x3e713a79	0.23557462
81	0x3df4e425	0.119575776
82	0xbf1ed5ea	-0.62045157
83	0x3e233798	0.15939176
84	0x3efed3d7	0.49770996
85	0xbe0b66b0	-0.13613391
86	0x3e3a5063	0.18194728
87	0xbe993cef	-0.299293
88	0xbf7c4d6c	-0.98555636
89	0xbe8b331c	-0.2718743
90	0xbe87eb51	-0.2654672
91	0x3bb0b71e	0.005392923
92	0xbeabb6a7	-0.3353779
93	0x3d11666c	0.035498068
94	0xbea61c30	-0.3244338
95	0xbf4fdeef	-0.81199545
96	0xbda86b95	-0.08223645
97	0x3da30922	0.07960726
98	0xbd3fd63d	-0.046835173
99	0xbfdd7896	-1.7302425
100	0x3d910c42	0.07082416
101	0xbe73ea5f	-0.23819874
102	0xbeaa56b3	-0.3326927
103	0xbe9c5481	-0.3053322
104	0xbcb3aa4c	-0.02193179
105	0xbe982722	-0.29717356
106	0xbde22b79	-0.11043448
107	0xbf4fea1e	-0.8121661
108	0xbd8fc12b	-0.07019266
109	0xbe6b1664	-0.2295776
110	0xbef0b2a0	-0.4701128
111	0x3dedc003	0.11608889
112	0xbe1bc855	-0.1521314
113	0x3f028834	0.5098908
114	0xbdc14988	-0.09437853
115	0xbe194d48	-0.14970887
116	0xbe829b42	-0.25509077
117	0xbd9988e9	-0.07496817
118	0x3df005c2	0.11719848
119	0x3eb1b3ee	0.34707588
120	0x3de5cbf0	0.112205386
121	0xbf1c82c1	-0.61137015
122	0xbeca41c6	-0.39503306
123	0xbdc4bd6d	-0.096064426
124	0xbe794284	-0.2434178
125	0x3e81ae91	0.25328496
126	0x3f38c49f	0.7217502
127	0xbdd178a2	-0.10228087
128	0xbc8a5080	-0.016884089
129	0xbe5e4fbe	-0.21710107
130	0xbf121a74	-0.57071614
131	0xbf4f11ab	-0.80886334
132	0xbd8fc273	-0.0701951
133	0xbe24f633	-0.16109543
134	0xbecf1ce9	-0.40451744
135	0x3e1ceb2d	0.15324087
136	0xbc77356f	-0.015088423
137	0x3ebd903f	0.37024114
138	0x3ebd8652	0.3701654
139	0x3f327dc4	0.69723153
140	0xbf0f94bd	-0.5608633
141	0xbee481aa	-0.44630176
142	0xbec4187c	-0.3829993
143	0xbea23826	-0.31683463
144	0x3d8506a7	0.064954095
145	0xbc64fcaf	-0.01397626
146	0xbe3970ad	-0.18109389
147	0xbec0888d	-0.3760418
148	0x3e1f6110	0.1556437
149	0xbe9ac310	-0.30226946
150	0x3de8d32e	0.11368404
151	0x3e8e2b13	0.27767238
152	0x3e3d94a9	0.1851374
153	0x3ef2ed7f	0.4744682
154	0xbe263b5e	-0.16233584
155	0x3e819a2e	0.25312942
156	0x3f18136a	0.59404624
157	0x39875628	0.00025813398
158	0xbf10fbfe	-0.5663451
159	0x3e008ae6	0.12552986
160	0x3f0518e6	0.51991117
161	0x3e581262	0.21100762
162	0xbec9480e	-0.39312786
163	0x3daf919d	0.085726954
164	0x3dda4a72	0.106587306
165	0xbf20f4f4	-0.6287377
166	0xbeb62815	-0.35577455
167	0xbdab478c	-0.08363256
168	0xbedd0bf5	-0.43173185
169	0x3e310581	0.17287256
170	0xbf26a773	-0.6509926
171	0xbf491a62	-0.7855588
172	0xbbae6de4	-0.0053231586
173	0x3e528faa	0.20562616
174	0x3e870c01	0.26376346
175	0xbecac9e0	-0.39607143
176	0x3c54d276	0.012989631
177	0x3d23856b	0.03992216
178	0xbec6f027	-0.38855097
179	0xbed9fee4	-0.4257728
180	0x3d692721	0.05692208
181	0x3ed29cf5	0.41135374
182	0x3de819ff	0.11333083
183	0xbf1e6577	-0.61873573
184	0xbebae007	-0.36499044
185	0xbf16a8c8	-0.5885129
186	0x3ee5e6cb	0.44902644
187	0x3e4d0a51	0.20023467
188	0xbf0e84c0	-0.5567131
189	0xbe1a0a74	-0.1504305
190	0x3e9aa32c	0.30202615
191	0xbe3c06a3	-0.18361907
192	0xbece84a7	-0.4033558
193	0xbdcda7f2	-0.10041799
194	0xbf02358c	-0.50862956
195	0x3eedd953	0.46454868
196	0xbeeea15b	-0.4660748
197	0xbdf9336b	-0.1216801
198	0x3d15ef24	0.036605015
199	0xbec60ca9	-0.38681534
200	0xbe856de6	-0.26060408
201	0xbefbfcab	-0.49216208
202	0x3eb6e5ff	0.35722348
203	0x3d83c90b	0.0643483
204	0xbd46efd4	-0.04856856
205	0x3ebc346a	0.3675874
206	0xbe078c43	-0.132371
207	0xbee1f063	-0.44128713
208	0xbf050bbe	-0.5197104
209	0x3f4c46cc	0.7979553
210	0x3e1781af	0.14795564
211	0x3e632bfd	0.22184749
212	0xbf0151cc	-0.5051544
213	0xbe539981	-0.20664026
214	0xbea077b4	-0.31341326
215	0xbd7d12cb	-0.0617855
216	0xbed1c879	-0.4097326
217	0x3ec43e75	0.383289
218	0x3eceb574	0.40372813
219	0x3e69d840	0.22836399
220	0xbe90b623	-0.2826396
221	0xbe1b9721	-0.1519437
222	0xbe5a5759	-0.21322383
223	0x3e9a5fa1	0.30151084
224	0xbdf99f5b	-0.12188598
225	0x3d6fc640	0.058538675
226	0x3e5cd802	0.21566775
227	0xbd187cee	-0.037228517
228	0x3ee61e44	0.44944966
229	0x3eccde33	0.40013275
230	0x3e9bf9c9	0.30464008
231	0x3eeee223	0.46656904
232	0xbdaec313	-0.08533301
233	0xbdc8b64a	-0.09800394
234	0xbeba494a	-0.3638404
235	0x3dac68c5	0.08418421
236	0xbe4cde7e	-0.20006749
237	0x3edd8c89	0.43271282
238	0x3e32a7a5	0.17446764
239	0xbf0d37ea	-0.55163443
240	0x3ee18e37	0.44053814
241	0xbee26424	-0.44217026
242	0xbe9637ef	-0.2933955
243	0xbe3b1891	-0.1827109
244	0x3ee8d746	0.4547674
245	0xbebdf05c	-0.37097442
246	0xbe8d1c1a	-0.27560502
247	0x3e5ae7fc	0.21377558
248	0x3d3c59b0	0.04598397
249	0xbe1c06b0	-0.15236926
250	0x3ef97e87	0.48729345
251	0xbe619d80	-0.22032738
252	0xbe5e9ab0	-0.21738696
253	0x3ee63dd5	0.4496905
254	0xbdbd4fe3	-0.09243753
255	0x3ef42a2b	0.47688422

JKNet_layer_list.4.bias f4 [111]
0	0xbe1644c3	-0.14674668
1	0xbd17a533	-0.03702278
2	0xbb65d070	-0.0035066865
3	0x3d50104a	0.050796784
4	0xbd87d790	-0.06632912
5	0x3dd15da2	0.10222937
6	0xbd5eea0d	-0.054422427
7	0x3e3259a1	0.17417003
8	0x3dc0d9e6	0.09416561
9	0x3e0aa9a2	0.13541272
10	0xbeadd192	-0.33948952
11	0x3d90a539	0.07062764
12	0x3e9352ee	0.28774208
13	0xbe9e033a	-0.30861837
14	0xbd92093f	-0.0713067
15	0xbe5618b1	-0.20907857
16	0x3d8cb94b	0.06871279
17	0x3dc8793c	0.097887486
18	0xbe73d687	-0.23812304
19	0x3e86d86e	0.26336998
20	0xbd16878d	-0.036750365
21	0xbdcb4592	-0.09925379
22	0x3ddcdb1f	0.107839815
23	0x3e94618e	0.28980678
24	0x3d4af22b	0.049547356
25	0x3e30f852	0.17282227
26	0x3d6c5509	0.057698283
27	0x3d72265e	0.05911862
28	0x3dd939ec	0.10606751
29	0x3e329cf2	0.17442682
30	0x3d73dce5	0.059536833
31	0x3e855c09	0.2604678
32	0xbea12b76	-0.3147847
33	0x3d98cf2a	0.074613884
34	0x3d19d297	0.03755435
35	0x3d78dc55	0.060757
36	0x3e58c183	0.21167569
37	0xbd5360b4	-0.051605895
38	0xbe3352cc	-0.17512053
39	0x3d8f19db	0.069873534
40	0x3da501d0	0.08056986
41	0x3cd61df9	0.026137339
42	0x3eab2d37	0.33432934
43	0xbcf21514	-0.029551066
44	0x3d9d5d8c	0.07683858
45	0xbe5e9f88	-0.21740544
46	0x3e0ae2a3	0.13563018
47	0x3e1f02c8	0.15528405
48	0x3e4250bc	0.1897611
49	0x3d3e1c00	0.04641342
50	0x3dd09091	0.10183824
51	0xbd06a096	-0.03286799
52	0x3ddad814	0.10685745
53	0xbde52cd6	-0.111901924
54	0x3e2a8f37	0.16656195
55	0x3e1c35d4	0.15254909
56	0xbea72d99	-0.32651976
57	0xbe624616	-0.22097048
58	0xbd97b627	-0.0740779
59	0xbb1f836a	-0.0024339803
60	0x3b7f7814	0.0038981484
61	0xbd94418b	-0.07239064
62	0xbc9d5868	-0.019207194
63	0x3dc841ba	0.09778161
64	0xbcebecf0	-0.028799504
65	0xbe28381f	-0.16427658
66	0xbdef67b5	-0.116897024
67	0x3d41f7cb	0.047355454
68	0x3e64c950	0.2234242
69	0xbe696b96	-0.22794947
70	0x3e51b555	0.20479329
71	0x3e4af7a2	0.19821027
72	0x3d7fee96	0.062483393
73	0xbe8b0d20	-0.2715845
74	0xbe05d72b	-0.13070361
75	0xbe290ae2	-0.16508058
76	0x3dc7f81f	0.09764122
77	0x3dd531a5	0.104098596
78	0xbe1fc392	-0.15601948
79	0xbe5078b1	-0.2035854
80	0xbe97a7d8	-0.29620242
81	0xbe851d62	-0.2599898
82	0xbdbd5cfe	-0.092462525
83	0xbcc742f9	-0.024323927
84	0x3d54ecd0	0.051983654
85	0xbe2fe367	-0.17176591
86	0x3be6b9eb	0.007041206
87	0x3ca6b946	0.020352017
88	0x3e232a4d	0.15934105
89	0xbe9298f6	-0.28632325
90	0x3e757311	0.23969676
91	0x3e5efe1d	0.21776624
92	0x3e1d25af	0.15346406
93	0x3df71588	0.12064654
94	0x3e832f22	0.25621897
95	0xbd76f018	-0.060287565
96	0xbe0f6453	-0.14003114
97	0x3e985b26	0.2975704
98	0xbe90a933	-0.2825409
99	0xbe6385b2	-0.2221897
100	0xbe8e7a47	-0.27827665
101	0xbe262479	-0.1622485
102	0xbe5df8bf	-0.2167692
103	0xbe503969	-0.203344
104	0x3e947075	0.28992048
105	0xbc92ce24	-0.017920561
106	0xba1646c0	-0.00057325885
107	0x3d990efc	0.07473561
108	0x3e76ffb9	0.24120988
109	0xbe36a591	-0.17836596
110	0xbe9dfd33	-0.30857238

JKNet_layer_list.5.weight f4 [111]
0	0x3fa40664	1.281445
1	0x3f842c83	1.0326084
2	0x3f9cc808	1.2248545
3	0x3fef7067	1.8706177
4	0x3f87ed26	1.0619247
5	0x3fa2b1b7	1.2710484
6	0x3f13a090	0.57666874
7	0x3fd120b8	1.633811
8	0x3f40c79e	0.7530459
9	0x3f9b2a3b	1.2122263
10	0x3f10bb59	0.5653587
11	0x3fc87d64	1.5663266
12	0x3fa3be85	1.2792517
13	0x3f8f71ff	1.1206664
14	0x3f1a7e79	0.6034923
15	0x3f286902	0.6578523
16	0x3f16d01e	0.5891131
17	0x3fefaac5	1.872399
18	0x3f50e371	0.8159705
19	0x3f8e0b5b	1.1097215
20	0x3fa45fc9	1.2841731
21	0x3fc61647	1.5475549
22	0x3e81877c	0.2529868
23	0x40163fd6	2.3476462
24	0x3fc75801	1.5573732
25	0x3f3ca290	0.7368555
26	0x3f9ac773	1.2092117
27	0x3fa344a5	1.2755324
28	0x3f8e84d2	1.1134284
29	0x3ff95bde	1.9481161
30	0x3ff1ff2a	1.8905995
31	0x3f79e484	0.9761431
32	0x3f9e4949	1.2366115
33	0x3f930e7e	1.1488798
34	0x3ece8ee8	0.40343404
35	0x3f9e309a	1.2358582
36	0x3e832f6f	0.25622126
37	0x3f820144	1.0156636
38	0x3fb926cb	1.4464964
39	0x3f43e328	0.7651849
40	0x3f718dfd	0.9435728
41	0x3f86166e	1.0475595
42	0x3fc1c517	1.5138272
43	0x3f5f7e2e	0.8730191
44	0x3f28d70c	0.65953135
45	0x3f183437	0.59454674
46	0x3fc3fede	1.5312154
47	0x3fa2681a	1.2688019
48	0x3f58e633	0.84726256
49	0x3fa133a3	1.2593883
50	0x3f3ea2ca	0.74467146
51	0x3f01280a	0.5045172
52	0x3ffb2715	1.9621302
53	0x3f899c9e	1.0750921
54	0x4010810a	2.257876
55	0x3f98d5c3	1.1940235
56	0x3f38863f	0.72079843
57	0x3fcae64f	1.5851535
58	0x3f3c78aa	0.7362162
59	0x3f9754fa	1.1822808
60	0x3f900813	1.1252464
61	0x3fce209d	1.6103703
62	0x3fb397d1	1.4030706
63	0x3fa8793b	1.3161997
64	0x3f471122	0.7776052
65	0x3f702b4c	0.93816066
66	0x3f1e64d7	0.6187262
67	0x3f99f38c	1.202745
68	0x3fa00f72	1.2504714
69	0x3f26d39a	0.6516663
70	0x3fde71fa	1.7378533
71	0x3faee062	1.3662226
72	0x3f88cf32	1.0688231
73	0x3f4dfe8c	0.8046653
74	0x3fe5819a	1.7930176
75	0x3fc49db8	1.5360632
76	0x3f5d72cc	0.8650329
77	0x3fb463d2	1.4092963
78	0x3f4f38a4	0.809458
79	0x3fc0f21f	1.507389
80	0x3f1e22f8	0.6177211
81	0x3f854a44	1.0413289
82	0x3eddf651	0.43351987
83	0x3fac5c5e	1.3465688
84	0x3ff58894	1.9182305
85	0x3fa53f10	1.290987
86	0x3f2de971	0.6793433
87	0x3f9631b5	1.1733919
88	0x3f9f481d	1.2443882
89	0x3fcd9ab6	1.6062839
90	0x3f8c1ce0	1.0946312
91	0x3fb7c935	1.4358279
92	0x3fa824f0	1.3136272
93	0x3f467580	0.7752304
94	0x401d7304	2.460145
95	0x3fab24fb	1.337066
96	0x3f87692f	1.0578974
97	0x3fcb58a7	1.588643
98	0x3f355f27	0.70848316
99	0x3f455b7c	0.7709272
100	0x3f21edf0	0.6325369
101	0x3ff291bc	1.8950725
102	0x3fec5a2e	1.8465021
103	0x3f8acbf3	1.084349
104	0x3fe44ad5	1.7835337
105	0x3f587c31	0.845645
106	0x3fa4dcbc	1.2879863
107	0x3f41a96f	0.7564916
108	0x3fb51a14	1.4148583
109	0x3f9d6ac7	1.2298211
110	0x3f5def52	0.866933

JKNet_layer_list.5.bias f4 [111]
0	0xbe19f5a8	-0.15035117
1	0x3e85920e	0.26087993
2	0x3e1bbb26	0.1520811
3	0xbf57efd4	-0.84350324
4	0xbf0c8328	-0.5488763
5	0xbf44a7ef	-0.76818746
6	0xbeef850a	-0.46781188
7	0x3d6a22ca	0.057162084
8	0xbf064193	-0.5244381
9	0xbf43c91e	-0.76478755
10	0xbda00cd7	-0.07814949
11	0xbca880a7	-0.020569159
12	0xbf1cb9e6	-0.6122116
13	0xbe57019a	-0.20996705
14	0xbf1a8faf	-0.60375494
15	0xbe8f5935	-0.27997747
16	0xbf15a4f0	-0.584548
17	0xbeecf37f	-0.46279523
18	0xbefcd63b	-0.49382195
19	0x3e2199f0	0.15781379
20	0xbfd65644	-1.6745076
21	0xbf1cde43	-0.61276644
22	0xbf4d6d14	-0.80244565
23	0xbee0d06a	-0.43909007
24	0xbc572044	-0.013130251
25	0xbf9a6317	-1.206149
26	0xbf66878c	-0.9005058
27	0x3e342beb	0.17594878
28	0xbef84867	-0.4849274
29	0x3d89dc17	0.06731432
30	0x3d1e0a50	0.038584054
31	0xbe1b1f8f	-0.15148757
32	0xbf003bd9	-0.5009132
33	0xbeeb9983	-0.46015558
34	0xbce9c59e	-0.028536614
35	0xbe222629	-0.1583487
36	0xbe2acf97	-0.16680752
37	0xbea30a04	-0.3184358
38	0xbf3926b4	-0.7232468
39	0xbe03322b	-0.12812106
40	0xbe046096	-0.1292747
41	0xbdc76c8d	-0.09737501
42	0xbf1cfc2a	-0.6132227
43	0xbeca3c65	-0.39499202
44	0xbed73513	-0.4203268
45	0xbf0da451	-0.5532885
46	0xbf1f53cb	-0.6223723
47	0xbeadaf12	-0.3392263
48	0xbf3ebc7c	-0.74506354
49	0x3de1e4c2	0.1102996
50	0xbeaedd34	-0.3415314
51	0xbf231994	-0.63710904
52	0xbed06b4f	-0.4070687
53	0xbef0705d	-0.46960726
54	0x3cc1c0e4	0.023651548
55	0x3d9aa7ca	0.075515345
56	0xbdf683f5	-0.120368876
57	0xbed8018c	-0.4218868
58	0xbeba4506	-0.36380786
59	0xbee7d6c3	-0.45281038
60	0xbebbe3fd	-0.3669738
61	0xbf07ec13	-0.53094596
62	0xbf8d4f06	-1.1039741
63	0xbf6518a8	-0.8949075
64	0xbea940a4	-0.3305713
65	0xbe9d93c6	-0.30776805
66	0xbdb8d4c8	-0.0902496
67	0xbf450f96	-0.7697691
68	0xbea50ebe	-0.3223781
69	0xbe0b0771	-0.13577057
70	0x3d6a351a	0.057179548
71	0x3d7f1351	0.06227428
72	0xbf1b0afc	-0.60563636
73	0xbd0a4cc7	-0.033764627
74	0x3ed2d241	0.41176036
75	0xbecb57db	-0.39715466
76	0x3e33a458	0.17543161
77	0xbf1860b8	-0.5952258
78	0xbefa2f7b	-0.4886435
79	0x3e34a08c	0.17639369
80	0xbeb1eaef	-0.34749553
81	0xbf03c2b6	-0.5146898
82	0xbe891a26	-0.26777762
83	0xbecd856b	-0.40140852
84	0xbf92a21c	-1.1455722
85	0xbee2171d	-0.4415826
86	0xbe2b217e	-0.16711995
87	0xbf0c88c8	-0.5489621
88	0xbe6d5064	-0.23175198
89	0xbf30005e	-0.6875056
90	0xbf305122	-0.688738
91	0xbf4a026f	-0.78909963
92	0xbe2b5392	-0.16731098
93	0x3e9cda57	0.3063533
94	0xbeb3a650	-0.35087824
95	0xbf429acb	-0.76017445
96	0xbebb649b	-0.36600193
97	0xbf3ac774	-0.7296059
98	0xbe1a75b4	-0.15083963
99	0xbe7acb0f	-0.24491523
100	0xbee6f24f	-0.45106742
101	0xbf6bc2e2	-0.9209424
102	0xbe903840	-0.28167915
103	0x3e067dfe	0.13134
104	0xbeb863e2	-0.36013705
105	0x3db98a64	0.09059599
106	0xbeaa3171	-0.33240846
107	0xbe8c7f58	-0.27440906
108	0x3e883029	0.26599243
109	0xbf57ccd1	-0.842969
110	0xbefd839f	-0.4951448

JKNet_layer_list.5.running_mean f4 [111]
0	0xc04f87bd	-3.2426598
1	0xc00d8f36	-2.211866
2	0x3f838e9d	1.0277897
3	0x3ee208be	0.44147295
4	0xc08f0607	-4.4694858
5	0xc0933c44	-4.6011066
6	0xc00fcb40	-2.2467804
7	0xbed2f20b	-0.4120029
8	0xc02c0bc6	-2.6882186
9	0x4003f0e4	2.0615778
10	0xc007f1ce	-2.1241336
11	0xc05dff81	-3.4687197
12	0xc06ff7f9	-3.74951
13	0xbe916a3b	-0.2840136
14	0xbfb5ccf2	-1.4203169
15	0xc0629530	-3.5403557
16	0xbec0ac7d	-0.37631598
17	0xc06c1580	-3.6888123
18	0x40822294	4.066721
19	0xbf26a3f4	-0.6509392
20	0xbeb66551	-0.35624173
21	0xc0c5db3a	-6.183011
22	0x3fb95ae4	1.4480863
23	0xc03de5d8	-2.9671535
24	0x40704fd9	3.7548735
25	0x3ff5c3d3	1.9200386
26	0xbf9207cc	-1.140863
27	0x3e9f39ad	0.3109869
28	0xc04292cf	-3.0402105
29	0xc03366fd	-2.803161
30	0xbfcee9b5	-1.6165072
31	0xbf66cf4e	-0.9016007
32	0xc08bbbfa	-4.3666964
33	0xbe377391	-0.17915179
34	0xbf1d37a1	-0.6141301
35	0xbf2b614c	-0.6694534
36	0x3fa3f0d8	1.2807875
37	0xbfc854b4	-1.5650849
38	0xbf688565	-0.90828544
39	0xc021c12b	-2.527415
40	0xc078fe1d	-3.8905098
41	0xbeb072ef	-0.34462687
42	0x3fcaaec9	1.583459
43	0x3f8be070	1.0927868
44	0xbf43f883	-0.76551074
45	0xbf35337b	-0.7078168
46	0x40223749	2.5346243
47	0xbfee3142	-1.8608782
48	0x3fe8692d	1.8157097
49	0xbfb9ac27	-1.4505662
50	0xbea31fab	-0.31860098
51	0xc085600c	-4.1679745
52	0xc07fa6c8	-3.9945545
53	0xc07a4ab2	-3.910809
54	0xbf44eee1	-0.76927
55	0xc0cbdcdf	-6.370712
56	0xc0006a02	-2.0064702
57	0x406511a4	3.5792017
58	0xc0089846	-2.134294
59	0x3f0945a3	0.5362188
60	0xbf8339ea	-1.0252049
61	0xbed80b60	-0.42196178
62	0xc0c287e3	-6.0790877
63	0xc08eb5c9	-4.4596906
64	0x40362ab9	2.8463576
65	0xc03a95da	-2.9153962
66	0xbfadcc4c	-1.3577971
67	0x3f94ec22	1.1634562
68	0xc052f522	-3.2962117
69	0xbfc40087	-1.5312661
70	0xc07d7c09	-3.9606955
71	0xbf84286a	-1.0324833
72	0xc07b1aad	-3.9235032
73	0x3ef6c61a	0.48198014
74	0xc02916ae	-2.6420093
75	0x40121258	2.2823696
76	0xbfd27453	-1.6441749
77	0xc05ae634	-3.4203005
78	0xc0071f42	-2.1112828
79	0xbfee5af2	-1.8621504
80	0xc0179abc	-2.3688192
81	0xc03ef860	-2.9839096
82	0x401eacd4	2.4792986
83	0xc01cf3d2	-2.4523816
84	0xc0dba65c	-6.8640575
85	0x3f488953	0.7833454
86	0xc0224d41	-2.5359652
87	0xc0329745	-2.7904828
88	0x40b7dec1	5.7459416
89	0xc0f461c9	-7.6369367
90	0xc001ff93	-2.031224
91	0xc088e23c	-4.2776165
92	0xc0054081	-2.082062
93	0xc0832a15	-4.098887
94	0xc06b13dd	-3.6730874
95	0x40d02fe2	6.505845
96	0xc05185bb	-3.2737873
97	0xc0807ce9	-4.015248
98	0xbfa4e07e	-1.288101
99	0xbf9e1ad2	-1.2351935
100	0xbfe03221	-1.7515298
101	0xc0265087	-2.598665
102	0xc0420951	-3.0318186
103	0x3e077c04	0.13230902
104	0xc008031f	-2.1251905
105	0x3cd35b4f	0.025800375
106	0xbfc7cb52	-1.5608923
107	0xc043f6de	-3.0619426
108	0x409e85c1	4.9538274
109	0x407c2fed	3.9404252
110	0xbfe039c4	-1.7517629

JKNet_layer_list.5.running_var f4 [111]
0	0x4175b40f	15.35646
1	0x41aafca9	21.37337
2	0x41d5f8f5	26.746561
3	0x4196fdec	18.873985
4	0x414a6861	12.650483
5	0x416ae5f3	14.68114
6	0x417e4890	15.892715
7	0x41e74b19	28.911669
8	0x418ac395	17.345499
9	0x41881e96	17.014935
10	0x41cc136b	25.509481
11	0x410f9f55	8.976399
12	0x412fc6c9	10.986032
13	0x4193436e	18.407925
14	0x41807471	16.056856
15	0x415f2a45	13.94782
16	0x41525649	13.146066
17	0x41ae7138	21.805283
18	0x41a97c6c	21.185753
19	0x41fcd685	31.604746
20	0x40de8421	6.953629
21	0x415bc8c3	13.736514
22	0x40c4f249	6.154576
23	0x41ccf1dc	25.618095
24	0x419f9ab6	19.950542
25	0x40f4cfde	7.6503744
26	0x4135d032	11.363329
27	0x4228fa58	42.244476
28	0x4160d756	14.052572
29	0x41c9b19b	25.211721
30	0x41cb1758	25.386398
31	0x41ed8d1f	29.693907
32	0x4181b0bc	16.211296
33	0x4180f0f0	16.117645
34	0x41fc47ef	31.535124
35	0x418092dd	16.07171
36	0x410fe911	8.994401
37	0x4197bdcd	18.967676
38	0x411a99bf	9.662536
39	0x41dd69c1	27.676638
40	0x419cf4d2	19.619541
41	0x4170a3e2	15.04001
42	0x41ab3f67	21.405958
43	0x412f4c89	10.956185
44	0x41a8639f	21.048643
45	0x41be965b	23.823416
46	0x412ffc95	10.999166
47	0x4144297b	12.260127
48	0x41235154	10.2073555
49	0x4234e32f	45.22186
50	0x419229cc	18.270409
51	0x4166f08c	14.433727
52	0x41699cf8	14.600822
53	0x413ed184	11.926151
54	0x420e5196	35.579674
55	0x4183b664	16.464058
56	0x41b638d9	22.777758
57	0x41f11aea	30.138142
58	0x415032bd	13.012387
59	0x415e366d	13.888288
60	0x4142bf19	12.171655
61	0x4187b079	16.961168
62	0x41daa688	27.331314
63	0x41680fbc	14.503841
64	0x417badac	15.7299
65	0x4109a30c	8.602306
66	0x41730b96	15.190329
67	0x41481bd1	12.506791
68	0x417c9dc3	15.788516
69	0x41af67e7	21.925734
70	0x4150c132	13.047167
71	0x41ba7139	23.305285
72	0x418962b1	17.17319
73	0x41950afb	18.630362
74	0x4186edcd	16.866114
75	0x41742475	15.258901
76	0x41c13557	24.151045
77	0x41b44b56	22.536785
78	0x40fb9577	7.861995
79	0x41ccee87	25.616468
80	0x41993dc5	19.15516
81	0x419c2b35	19.521097
82	0x41410e04	12.065922
83	0x419d4e2d	19.663172
84	0x41d31d35	26.389261
85	0x4174125f	15.254485
86	0x41cedb58	25.857101
87	0x41969c66	18.826366
88	0x4130a83c	11.041073
89	0x41c0faf3	24.122534
90	0x415a8010	13.656265
91	0x4133fc09	11.249032
92	0x413f610f	11.961196
93	0x41bae377	23.361067
94	0x4212d35b	36.7064
95	0x41344015	11.265645
96	0x4188f5a0	17.119934
97	0x41bcfd35	23.623636
98	0x419e799e	19.809383
99	0x41e9f358	29.24382
100	0x416ed350	14.92659
101	0x41c6da4e	24.856594
102	0x41f5fc43	30.748175
103	0x41edcccc	29.724998
104	0x41d8fe68	27.124222
105	0x41763764	15.388523
106	0x41ace928	21.613846
107	0x41bc56e3	23.542425
108	0x41a1b349	20.212542
109	0x410b43cf	8.704055
110	0x41309011	11.035172

JKNet_layer_list.8.weight f4 [111, 111]
0	0x3ea99c63	0.33127126
1	0xbea59769	-0.3234208
2	0xbec15a3b	-0.37764153
3	0xbf1caa5a	-0.61197436
4	0x3e928b41	0.28621867
5	0x3ed46e43	0.41490373
6	0x3ec350a8	0.38147473
7	0xbf23585e	-0.6380671
8	0x3ea441e5	0.32081524
9	0x3e773490	0.24141145
10	0x3d1255d9	0.035726402
11	0x3e0b0f8b	0.13580148
12	0x3ec7d95b	0.39033017
13	0xbe8b7d83	-0.27244195
14	0xbe1b3102	-0.15155414
15	0xbe806ba7	-0.25082132
16	0x3e926c71	0.2859836
17	0x399b6418	0.0002963848
18	0xbe43058d	-0.19045086
19	0xbeeb87da	-0.46002084
20	0x3ebdffc5	0.371092
21	0x3e5e4397	0.21705471
22	0x3e6258cd	0.22104187
23	0xbf0eb607	-0.557465
24	0xbeed7df2	-0.4638515
25	0xbda4af65	-0.08041266
26	0x3e6d599b	0.23178713
27	0xbedb7c2f	-0.42868182
28	0x3e992c5d	0.2991666
29	0xbea706d3	-0.32622394
30	0xbf1e1283	-0.61746997
31	0xbe20222f	-0.1563804
32	0xbdfb148b	-0.12259778
33	0x3cd5a558	0.026079819
34	0xbea51252	-0.3224054
35	0x3ebb9527	0.36637232
36	0x3e6cc0cc	0.23120421
37	0x3c27183c	0.010198649
38	0x3ea241bf	0.31690785
39	0xbe1a6f37	-0.15081488
40	0xbe835af7	-0.25655338
41	0xbe8466cb	-0.25859675
42	0xbee9f025	-0.45691028
43	0xbd9eeea9	-0.077603646
44	0x3e924f24	0.28576005
45	0x3d7af54f	0.0612691
46	0x3e9431cc	0.28944242
47	0x3e98df63	0.2985793
48	0x3ec85527	0.39127466
49	0xbed24e68	-0.41075444
50	0xbe752b4b	-0.23942296
51	0x3e33e3b4	0.1756733
52	0xbee58ab2	-0.4483238
53	0xbd9c529f	-0.07632946
54	0xbf109991	-0.56484324
55	0x3e91f9e5	0.28510967
56	0xbe042e6d	-0.12908335
57	0xbf052eb6	-0.520244
58	0xbeebc4e5	-0.46048656
59	0x3e801dc0	0.25022697
60	0xbed96879	-0.4246252
61	0xbedf5d71	-0.43625978
62	0xbe819c5a	-0.253146
63	0x3eacc529	0.3374417
64	0xbe36182d	-0.1778266
65	0x3e81833f	0.25295445
66	0x3eaa6958	0.33283496
67	0xbe8af692	-0.27141243
68	0x3ed1435c	0.40871704
69	0xbda2c85e	-0.07948373
70	0xbc5fe3e4	-0.013665173
71	0xbf085c75	-0.5326608
72	0x3ecd17f8	0.4005735
73	0xbee6a7a3	-0.45049772
74	0xbe8f0e3d	-0.2794055
75	0xbe171fa4	-0.14758164
76	0xbea8a711	-0.32939962
77	0x3ef74a3d	0.48298827
78	0xbe93da1e	-0.28877348
79	0xbeff6e27	-0.49888727
80	0x3e8068dd	0.25080004
81	0x3e19c243	0.15015511
82	0x3e848ae0	0.25887203
83	0x3e7bdc77	0.2459582
84	0x3f1e1863	0.6175596
85	0xbdea1cf2	-0.11431302
86	0xbec0b5d8	-0.37638736
87	0x3ed6843c	0.41897762
88	0xbef0e7b2	-0.4705177
89	0x3e37a272	0.17933062
90	0x3e3da85a	0.18521252
91	0x3ea0b554	0.31388342
92	0xbedaab4e	-0.4270882
93	0xbd35e266	-0.044405364
94	0xbebe1d85	-0.37131897
95	0xbeae8616	-0.34086674
96	0x3ceb9e0c	0.028761886
97	0xbc8b19d3	-0.016980087
98	0x3e95a960	0.29230785
99	0xbde51b4e	-0.111868486
100	0xbe1afdb7	-0.15135847
101	0x3dcb8f27	0.099394135
102	0xbe692f29	-0.22771896
103	0xbe6f6f5c	-0.23382324
104	0x3da338d5	0.07969824
105	0xbcab6f06	-0.020926964
106	0x3ec411c7	0.38294813
107	0xbe5c3797	-0.21505581
108	0xbe6d1449	-0.2315227
109	0xbdb3fa77	-0.08788007
110	0xbe5fa99a	-0.21842042
111	0x3ebec1d5	0.37257257
112	0xbef52538	-0.47879958
113	0x3e5cb749	0.21554293
114	0x3e83da43	0.25752458
115	0x3eca2598	0.39481807
116	0x3e954915	0.2915732
117	0x3eff4f96	0.49865407
118	0x3dc5e4cf	0.096627824
119	0x3ea15d76	0.31516618
120	0x3ef2839e	0.4736604
121	0xbdccd5e6	-0.100017354
122	0x3e6fc1b0	0.2341373
123	0xbe93aacb	-0.28841242
124	0xbe382fa3	-0.17986922
125	0xbe0011ba	-0.12506762
126	0xbeb166a6	-0.34648627
127	0x3eb67b2d	0.3564085
128	0xbe9dcbf2	-0.3081966
129	0xbda23766	-0.07920723
130	0x3ce2dea2	0.02769405
131	0x3ca971d5	0.020684162
132	0xbe3ec4ad	-0.18629713
133	0x3ee93085	0.4554483
134	0x3e5cbc66	0.21556243
135	0x3e286ed6	0.1644853
136	0x3ea2cdf1	0.31797746
137	0x3eed287b	0.46319947
138	0x3c697766	0.014249658
139	0x3e9a5256	0.30140942
140	0x3d1d48b9	0.03839943
141	0x3dc2c5ca	0.095103815
142	0xbd7e91dc	-0.06215082
143	0xbdf35015	-0.11880509
144	0x3e8152dd	0.25258532
145	0x3cee4535	0.029085735
146	0x3dac8949	0.084246226
147	0x3ea53bf3	0.322723
148	0x3f0a0f75	0.53929836
149	0xbe06693b	-0.1312608
150	0xbe5d4a5c	-0.21610397
151	0xbe00f132	-0.12592009
152	0xbe2487dd	-0.16067453
153	0x3f07dc8c	0.530709
154	0x3e130d64	0.14360577
155	0x3e87ecbb	0.265478
156	0xbe02bd1d	-0.12767453
157	0x3ebf547b	0.3736914
158	0x3e2eddc4	0.17076784
159	0x3eb24a57	0.34822342
160	0xbebc8f5c	-0.36828125
161	0xbec0169d	-0.37517253
162	0x3eafda82	0.34346396
163	0xbbed2d95	-0.0072381
164	0xbe71203a	-0.2354745
165	0xbcb6d7e0	-0.022319734
166	0x3e12a37c	0.14320177
167	0xbd9ddfeb	-0.077087246
168	0xbcff8b14	-0.031194247
169	0xbd18c184	-0.037293926
170	0x3ee56378	0.4480245
171	0x3e776161	0.24158241
172	0x3e810432	0.25198513
173	0x3ef49674	0.47771037
174	0x3ea64c74	0.32480204
175	0xbe08b8b1	-0.13351704
176	0xbdbf8464	-0.093514234
177	0x3ea1b23a	0.3158129
178	0x3f1a2d2a	0.60225165
179	0xbebe957f	-0.3722343
180	0xbe1e68fe	-0.15469739
181	0xbe808e2f	-0.25108477
182	0xbd6b5680	-0.05745554
183	0x3ea46b52	0.3211313
184	0xbed7a46a	-0.42117625
185	0xbd8558d3	-0.065110825
186	0x3f188a46	0.5958599
187	0xbeca9549	-0.3956702
188	0x3e885f9f	0.26635453
189	0xbded4165	-0.11584739
190	0xbc16692e	-0.00918035
191	0x3ea3b444	0.3197347
192	0x3ecd2340	0.40065956
193	0x3e9fae49	0.31187657
194	0x3ec02b04	0.37532818
195	0x3f13c3d6	0.57720697
196	0xbe864ce8	-0.2623055
197	0xbe0c2a67	-0.1368805
198	0x3ecc2cda	0.3987797
199	0x3e9273d4	0.28603995
200	0x3ec1041a	0.37698442
201	0x3e57be46	0.21068677
202	0x3e0c9cca	0.13731685
203	0x3d151034	0.036392406
204	0xbe6c52b5	-0.23078425
205	0xbd282517	-0.041050997
206	0xbe027b60	-0.12742376
207	0x3f08c3b8	0.53423643
208	0x3ef502c1	0.47853664
209	0xbd4a96fe	-0.049460404
210	0x3a7acf22	0.00095676084
211	0xbea9ab96	-0.33138722
212	0x3f292e80	0.6608658
213	0xbe833dbe	-0.25633043
214	0xbe24895e	-0.16068026
215	0x3ef77a7b	0.48335633
216	0xbed0af5c	-0.4075879
217	0x3ee13790	0.43987703
218	0xbea2fdd2	-0.31834275
219	0xbe38d36b	-0.180494
220	0x3e0c4dc9	0.13701548
221	0xbec48eda	-0.38390237
222	0x3e9a36b8	0.30119872
223	0xbe9f089b	-0.31061253
224	0xbe7c709b	-0.2465233
225	0xbee7d21d	-0.4527749
226	0x3eacff5e	0.3378858
227	0x3e96e696	0.29472798
228	0x3ea8c734	0.3296448
229	0xbefa702a	-0.489137
230	0x3e571410	0.21003747
231	0x3ea08d00	0.31357574
232	0xbeb49884	-0.3527261
233	0x3e71dce7	0.23619424
234	0x3eb74993	0.3579832
235	0xbe7a22c3	-0.24427323
236	0xbec60d0d	-0.38681832
237	0xbe6c509c	-0.23077625
238	0x3e84511d	0.25843135
239	0xbe9de94b	-0.3084205
240	0xbe529657	-0.20565163
241	0xbebdde67	-0.37083742
242	0x3eec045a	0.4609707
243	0x3ed243c2	0.4106732
244	0x3e8d5349	0.27602604
245	0xbedca568	-0.43094945
246	0xbed2c5de	-0.41166586
247	0xbeb10864	-0.34576714
248	0x3e081d60	0.13292456
249	0xbe953493	-0.29141673
250	0x3e393dcd	0.18089981
251	0xbeeee033	-0.46655425
252	0xbe9dd96d	-0.30829945
253	0xbec8df6a	-0.3923295
254	0xbdc5a1b0	-0.0964998
255	0x3e36239c	0.17787021
